stream/onnx_models/gtcrn_simple.onnx (onnx, 535190 bytes, 161 tensors)

encoder.en_convs.2.tra.att_fc.bias f4 [8]
-0.4698118 -0.49838254 -0.3728912 -0.33100888 0.12825859 -0.0714759 -0.46948057 -0.25788626
00000000: 2c8b f0be ff2b ffbe 98eb bebe ff79 a9be
00000010: 3856 033e f561 92bd c25f f0be ab09 84be

encoder.en_convs.3.tra.att_fc.bias f4 [8]
0.2367172 -0.6501206 0.43512976 -0.26948842 -0.6844274 -0.35499388 -0.21338008 -0.4152578
00000000: fe65 723e 4e6e 26bf 54c9 de3e 63fa 89be
00000010: a236 2fbf c2c1 b5be 4f80 5abe ac9c d4be

encoder.en_convs.4.tra.att_fc.bias f4 [8]
0.096244164 -0.18933487 -0.40076214 -0.4212559 0.054645162 -0.3112503 -0.43396083 -0.38883117
00000000: a91b c53d 00e1 41be b230 cdbe daae d7be
00000010: 9bd3 5f3d 335c 9fbe 1d30 debe e114 c7be

dpgrnn1.intra_fc.bias f4 [16]
0.043218836 0.37948427 -0.42792577 -0.3260214 0.18719839 0.67356 0.30402285 0.5808314
-0.40862146 -0.4018321 -0.014218175 -0.21068312 -0.26701248 0.035639543 -0.06387938 -0.05411977
00000000: 3c06 313d c34b c23e 1619 dbbe 47ec a6be
00000010: efb0 3f3e 6e6e 2c3f e2a8 9b3e 5eb1 143f
00000020: d536 d1be f0bc cdbe 59f3 68bc 51bd 57be
00000030: dcb5 88be c5fa 113d 31d3 82bd b1ac 5dbd

dpgrnn1.intra_ln.weight f4 [33, 16]
1.0266297 -0.1168532 1.1166166 0.5147996 1.5231085 0.81437343 1.4312097 0.85184544
0.9159436 1.2866522 0.86981237 1.3827691 1.1345869 0.5177952 0.6605575 -0.3079879
1.0206541 0.5895488 1.0684587 1.1648268 1.5153738 0.49827632 2.2402775 0.5503076
1.5029413 1.6154304 0.5110091 1.2009852 0.48522964 0.86558527 0.7718758 0.94400835
0.8365158 0.3617011 0.74099785 1.2712452 1.580354 0.36138287 1.7245793 0.675366
1.139179 0.9830972 0.58962137 1.1355563 1.1321291 0.9417648 0.5627466 0.7913726
0.6173935 0.7642397 0.9552029 1.2008104 1.3485167 0.5264548 1.4720732 0.739094
1.0600618 0.99071896 0.5809597 1.1698442 1.12528 0.70919794 0.5829551 0.984027
0.4006275 1.1509708 1.0316595 1.1309683 0.94364554 0.6602272 1.4958434 0.94965535
0.8977166 0.9670759 0.58166385 0.9498131 1.0477074 0.8628328 0.66697365 0.9319748
0.54000515 1.0983223 1.0824676 1.1976252 0.8688371 0.97668785 1.4830618 0.94526565
0.9151272 0.6339411 0.7710072 1.2580012 0.9698315 0.7436433 0.7198768 0.9489708
0.59476656 0.72370493 1.1778207 1.3394545 0.8533247 0.93467873 1.0894393 0.9175906
0.7209879 0.49379057 1.044312 1.3667561 1.1610653 0.7807799 0.61855453 1.1364291
0.5272333 0.55465627 1.1354243 1.139499 0.8529871 0.83187324 1.0372113 1.0596998
0.76396316 0.59107786 1.0720981 0.98648673 1.1719135 0.87719935 0.6760176 1.1838139
0.6857808 0.827865 0.8615339 0.94340926 0.81872755 0.9138786 0.8815128 1.0994726
0.7580183 0.620145 1.1244731 0.766493 1.1331929 0.97794753 0.7513823 1.347029
0.6932009 1.0521475 0.7733014 0.7366566 0.8292217 0.98922276 0.83633566 1.1273183
0.7714202 0.6548355 1.1699542 0.39784002 0.98562104 0.8918981 0.69432926 1.501273
0.710871 1.2212238 0.7602582 0.732151 0.8685243 0.99623907 0.81838304 1.0740211
0.79825884 0.7618551 1.238427 0.2847815 0.9068909 0.87875175 0.6353401 1.7139453
0.7458039 1.2987975 0.5621004 0.76041996 0.9775396 1.0109929 0.76112133 1.0452156
0.6855611 0.74491185 1.2560269 0.51148057 0.9053329 0.72588015 0.6514256 1.7840935
0.7793176 1.3767238 0.6141965 0.864789 0.9780197 0.99305147 0.8019395 0.9904936
0.6270146 0.69012094 1.3163626 0.76560605 0.8845549 0.6876049 0.6611954 1.7867353
0.704895 1.3769661 0.54264337 0.88144 1.0242183 1.0403665 0.7278341 0.8999122
0.5533674 0.60077345 1.2987278 0.91244656 0.91638476 0.6171864 0.66113913 1.6703528
0.7054309 1.3436147 0.52480197 0.82199335 0.99064076 1.0794392 0.66679174 0.7950899
0.4774035 0.6424326 1.3030255 1.0667012 0.97745055 0.6955776 0.7014298 1.617095
0.7416313 1.2904159 0.651009 0.89969796 1.0653999 1.075176 0.6792709 0.8825797
0.6088875 0.45047724 1.3583884 0.9106863 1.0356222 0.7052555 0.75570214 1.6799966
00000000: 9a68 833f bb50 efbd 4bed 8e3f e8c9 033f
00000010: 38f5 c23f c77a 503f e131 b73f 8b12 5a3f
00000020: 487b 6a3f 05b1 a43f 06ac 5e3f 94fe b03f
00000030: 253a 913f 3a8e 043f 4c1a 293f 97b0 9dbe
00000040: cba4 823f acec 163f 41c3 883f 0b19 953f
00000050: c5f7 c13f 131e ff3e b560 0f40 f5e0 0c3f
00000060: 6160 c03f 6cc6 ce3f 7ed1 023f e2b9 993f
00000070: 0570 f83e ff96 5d3f a799 453f 88aa 713f
00000080: e625 563f e330 b93e 09b2 3d3f 2ab8 a23f
00000090: 0a49 ca3f 2d07 b93e 04bf dc3f c9e4 2c3f
000000a0: 9ed0 913f 42ac 7b3f 6df1 163f e959 913f
000000b0: 9be9 903f 7f17 713f 2910 103f 6597 4a3f
000000c0: 800d 1e3f 37a5 433f 2d88 743f 28b4 993f
000000d0: 329c ac3f bec5 063f e56c bc3f 4435 3d3f
000000e0: 1bb0 873f c29f 7d3f c6b9 143f 74bd 953f
000000f0: 2d09 903f ff8d 353f 8c3c 153f 32e9 7b3f
00000100: 0c1f cd3e 0353 933f 6b0d 843f 92c3 903f
00000110: c192 713f a604 293f cc77 bf3f 9d1c 733f
00000120: c1d0 653f 4992 773f ece7 143f f426 733f
00000130: 471b 863f 9ce2 5c3f c9be 2a3f e795 6e3f
00000140: c73d 0a3f d395 8c3f 4c8e 8a3f c84b 993f
00000150: 1c6c 5e3f 3708 7a3f f8d4 bd3f eefc 713f
00000160: c745 6a3f f749 223f ba60 453f 2f06 a13f
00000170: e146 783f 685f 3e3f d949 383f c0ef 723f
00000180: 9f42 183f ba44 393f d4c2 963f 3f73 ab3f
00000190: 7d73 5a3f 1b47 6f3f bf72 8b3f 38e7 6a3f
000001a0: aa92 383f 1ed2 fc3e 04ac 853f ddf1 ae3f
000001b0: ca9d 943f 31e1 473f 9759 1e3f 8276 913f
000001c0: c3f8 063f f4fd 0d3f 9555 913f 1adb 913f
000001d0: 5d5d 5a3f a5f5 543f 57c3 843f 3ea4 873f
000001e0: 1793 433f e150 173f 833a 893f 658a 7c3f
000001f0: 4301 963f 2390 603f 7d0f 2d3f 3787 973f
00000200: 558f 2f3f f6ee 533f 7c8d 5c3f 4583 713f
00000210: 2198 513f f3f3 693f d3aa 613f 85bb 8c3f
00000220: 7d0d 423f d3c1 1e3f bcee 8f3f e338 443f
00000230: 770c 913f c55a 7a3f 975a 403f 726b ac3f
00000240: 9d75 313f c5ac 863f 15f7 453f 8795 3c3f
00000250: e047 543f b43d 7d3f 181a 563f f74b 903f
00000260: cb7b 453f 4da3 273f 0fc1 953f b0b1 cb3e
00000270: a951 7c3f 6f53 643f 90bf 313f b729 c03f
00000280: a4fb 353f 1051 9c3f 48a0 423f 3f6e 3b3f
00000290: 9c57 5e3f 8609 7f3f 8d81 513f 8679 893f
000002a0: b15a 4c3f f008 433f c784 9e3f e1ce 913e
000002b0: 012a 683f e0f5 603f a6a5 223f 8f62 db3f
000002c0: 01ed 3e3f ff3e a63f d0e5 0f3f e2aa 423f
000002d0: 0940 7a3f 3768 813f d9d8 423f a0c9 853f
000002e0: ef80 2f3f 8bb2 3e3f 7dc5 a03f 64f0 023f
000002f0: e6c3 673f 48d3 393f d4c3 263f 2d5d e43f
00000300: 5c81 473f 7c38 b03f fb3b 1d3f d062 5d3f
00000310: 805f 7a3f 9f38 7e3f e84b 4d3f fd90 7d3f
00000320: 0784 203f c4ab 303f 927e a83f c2fe 433f
00000330: 3172 623f e006 303f 1a44 293f beb3 e43f
00000340: 0074 343f 6d40 b03f adea 0a3f 0da6 613f
00000350: 9619 833f bb2a 853f 5653 3a3f a560 663f
00000360: 7ca9 0d3f 4acc 193f b63c a63f 1996 693f
00000370: 3198 6a3f eeff 1d3f 6a40 293f 1fce d53f
00000380: 1f97 343f 91fb ab3f 6c59 063f 286e 523f
00000390: a29a 7d3f 102b 8a3f ddb2 2a3f 038b 4b3f
000003a0: 3b6e f43e 7676 243f 8ac9 a63f aa89 883f
000003b0: 333a 7a3f 6011 323f e790 333f f8fc ce3f
000003c0: 8ddb 3d3f 592c a53f 87a8 263f 9b52 663f
000003d0: 065f 883f 5e9f 893f b3e4 2d3f bef0 613f
000003e0: 0de0 1b3f f4a4 e63e acdf ad3f bd22 693f
000003f0: 458f 843f a08b 343f b275 413f 210a d73f

dpgrnn1.intra_ln.bias f4 [33, 16]
-0.042621326 -0.15991299 0.5183848 0.33496547 -0.28167212 0.24045503 0.08338329 0.20762897
0.06458455 0.051488843 -0.27397004 0.10029371 -0.054914467 0.14248036 0.4306921 -0.15132926
0.083075464 -0.33710015 0.19017813 0.18355305 0.056968704 -0.23373936 0.40706292 0.3098546
0.6502676 0.11052906 -0.12279823 0.4853282 -0.7474941 0.31475717 0.27003312 0.44028032
0.2506348 -0.2566934 -0.007632431 -0.34024182 0.14687194 0.031222582 1.0187124 0.30757874
0.22410485 -0.28224242 0.47619578 0.23483153 -0.25275666 0.4769317 0.31905586 0.10968533
0.54637897 0.0025553443 0.423898 -0.37427327 -0.08233959 0.01000816 0.7813907 0.22178486
0.020121533 0.19979279 0.3084007 0.30985913 -0.24437296 0.22156744 0.38233036 0.10249427
0.45150936 0.008404877 0.21941507 -0.32348758 -0.21144068 0.08276464 0.6045291 -0.17068133
-0.09073258 0.12289364 0.39355925 0.14246887 -0.08109121 0.17159206 0.24379534 0.051124115
0.38989228 0.20244786 0.08107601 -0.23127241 -0.14275382 -0.10682116 0.36912543 -0.14179583
0.013775476 0.025133645 0.3134011 0.15459648 -0.20805937 0.47214618 0.026934769 0.008453243
0.3322196 0.4433361 0.31945723 -0.12548782 -0.065108016 0.008879839 0.09930986 -0.021240544
0.10295975 0.07223037 0.1319794 0.24450648 0.08753549 0.3317842 0.23529214 0.022660261
0.21314688 0.46911642 0.42576107 -0.16361402 -0.19546504 -0.17042127 0.0907189 -0.22454968
0.2012531 0.3383527 0.03686111 0.064030446 0.10164005 0.22910187 0.40811643 -0.04156861
0.13684954 0.35541794 -0.060289927 -0.03588515 -0.10976047 -0.2610502 -0.067858316 -0.23671179
0.17222984 0.41890225 0.12252104 -0.008633366 0.123149134 0.12146428 0.41782632 -0.14865933
0.028524365 0.37344077 -0.0956067 -0.06540092 0.08369281 -0.28667134 -0.11680577 -0.28108037
0.0376416 0.37983 0.24786338 -0.14455646 0.1634918 -0.01949477 0.31813443 -0.20046572
-0.036581878 0.33931535 -0.15862447 -0.047975924 0.18335754 -0.2511855 -0.22141635 -0.22716878
0.06586062 0.30294108 0.23500817 -0.21899275 0.19145904 -0.24427931 0.304321 -0.18981193
-0.07866606 0.260654 -0.27959877 -0.013186097 0.25301963 -0.15839522 -0.31276006 -0.36978832
-0.032151755 0.3212733 0.31740776 -0.13795394 0.22021148 -0.1955878 0.17308053 -0.21454522
-0.06595135 0.11965131 -0.26696357 -0.013177713 0.21482922 -0.017960612 -0.2981096 -0.3720371
-0.029819567 0.18872495 0.3815044 0.004521567 0.19385931 -0.13444868 0.16245012 -0.23375933
-0.0528511 0.111538574 -0.25715664 0.0007633334 0.2602395 -0.025224006 -0.3239535 -0.36190087
-0.12787034 0.11139174 0.33255273 0.1366762 0.21014905 -0.10040931 0.15142567 -0.21074793
0.05395397 0.045310374 -0.38556668 -0.016793337 0.13025266 -0.0920164 -0.29454523 -0.26476353
-0.16401602 0.14964707 0.22102381 0.36801642 0.2161518 -0.07303187 0.16381167 -0.23864178
0.01776627 0.06908477 -0.31048936 0.07789521 0.0948867 -0.030152433 -0.35503802 -0.2968527
0.0006692839 0.04201609 0.14115192 0.22087294 0.24352638 -0.0013671768 0.1680717 -0.23001252
00000000: b393 2ebd 3bc0 23be deb4 043f 9880 ab3e
00000010: 5437 90be d839 763e dcc4 aa3d b09c 543e
00000020: e844 843d f7e5 523d cd45 8cbe ca66 cd3d
00000030: feed 60bd 5fe6 113e ad83 dc3e 0ff6 1abe
00000040: 7823 aa3d 6498 acbe 0ebe 423e 55f5 3b3e
00000050: 0458 693d 5f59 6fbe 8d6a d03e 43a5 9e3e
00000060: f077 263f 0f5d e23d a37d fbbd f07c f83e
00000070: c65b 3fbf da27 a13e c841 8a3e 6c6c e13e
00000080: 3453 803e 516d 83be 7919 fabb 2d34 aebe
00000090: 9965 163e 80c6 ff3c 2b65 823f f67a 9d3e
000000a0: be7b 653e 1482 90be efcf f33e ad77 703e
000000b0: 5269 81be 6430 f43e 4a5b a33e b4a2 e03d
000000c0: 7edf 0b3f 9077 273b 2909 d93e bfa0 bfbe
000000d0: a9a1 a8bd 44f9 233c 3909 483f 921b 633e
000000e0: ead5 a43c 7b96 4c3e b2e6 9d3e dba5 9e3e
000000f0: e83c 7abe 93e2 623e cec0 c33e 84e8 d13d
00000100: 3c2c e73e 9cb4 093c 58ae 603e 2aa0 a5be
00000110: e883 58be 8280 a93d 6bc2 1a3f 16c7 2ebe
00000120: 01d2 b9bd a9af fb3d 9980 c93e 5ce3 113e
00000130: 2613 a6bd d4b5 2f3e 7ca5 793e 8567 513d
00000140: f69f c73e 7e4e 4f3e 2e0b a63d add2 6cbe
00000150: 0f2e 12be 0dc5 dabd 02fe bc3e ed32 11be
00000160: 89b2 613c 13e5 cd3c 1c76 a03e 8a4e 1e3e
00000170: 840d 55be 25bd f13e 4ea6 dc3c 797f 0a3c
00000180: b018 aa3e f3fc e23e e68f a33e e17f 00be
00000190: 5a57 85bd bf7c 113c f862 cb3d a600 aebc
000001a0: 90dc d23d 84ed 933d 9c25 073e e85f 7a3e
000001b0: cf45 b33d 9edf a93e 6cf0 703e 03a2 b93c
000001c0: 2d43 5a3e 0730 f03e 5bfd d93e 6f8a 27be
000001d0: fd27 48be ea82 2ebe d5ca b93d 5af0 65be
000001e0: 4b15 4e3e 913c ad3e adfb 163d 6522 833d
000001f0: a928 d03d ae99 6a3e a3f4 d03e d943 2abd
00000200: 4922 0c3e 57f9 b53e 92f2 76bd 4ffc 12bd
00000210: 19ca e0bd 5fa8 85be 4df9 8abd 9364 72be
00000220: 055d 303e 5b7a d63e 50ec fa3d f672 0dbc
00000230: 9d35 fc3d 44c2 f83d 55ed d53e 273a 18be
00000240: eeab e93c a133 bf3e 72cd c3bd ebf0 85bd
00000250: 2367 ab3d 96c6 92be dd37 efbd c4e9 8fbe
00000260: 142e 1a3d 1479 c23e e6cf 7d3e 9c06 14be
00000270: 656a 273e 7fb3 9fbc 84e2 a23e e346 4dbe
00000280: e1d6 15bd beba ad3e 746e 22be 6782 44bd
00000290: 14c2 3b3e 639b 80be f8ba 62be ef9e 68be
000002a0: efe1 863d 181b 9b3e fba5 703e a33f 60be
000002b0: d70d 443e 5b24 7abe f6cf 9b3e 0f5e 42be
000002c0: ac1b a1bd 7174 853e 9227 8fbe 800a 58bc
000002d0: ca8b 813e 5b32 22be 1622 a0be e554 bdbe
000002e0: 8fb1 03bd ef7d a43e 4583 a23e cc43 0dbe
000002f0: 1e7f 613e 2b48 48be 063c 313e beb1 5bbe
00000300: 8011 87bd bf0b f53d 73af 88be 56e7 57bc
00000310: 31fc 5b3e 2222 93bc d2a1 98be a67b bebe
00000320: 2a48 f4bc 1d41 413e 8b54 c33e a729 943b
00000330: 0e83 463e eaac 09be 5359 263e 9b5e 6fbe
00000340: 657a 58bd 566e e43d 09aa 83be 701a 483a
00000350: 1d3e 853e 93a2 cebc 3cdd a5be 124b b9be
00000360: 71f0 02be 5a21 e43d 5a44 aa3e d9f4 0b3e
00000370: 5031 573e 65a3 cdbd 550f 1b3e 4ece 57be
00000380: d7fe 5c3d 5f97 393d ff68 c5be 2e92 89bc
00000390: f460 053e 1873 bcbd a2ce 96be 168f 87be
000003a0: d1f3 27be 153d 193e 1154 623e a66c bc3e
000003b0: e656 5d3e bc91 95bd 3fbe 273e 835e 74be
000003c0: 928a 913c 517c 8d3d 76f8 9ebe 8687 9f3d
000003d0: f553 c23d 3c02 f7bc 8bc7 b5be 14fd 97be
000003e0: e272 2f3a 1019 2c3d 218a 103e 842c 623e
000003f0: fb5e 793e d732 b3ba fd1a 2c3e 6788 6bbe

dpgrnn1.inter_fc.bias f4 [16]
0.2554927 -0.90160114 -0.24018456 -0.43191832 -0.218816 -0.04279263 0.22490208 0.3639325
-0.31022027 0.09611319 0.19654399 0.46467057 0.3617265 -0.3147233 0.25546408 0.2081631
00000000: f0cf 823e 55cf 66bf f1f2 75be 6624 ddbe
00000010: 4d11 60be 5347 2fbd bb4c 663e 5c55 ba3e
00000020: 31d5 9ebe fed6 c43d d442 493e 4de9 ed3e
00000030: 3734 b93e 6a23 a1be 30cc 823e b528 553e

dpgrnn1.inter_ln.weight f4 [33, 16]
0.92442423 0.49558273 1.6044534 0.8406211 1.8844295 1.3962083 1.4927183 -0.24855196
0.6788845 1.2715935 0.8726201 1.6425003 0.3308134 0.4394211 2.1466756 1.3333771
1.3521038 0.6160929 1.0562804 1.1679538 0.6385722 0.62228566 1.0492101 0.66680676
1.075285 1.0264976 0.8617898 1.1638433 0.49099225 0.6774561 0.7678542 1.2576162
0.9561949 0.5547915 0.9315088 1.3551613 0.6889774 0.48774222 1.2346771 0.5784358
0.9600527 0.9236538 0.50262195 1.0328447 0.5510767 0.7933452 0.8081898 0.9298362
0.9834748 0.8455685 0.80704254 1.282948 0.723826 0.4651523 1.034734 0.39449432
1.130979 0.903869 0.63543296 1.3287421 0.7978372 0.6871955 0.62032926 0.7796777
0.7775631 0.83199525 0.78055626 1.1454262 0.9427543 1.2633615 0.91197324 0.46069843
1.1421674 0.7526114 0.6361819 1.1494738 0.91475755 0.78929913 0.6113272 0.580721
0.8717507 1.041861 0.7572532 0.87061846 0.75585765 1.6427927 0.77612036 0.5906106
1.1193528 0.9342198 0.7550597 0.9743397 0.921272 0.7224033 0.5368682 0.644619
1.1586701 1.1162578 0.73620534 0.8088773 0.46305373 0.80612546 0.7396922 0.72274345
1.1327794 1.069694 0.77198076 0.885033 0.7933266 0.66876787 0.4119697 0.7557312
0.81144494 1.1697505 0.8981804 0.5999944 0.65076524 0.07201714 1.1345632 1.0524932
1.0219646 0.9519267 0.9203218 0.9744104 0.79209095 0.4911504 0.49162865 0.74183846
0.50522333 1.0089061 1.2648704 0.6107983 0.859463 -0.08259243 1.4986775 1.1556405
0.9303414 0.8393335 0.7908433 1.0685997 0.8517218 0.43324882 0.58263505 0.7477635
0.43503308 0.9637856 1.40964 0.5639756 0.77755654 0.21519087 1.6232853 1.0585407
0.83446133 0.92418873 0.9121907 0.97667885 0.9850571 0.42021236 0.6831704 0.7850409
0.46105438 0.9801927 1.4812541 0.5345997 0.7357393 0.51612854 1.6528274 1.1257712
0.710086 1.0241054 0.89157015 0.9036294 0.9472461 0.5401401 0.86887544 0.8186884
0.6218952 0.96970546 1.481987 0.6578153 0.83448815 0.68196243 1.8042437 1.1882211
0.7381529 1.0867566 0.7686999 0.9020184 0.8885181 0.63210464 0.63835007 0.81632566
0.9341788 0.9015059 1.3483049 0.67740417 0.77160126 0.94011426 1.7932774 1.1146524
0.74730515 1.0480876 0.6517758 0.6839219 0.8611136 0.7979941 0.42962697 0.683204
1.1805532 0.93040687 1.3088669 0.6781745 0.8143471 1.0702226 1.71964 1.1238453
0.7097614 1.0117916 0.6926828 0.6308929 0.84129184 0.9358485 0.20068164 0.6195681
1.1612098 0.8863284 1.4110799 0.7566034 0.8415719 1.0139219 1.5452479 1.2048113
0.628206 1.0073588 0.67451495 0.47136208 0.8666923 0.8895484 0.07652833 0.54609305
1.0858451 0.91344994 1.3302376 0.65685564 1.0339894 0.9895854 1.4680785 1.1379107
0.7796986 0.89575154 0.79429 0.7549246 0.86569417 0.9930304 0.11443994 0.7284844
00000000: 11a7 6c3f 05bd fd3e bb5e cd3f f232 573f
00000010: fc34 f13f f4b6 b23f 6511 bf3f 6884 7ebe
00000020: 60cb 2d3f 93c3 a23f 0864 5f3f 733d d23f
00000030: 6060 a93e cdfb e03e 2263 0940 1aac aa3f
00000040: bd11 ad3f 44b8 1d3f 3234 873f 837f 953f
00000050: 7879 233f 1d4e 1f3f 844c 863f d9b3 2a3f
00000060: f0a2 893f 4664 833f 429e 5c3f d1f8 943f
00000070: 5663 fb3e c36d 2d3f 1892 443f 91f9 a03f
00000080: 30c9 743f d106 0e3f 5c77 6e3f ed75 ad3f
00000090: d360 303f 59b9 f93e e609 9e3f 5e14 143f
000000a0: 04c6 753f 9374 6c3f d5ab 003f 4134 843f
000000b0: 5d13 0d3f ac18 4b3f 87e5 4e3f bf09 6e3f
000000c0: 01c5 7b3f 2d77 583f 579a 4e3f a437 a43f
000000d0: a94c 393f 7128 ee3e 2a72 843f 29fb c93e
000000e0: ebc3 903f f563 673f bcab 223f 3914 aa3f
000000f0: 0f3f 4c3f 0bec 2f3f e6cd 1e3f f598 473f
00000100: 600e 473f a4fd 543f 89d2 473f 539d 923f
00000110: 5958 713f d4b5 a13f 1477 693f aae0 eb3e
00000120: 8b32 923f 24ab 403f d1dc 223f f521 933f
00000130: 8d2d 6a3f 820f 4a3f f07f 1c3f 22aa 143f
00000140: 0e2b 5f3f b45b 853f 59db 413f dae0 5e3f
00000150: e37f 413f 0847 d23f d3af 463f 4232 173f
00000160: f446 8f3f 0729 6f3f 984b 413f 546e 793f
00000170: 7bd8 6b3f 6cef 383f 3270 093f c005 253f
00000180: 4d4f 943f 89e1 8e3f f477 3c3f 9512 4f3f
00000190: 6115 ed3e 3d5e 4e3f 785c 3d3f b705 393f
000001a0: eafe 903f bceb 883f 88a0 453f 8691 623f
000001b0: 7417 4b3f 5f34 2b3f b1ed d23e 9a77 413f
000001c0: dbba 4f3f 62ba 953f 27ef 653f 3c99 193f
000001d0: 8d98 263f b97d 933d 5e39 913f 19b8 863f
000001e0: bccf 823f 78b1 733f 369a 6b3f f672 793f
000001f0: 79c6 4a3f 1178 fb3e c0b6 fb3e 20e9 3d3f
00000200: 5156 013f d623 813f 46e7 a13f 475d 1c3f
00000210: c405 5c3f 3826 a9bd aad4 bf3f 07ec 933f
00000220: db2a 6e3f 8fde 563f b574 4a3f e0c7 883f
00000230: 710a 5a3f cad2 dd3e 9227 153f 6e6d 3f3f
00000240: a8bc de3e a7ba 763f 156f b43f b460 103f
00000250: f20d 473f ff5a 5c3e d0c7 cf3f 437e 873f
00000260: 429f 553f a297 6c3f 5485 693f a007 7a3f
00000270: b42c 7c3f 1326 d73e 41e4 2e3f 71f8 483f
00000280: 520f ec3e e9ed 7a3f bc99 bd3f 87db 083f
00000290: 6959 3c3f 0021 043f d98f d33f 4519 903f
000002a0: 32c8 353f e315 833f f13d 643f 4254 673f
000002b0: b87e 723f 9f46 0a3f 9f6e 5e3f 9095 513f
000002c0: 8634 1f3f 9e3e 783f c0b1 bd3f 9566 283f
000002d0: 04a1 553f 1795 2e3f 75f1 e63f a117 983f
000002e0: 97f7 3c3f d71a 8b3f 84c9 443f aeea 663f
000002f0: ec75 633f 9cd1 213f e96a 233f b8fa 503f
00000300: 5826 6f3f 17c9 663f 4195 ac3f 5c6a 2d3f
00000310: a987 453f 54ab 703f 1d8a e53f eeac 8e3f
00000320: 644f 3f3f bc27 863f c7da 263f 8115 2f3f
00000330: f171 5c3f 5749 4c3f 11f8 db3e 75e6 2e3f
00000340: 5e1c 973f 252f 6e3f f388 a73f d89c 2d3f
00000350: 0d79 503f 0efd 883f 2a1d dc3f 2ada 8f3f
00000360: ecb2 353f 6382 813f a953 313f 3282 213f
00000370: e75e 573f c493 6f3f 7d7f 4d3e 049c 1e3f
00000380: 86a2 943f 6be6 623f 449e b43f c3b0 413f
00000390: 4271 573f 31c8 813f afca c53f 4237 9a3f
000003a0: 1cd2 203f 22f1 803f 03ad 2c3f 5f56 f13e
000003b0: 8cdf 5d3f 72b9 633f e3ba 9c3d c1cc 0b3f
000003c0: f9fc 8a3f dbd7 693f 3a45 aa3f b127 283f
000003d0: c459 843f 7855 7d3f ffe9 bb3f 0fa7 913f
000003e0: 549a 473f f94f 653f 9756 4b3f bd42 413f
000003f0: 229e 5d3f 3e37 7e3f 7d5f ea3d f47d 3a3f

dpgrnn1.inter_ln.bias f4 [33, 16]
0.38282835 0.06972843 0.66502553 -0.109874226 -0.1939767 -0.27876952 -0.23952588 0.30513388
-0.23756884 -0.39649808 0.33484957 0.3014782 0.13656214 -0.006767393 0.9505429 -0.0010601403
-0.37297547 -0.30114076 -0.06313152 -0.48168805 -0.2356635 -0.46736848 0.20419067 0.48067805
-0.018188147 -0.3408952 0.07941751 0.40582332 0.13854608 0.86155176 0.42611971 0.6717196
0.27172196 0.6339041 0.20802729 0.11966364 -0.26611382 -0.112762384 0.569959 -0.3645105
-0.04268477 0.105071336 -0.032055102 -0.19512138 0.113614485 0.7716422 -0.040817633 0.42032295
-0.17925449 0.74934787 0.2676107 0.1275155 -0.15305278 -0.042135566 0.93939525 -0.83287215
-0.020330941 0.006537342 0.0747201 -0.34701982 0.11568028 0.39846903 -0.3218427 0.49751163
0.23209389 -0.37046543 0.27811638 0.08974392 -0.12525234 0.0024186943 1.1113147 -0.8022396
0.09231419 0.49556383 -0.44883803 0.2355425 0.17154135 0.42331907 0.07859633 0.23016283
0.38436884 -0.29815653 0.16637327 0.33205205 -0.26135042 -0.40006742 0.59875554 -0.23338933
0.076443605 0.20434825 -0.08263983 0.33712816 0.10501367 0.16604422 0.47094125 0.16117324
0.10810968 0.29378974 0.10767697 0.5360544 -0.45384073 -1.02704 0.08218329 -0.18657859
-0.0783692 -0.2708196 0.10778045 0.20640425 0.29966232 -0.12667169 0.022845019 -0.22547445
0.23016922 0.51672906 -0.1997217 0.44210693 -0.5111793 -0.84849095 -0.2477752 -0.19788478
0.004536495 -0.08140897 -0.094760664 -0.4430473 0.44166574 -0.4787641 -0.121347226 -0.35779855
0.18262261 0.6617222 -0.3742707 0.21679606 -0.4615245 -0.74529976 -0.2638885 0.00082042586
0.13588223 -0.017519135 0.0029244884 -0.8514949 0.44291794 -0.6999428 0.0042842957 -0.5650188
0.27540833 0.6345596 -0.2991843 0.000843491 -0.35627127 -0.52820975 -0.019058794 -0.06946825
0.1487002 0.06133082 -0.15718606 -0.9450566 0.3087277 -0.72627455 0.05364166 -0.43333462
0.16014315 0.64613587 -0.44995522 -0.08276666 -0.29333463 -0.12642069 -0.06544142 0.014889833
0.40572068 -0.01949745 -0.10498512 -0.9023107 0.14363934 -0.7107996 0.3462901 -0.4638308
0.108467184 0.47012866 -0.3573613 -0.09141908 -0.16454677 -0.047953043 0.07789089 0.014803075
0.30903953 0.030214345 0.020820774 -0.5100545 0.0132027455 -0.55612 0.4712074 -0.22714616
0.034319773 0.15636002 -0.0983184 -0.1310512 0.11713416 0.23979418 0.18244423 0.0942813
0.31594476 0.0935492 0.049195975 0.074885 -0.058947995 -0.54202324 0.5175482 -0.17012393
-0.1386677 0.1294857 0.035564966 0.06233455 0.10724601 0.53951275 0.072410844 0.10910581
0.3223578 0.16238798 0.12760885 0.21753335 -0.15250967 -0.3935748 0.47412923 -0.122639775
-0.10013532 0.15620583 0.09945783 0.20514758 0.062274773 0.47457665 0.079475395 -0.063936144
0.5945987 0.07820584 0.18388885 0.47681382 -0.10958558 -0.41568413 0.48691314 -0.18181597
-0.040697876 -0.024462992 0.15387425 0.12777343 -0.057039615 0.5176776 -0.070420146 -0.22519553
0.0047838413 0.24773775 0.17788076 -0.45320317 0.06863547 -0.655967 0.17405933 -0.14830928
00000000: 1402 c43e c7cd 8e3d 1d3f 2a3f bd05 e1bd
00000010: d4a1 46be e1ba 8ebe 4646 75be 823a 9c3e
00000020: 3f45 73be cc01 cbbe 6771 ab3e 5a5b 9a3e
00000030: f2d6 0b3e 02c1 ddbb c856 733f 68f4 8aba
00000040: a4f6 bebe 1f2f 9abe 194b 81bd d19f f6be
00000050: c651 71be ec4a efbe 5c17 513e 6f1b f63e
00000060: 4fff 94bc d189 aebe a6a5 a23d 13c8 cf3e
00000070: 06df 0d3e a88e 5c3f 5d2c da3e d1f5 2b3f
00000080: 241f 8b3e 8a47 223f 1b05 553e 3612 f53d
00000090: 1240 88be f7ef e6bd d5e8 113f 1fa1 babe
000000a0: 3ad6 2ebd a42f d73d 364c 03bd e6cd 47be
000000b0: b6ae e83d 588a 453f 6430 27bd 9234 d73e
000000c0: 7d8e 37be 43d5 3f3f 4504 893e 6c93 023e
000000d0: deb9 1cbe 5896 2cbd 357c 703f 1c37 55bf
000000e0: 138d a6bc 3337 d63b da06 993d 95ac b1be
000000f0: c8e9 ec3d 2204 cc3e 91c8 a4be d8b9 fe3e
00000100: 05aa 6d3e a5ad bdbe 4565 8e3e a9cb b73d
00000110: 2642 00be f582 1e3b 8f3f 8e3f 935f 4dbf
00000120: 390f bd3d 8bba fd3e 19ce e5be 0e32 713e
00000130: 89a8 2f3e 47bd d83e 1df7 a03d ceaf 6b3e
00000140: fecb c43e f9a7 98be c15d 2a3e ba02 aa3e
00000150: b9cf 85be a3d5 ccbe 0b48 193f 9dfd 6ebe
00000160: 778e 9c3d ab40 513e 123f a9bd 109c ac3e
00000170: 6811 d73d 7f07 2a3e 361f f13e 990a 253e
00000180: 9c68 dd3d 9c6b 963e be85 dc3d dc3a 093f
00000190: d05d e8be 0c76 83bf b64f a83d 750e 3fbe
000001a0: 0880 a0bd dea8 8abe ffbb dc3d a35b 533e
000001b0: 576d 993e 39b6 01be 7a25 bb3c c6e2 66be
000001c0: 7bb1 6b3e 5b48 043f d883 4cbe d75b e23e
000001d0: a6dc 02bf b436 59bf c8b8 7dbe 4fa2 4abe
000001e0: e1a6 943b bfb9 a6bd e111 c2bd 19d7 e2be
000001f0: 0322 e23e 9120 f5be e584 f8bd 5f31 b7be
00000200: 6c01 3b3e a066 293f 69a0 bfbe c9ff 5d3e
00000210: f04c ecbe f7cb 3ebf 651c 87be d911 573a
00000220: b624 0b3e 4a84 8fbc c6a8 3f3b 92fb 59bf
00000230: 24c6 e23e 742f 33bf 4763 8c3b 12a5 10bf
00000240: 5202 8d3e 7f72 223f af2e 99be b91d 5d3a
00000250: 3069 b6be c138 07bf 3021 9cbc 5f45 8ebd
00000260: dd44 183e 0736 7b3d 62f5 20be 3bef 71bf
00000270: 8f11 9e3e 21ed 39bf 5bb7 5b3d 09de ddbe
00000280: 91fc 233e 2969 253f 8860 e6be 9181 a9bd
00000290: f52f 96be 6d74 01be 2706 86bd 7cf4 733c
000002a0: 9fba cf3e 1eb9 9fbc 7002 d7bd d6fd 66bf
000002b0: 3116 133e f6f6 35bf f04c b13e 3b7b edbe
000002c0: 0b24 de3d b4b4 f03e 0ff8 b6be ed39 bbbd
000002d0: f37e 28be 696a 44bd 4285 9f3d 9988 723c
000002e0: 6e3a 9e3e 1384 f73c 5490 aa3c ef92 02bf
000002f0: 5450 583c e15d 0ebf 1942 f13e 0199 68be
00000300: e492 0c3d d71c 203e 285b c9bd 4932 06be
00000310: 09e4 ef3d 9b8c 753e a9d2 3a3e 8e16 c13d
00000320: 83c3 a13e b996 bf3d b881 493d 4f5d 993d
00000330: 7473 71bd 09c2 0abf 0a7e 043f f834 2ebe
00000340: e8fe 0dbe e697 043e 92ac 113d 8352 7f3d
00000350: cca3 db3d 821d 0a3f 234c 943d de72 df3d
00000360: 150c a53e 0949 263e e5ab 023e 10c1 5e3e
00000370: 7f2b 1cbe a382 c9be 11c1 f23e 902a fbbd
00000380: bf13 cdbd 6cf4 1f3e 8cb0 cb3d 3512 523e
00000390: d513 7f3d b6fb f23e ffc3 a23d f4f0 82bd
000003a0: 9f37 183f 622a a03d 5c4d 3c3e f120 f43e
000003b0: 686e e0bd 8dd4 d4be ae4c f93e f72d 3abe
000003c0: d1b2 26bd 9d66 c8bc 3691 1d3e 0ad7 023e
000003d0: 5fa2 69bd 8586 043f 7038 90bd a899 66be
000003e0: c5c1 9c3b f7ae 7d3e 6026 363e 3f0a e8be
000003f0: c190 8c3d 74ed 27bf 9c3c 323e 63de 17be

dpgrnn2.intra_fc.bias f4 [16]
0.31253043 -0.29055467 0.255278 0.2102672 0.5588545 -0.21489841 -0.16419543 -0.4149982
0.118299656 -0.03191284 -0.07126117 0.3170058 -0.25262696 -0.5467609 -0.12606224 -0.264776
00000000: fd03 a03e 95c3 94be ccb3 823e 4950 573e
00000010: 1711 0f3f 540e 5cbe d922 28be a57a d4be
00000020: 1747 f23d 0ab7 02bd 60f1 91bd 964e a23e
00000030: 5258 81be 86f8 0bbf 7616 01be b890 87be

dpgrnn2.intra_ln.weight f4 [33, 16]
0.83963317 0.80565983 0.7159691 0.9956513 -0.57384396 1.279503 -0.14433345 1.0778422
0.6226579 1.4867375 1.5547223 1.3656185 0.53365004 0.9927931 1.0970483 0.5840228
1.2235001 1.2208152 1.7514751 0.82538736 0.6589977 0.5225935 0.53267753 1.27909
1.6698667 0.70311546 1.0037946 1.573347 1.1004853 1.3806695 0.9544004 0.6195135
1.0397514 1.4760514 1.3948385 1.0140318 0.782638 0.7834512 0.43592933 0.3911565
0.7107328 0.8765014 0.7770759 1.2037563 1.1211035 1.4697818 1.3225758 0.7088711
1.0635126 1.1547376 1.3438157 1.300632 0.5789555 0.61644816 0.5699981 0.47937146
0.9716236 0.96918875 0.59666926 1.3544104 1.2585012 1.3826551 1.0576718 0.7067868
1.0616498 1.4074738 1.092681 1.615503 0.9553144 1.0631734 0.61118543 0.7277779
1.086943 0.9735223 0.45445007 1.1652226 1.2803329 1.0539184 0.7974289 0.6301544
0.87611175 0.9669807 0.8765508 1.3691695 1.9923728 1.005519 0.27075788 -0.003150666
1.5067066 0.80886114 0.5583114 1.3294536 1.2748103 1.0185523 0.7902976 0.63729924
0.7396555 0.4613559 0.9643621 1.5695571 1.9803588 0.87173563 -0.12064065 0.29581884
1.5997195 0.530248 0.67652595 1.5897065 1.154818 1.1201396 0.8303579 0.68689454
0.6785994 0.6342313 1.1091173 1.3973542 1.116916 0.9956712 0.30330944 0.69713885
1.5779504 0.58465934 0.71603525 1.7107904 1.0788904 0.8996779 0.7214045 0.7399706
0.7837827 0.81451195 1.0982436 1.1209648 0.32651404 1.1519402 0.6638262 1.0808454
1.7473301 0.5579427 0.76167405 1.6295233 1.0427724 0.8430265 0.6962288 0.703759
0.7607936 1.1990157 1.2073076 0.8198807 0.090182215 1.0138329 0.93143314 1.1075251
1.7617939 0.59070766 0.8253091 1.5642824 1.0621673 0.8269666 0.6166519 0.7380261
0.58145094 1.2322503 1.3563367 0.7018234 0.31295425 1.0056115 1.1114366 0.89784324
1.8289334 0.5687438 0.9250501 1.4856274 0.96283484 0.9699679 0.48596993 0.7583118
0.5788661 1.4055883 1.3661424 0.70832455 0.6239522 1.2278819 1.101776 0.9826193
1.8381156 0.53444797 0.919302 1.2978406 0.89612913 1.1164597 0.53765976 0.71140015
0.62422305 1.5242335 1.3266739 0.64872426 1.1084666 1.2827873 1.1523467 0.9814126
1.8860162 0.49358228 0.94191456 1.2152605 0.86928624 1.0197593 0.5597662 0.66512287
0.7274111 1.7726201 1.3828118 0.8322092 1.2739676 1.2927912 1.0591668 0.9571435
1.7450526 0.31513283 0.94004834 1.1931024 0.83832765 1.041568 0.5479399 0.7047441
0.87773067 1.7559365 1.5077019 0.9894681 1.3251078 1.2516375 0.94394654 0.9267579
1.8341352 0.32172918 0.91994977 1.2970774 0.8757095 0.91447246 0.54740214 0.72062963
0.8032341 1.6382341 1.6211164 0.8924189 1.3903009 1.2396998 0.95780766 0.8832399
1.6949979 0.258375 1.0099345 1.2017705 0.9015397 0.9284458 0.451337 0.7069656
00000000: 33f2 563f b93f 4e3f c049 373f 01e3 7e3f
00000010: 70e7 12bf c1c6 a33f 26cc 13be bcf6 893f
00000020: 8266 1f3f 6a4d be3f 2401 c73f 96cc ae3f
00000030: 4a9d 083f b027 7e3f 146c 8c3f 8582 153f
00000040: a79b 9c3f ac43 9c3f 5630 e03f 964c 533f
00000050: 13b4 283f b0c8 053f 8e5d 083f 39b9 a33f
00000060: 31be d53f 60ff 333f 577c 803f 6f63 c93f
00000070: b4dc 8c3f c7b9 b03f 9653 743f 7098 1e3f
00000080: 9316 853f 41ef bc3f 118a b23f cbcb 813f
00000090: f75a 483f 4290 483f 2132 df3e aa45 c83e
000000a0: 96f2 353f 6562 603f 72ee 463f b014 9a3f
000000b0: 5280 8f3f cf21 bc3f 2a4a a93f 9478 353f
000000c0: 2e21 883f 71ce 933f 2702 ac3f 1c7b a63f
000000d0: 6d36 143f 8ccf 1d3f 65eb 113f 2d70 f53e
000000e0: 53bc 783f c11c 783f 51bf 183f 525d ad3f
000000f0: 9116 a13f d8fa b03f ca61 873f fbef 343f
00000100: 24e4 873f 1a28 b43f f9dc 8b3f cdc8 ce3f
00000110: 7c8f 743f 1116 883f a676 1c3f a74f 3a3f
00000120: f320 8b3f c238 793f aead e83e 0426 953f
00000130: f3e1 a33f cce6 863f 4d24 4c3f cc51 213f
00000140: dc48 603f 0c8c 773f a265 603f f240 af3f
00000150: 1206 ff3f d9b4 803f c7a0 8a3e 677b 4ebb
00000160: c3db c03f 8611 4f3f 7fed 0e3f 892b aa3f
00000170: fc2c a33f ec5f 823f f250 4a3f 0b26 233f
00000180: 105a 3d3f d736 ec3e 6fe0 763f 3fe7 c83f
00000190: 667c fd3f 112a 5f3f 7212 f7bd 9175 973e
000001a0: 9cc3 cc3f 55be 073f ce30 2d3f 817b cb3f
000001b0: 14d1 933f bc60 8f3f 5692 543f 52d8 2f3f
000001c0: b1b8 2d3f fc5c 223f 8ef7 8d3f 81dc b23f
000001d0: 1af7 8e3f 4fe4 7e3f 604b 9b3e b177 323f
000001e0: 47fa c93f 3cac 153f 164e 373f 2efb da3f
000001f0: 1519 8a3f 4a51 663f f7ad 383f b76e 3d3f
00000200: fca5 483f db83 503f 3f93 8c3f c67b 8f3f
00000210: d92c a73e c772 933f 84f0 293f 2459 8a3f
00000220: 83a8 df3f 55d5 0e3f 12fd 423f 3894 d03f
00000230: 9179 853f 96d0 573f 0d3c 323f 8d29 343f
00000240: 5fc3 423f 5979 993f 0e89 9a3f b4e3 513f
00000250: 74b1 b83d 47c5 813f 6772 6e3f 62c3 8d3f
00000260: 7682 e13f 9e38 173f 7547 533f 683a c83f
00000270: 19f5 873f 15b4 533f e6dc 1d3f 47ef 3c3f
00000280: f8d9 143f 61ba 9d3f 719c ad3f b3aa 333f
00000290: 8a3b a03e e1b7 803f 8e43 8e3f 0ed9 653f
000002a0: 7d1a ea3f 3299 113f 15d0 6c3f 0a29 be3f
000002b0: 587c 763f d14f 783f 0dd1 f83e b920 423f
000002c0: 9230 143f 51ea b33f c1dd ae3f c254 353f
000002d0: 55bb 1f3f 3c2b 9d3f ff06 8d3f f08c 7b3f
000002e0: 5f47 eb3f 95d1 083f 6057 6b3f a41f a63f
000002f0: b868 653f 27e8 8e3f 12a4 093f 521e 363f
00000300: 15cd 1f3f 151a c33f 73d0 a93f cb12 263f
00000310: 3ce2 8d3f 6032 a43f 1980 933f db3d 7b3f
00000320: fb68 f13f d1b6 fc3e 5021 713f a88d 9b3f
00000330: 8b89 5e3f 7987 823f d64c 0f3f 7e45 2a3f
00000340: 9d37 3a3f 37e5 e23f faff b03f aa0b 553f
00000350: 5f11 a33f 2f7a a53f c792 873f 5b07 753f
00000360: e25d df3f 1759 a13e 02a7 703f 94b7 983f
00000370: a49c 563f 1a52 853f ca45 0c3f 1c6a 343f
00000380: f5b2 603f 87c2 e03f 60fc c03f c84d 7d3f
00000390: 229d a93f a835 a03f 7ba6 713f 0140 6d3f
000003a0: f1c4 ea3f b0b9 a43e d481 6b3f a206 a63f
000003b0: 7f2e 603f de1a 6a3f 8c22 0c3f 2f7b 383f
000003c0: c0a0 4d3f a8b1 d13f be80 cf3f 9175 643f
000003d0: 61f5 b13f 7cae 9e3f e232 753f 031c 623f
000003e0: b1f5 d83f ba49 843e 8945 813f 9ed3 993f
000003f0: 4ecb 663f a0ae 6d3f a515 e73e b3fb 343f

dpgrnn2.intra_ln.bias f4 [33, 16]
-0.84116465 0.8222449 1.043524 0.42715335 0.6379212 -0.31209698 -0.34576082 0.49052194
0.35100737 0.09576461 0.2166301 0.017438779 -0.10001218 -0.31355458 0.6225955 -0.0684419
0.97556275 -0.28431505 0.69516754 0.008307892 -0.16146173 -0.532556 -0.00030041987 0.47882748
-0.071028896 0.3929236 -0.53753954 -0.31241205 -0.22014229 1.098387 -0.98035717 -0.43875435
0.31194445 -0.82693905 0.37348953 0.019412661 0.06366262 -0.3363579 -0.120598726 0.040923074
-0.3512551 0.3122032 -0.48797056 0.12390469 0.20903926 0.1774981 0.1488382 0.08232304
0.11608935 -0.8820167 -0.08522321 0.40125066 0.11390225 -0.74502546 -0.3321364 0.13382028
-0.031788632 0.0058087427 -0.4938138 0.001752354 0.6128807 0.515926 0.58542573 0.19982056
-0.39309564 0.022585433 -0.11672449 0.6255478 -0.6555644 -0.0077925483 -0.23646213 0.18536419
0.016579831 -0.23881628 0.06922606 -0.191526 0.6951128 0.37515688 -0.09113803 0.26846132
0.11817198 0.8011038 -0.22152008 0.29980657 -0.94471556 0.35416585 0.0803761 -0.34855294
-0.057314247 -0.6579314 -0.3081275 -0.070696145 0.29849046 0.2930672 -0.3777269 0.2919694
0.5128731 0.5562455 -0.034342468 -0.048329983 -0.8080137 0.16952491 0.1909541 -0.59904784
-0.29207036 -0.4873324 -0.063752234 -0.44571885 -0.15308002 0.530772 -0.08128369 0.3410536
0.13823253 0.39593628 0.13516153 0.0087610185 0.05613558 -0.017130671 -0.07240303 -0.48172262
-0.29541522 -0.42041218 0.089239925 -0.30109698 -0.08441312 0.386945 0.063647576 0.31263945
-0.09053425 -0.033845957 0.0461174 -0.25495338 1.0458415 -0.08107447 -0.21824121 -0.42971015
-0.3184012 -0.48696008 0.22626671 -0.16078548 -0.15804954 0.54670864 -0.15884827 0.29629037
0.019847855 -0.25166956 -0.023471864 -0.3479155 1.2549939 0.16728087 -0.25771376 -0.39562714
-0.13234812 -0.5722206 0.22537924 -0.008181709 -0.025234228 0.57348144 -0.1320308 0.20658752
0.35072345 -0.2514262 -0.08767756 -0.26050577 1.0071993 0.09398559 -0.24213126 -0.47832653
-0.2580064 -0.6586536 0.25195223 0.15723254 0.05071496 0.69012314 -0.55330646 0.16952196
0.5106252 -0.1756846 -0.19154893 -0.15097235 0.55642086 0.15978584 -0.06530853 -0.5047264
-0.31435832 -0.80529016 0.16357924 0.08625292 -0.00065892795 0.62562954 -0.5880123 0.10889379
0.5524112 0.26903775 -0.36912024 -0.059587695 0.01553853 0.16606992 0.030419154 -0.5554339
-0.40343422 -0.75566024 0.28955022 -0.20950186 -0.0024023897 0.5945059 -0.5922209 0.027692888
0.48292944 0.31874737 -0.48968974 -0.084796846 -0.2587468 -0.10505029 0.20091742 -0.58681554
-0.4497119 -0.8778772 0.24876948 -0.35083866 0.065767 0.45752385 -0.552734 0.025884587
0.2951094 0.29632494 -0.43334427 0.022319663 -0.25397462 -0.14493588 0.23162994 -0.21581215
-0.72204095 -0.7713789 0.3475424 -0.54406506 0.07897784 0.46079564 -0.6096032 0.12452113
0.28708956 0.71598005 -0.4945804 -0.020988805 -0.18661605 -0.36811775 0.23837508 -0.10681284
-0.17123045 -0.8153823 0.22893728 -0.19365838 -0.06172973 0.7527142 -0.46096024 0.046425868
00000000: 9156 57bf a47e 523f 3292 853f d8b3 da3e
00000010: ce4e 233f 2dcb 9fbe 9007 b1be b125 fb3e
00000020: 3db7 b33e 3c20 c43d 48d4 5d3e c5db 8e3c
00000030: 30d3 ccbd 3a8a a0be 6b62 1f3f 442b 8cbd
00000040: 7bbe 793f be91 91be 80f6 313f d31d 083c
00000050: 3956 25be 9755 08bf ac81 9db9 e028 f53e
00000060: 9977 91bd 482d c93e 319c 09bf 79f4 9fbe
00000070: fb6c 61be f297 8c3f b0f8 7abf 69a4 e0be
00000080: 2fb7 9f3e 47b2 53bf 053a bf3e 4d07 9f3c
00000090: 8c61 823d 1a37 acbe 77fc f6bd f49e 273d
000000a0: b5d7 b3be 19d9 9f3e 47d7 f9be bec1 fd3d
000000b0: 630e 563e 10c2 353e 0b69 183e fb98 a83d
000000c0: 41c0 ed3d d9cb 61bf 8289 aebd ba70 cd3e
000000d0: 9545 e93d fdb9 3ebf c80d aabe 2f08 093e
000000e0: cc34 02bd 4457 be3b 2ad5 fcbe 3eaf e53a
000000f0: c0e5 1c3f ba13 043f 76de 153f c39d 4c3e
00000100: d543 c9be 1605 b93c 400d efbd e723 203f
00000110: 12d3 27bf a258 ffbb 2123 72be 1cd0 3d3e
00000120: 6dd2 873c 418c 74be 64c6 8d3d 641f 44be
00000130: eaf2 313f 9014 c03e 93a6 babd c373 893e
00000140: 2704 f23d 2315 4d3f 29d6 62be 3f80 993e
00000150: e1d8 71bf 3a55 b53e 3a9c a43d 8875 b2be
00000160: 58c2 6abd 316e 28bf e3c2 9dbe 24c9 90bd
00000170: bed3 983e e70c 963e 6c65 c1be 037d 953e
00000180: a74b 033f 1b66 0e3f b0aa 0cbd a9f5 45bd
00000190: fcd9 4ebf f097 2d3e 7989 433e 335b 19bf
000001a0: 3f8a 95be a283 f9be 8890 82bd 4335 e4be
000001b0: 02c1 1cbe ace0 073f 1078 a6bd 949e ae3e
000001c0: d48c 0d3e 29b8 ca3e c967 0a3e 608a 0f3c
000001d0: 6cee 653d 9f55 8cbc 0a48 94bd 59a4 f6be
000001e0: aa40 97be 4440 d7be 6cc3 b63d 6229 9abe
000001f0: c9e0 acbd a81d c63e a959 823d 4712 a03e
00000200: 056a b9bd 0fa2 0abd 99e5 3c3d 4089 82be
00000210: 22de 853f 5f0a a6bd a07a 5fbe f802 dcbe
00000220: 7b05 a3be d552 f9be 76b2 673e f3a4 24be
00000230: bdd7 21be 19f5 0b3f 1fa9 22be 5fb3 973e
00000240: f897 a23c d5da 80be 1148 c0bc fb21 b2be
00000250: a4a3 a03f ad4b 2b3e 0ff3 83be a48f cabe
00000260: 4486 07be 0d7d 12bf d1c9 663e 930c 06bc
00000270: 03b8 cebc aecf 123f 1533 07be ae8b 533e
00000280: 0692 b33e efba 80be 4b90 b3bd 0361 85be
00000290: e8eb 803f 847b c03d 42f1 77be 37e7 f4be
000002a0: 6a19 84be 869d 28bf e2ff 803e 9101 213e
000002b0: 7dba 4f3d e9ab 303f 7ea5 0dbf 2a97 2d3e
000002c0: 55b8 023f aae6 33be 6725 44be 7f98 1abe
000002d0: 9971 0e3f e69e 233e 7bc0 85bd c035 01bf
000002e0: 93f3 a0be 7f27 4ebf 5181 273e 5fa5 b03d
000002f0: e8bb 2cba 4229 203f f987 16bf b503 df3d
00000300: d26a 0d3f 51bf 893e 54fd bcbe 3a12 74bd
00000310: 5295 7e3c 3c0e 2a3e 9731 f93c eb30 0ebf
00000320: ee8e cebe f372 41bf ed3f 943e a887 56be
00000330: 6971 1dbb 8a31 183f ca9b 17bf 32dc e23c
00000340: 8742 f73e db32 a33e 9db8 fabe f8a9 adbd
00000350: 767a 84be 9b24 d7bd 4cbd 4d3e 8b39 16bf
00000360: a340 e6be 8fbc 60bf 6dbd 7e3e 20a1 b3be
00000370: d9b0 863d 9140 ea3e fa7f 0dbf ea0b d43c
00000380: 9418 973e e7b7 973e 4ddf ddbe bad7 b63c
00000390: f608 82be 126a 14be 6630 6d3e dcfd 5cbe
000003a0: add7 38bf 1679 45bf 14f1 b13e d947 0bbf
000003b0: 22bf a13d 68ed eb3e f50e 1cbf ef04 ff3d
000003c0: 67fd 923e 784a 373f a439 fdbe b7f0 abbc
000003d0: 4718 3fbe ee79 bcbe 9918 743e b1c0 dabd
000003e0: 0957 2fbe e5bc 50bf 896e 6a3e 624e 46be
000003f0: 50d8 7cbd e1b1 403f fb02 ecbe 0d29 3e3d

dpgrnn2.inter_fc.bias f4 [16]
0.4524294 -0.14942038 -0.46020323 0.26835793 0.27829394 -0.14602175 -0.22759256 0.042065255
0.5127756 -0.079370975 -0.008738313 0.26885757 -0.10617649 0.29443 0.072636776 -0.108115956
00000000: d4a4 e73e a801 19be c29f ebbe 3666 893e
00000010: 8b7c 8e3e ba86 15be 060e 69be 9e4c 2c3d
00000020: 4345 033f 408d a2bd 242b 0fbc b3a7 893e
00000030: 0f73 d9bd 87bf 963e 97c2 943d e66b ddbd

dpgrnn2.inter_ln.weight f4 [33, 16]
4.0740256 0.27098718 1.807178 0.7706902 1.63707 0.24495365 2.8788126 0.25865865
1.0733474 2.2136505 2.4359033 1.5314062 2.3203843 -1.9642318 2.3340495 2.3985927
0.97915125 0.6639864 2.5405655 1.3764 1.4542302 1.0539448 2.9977863 1.98093
0.74378717 1.618193 0.036068015 1.1755757 2.5236812 0.5030616 -1.4280909 1.6682829
0.7704656 1.126722 2.4500284 1.6233152 1.582878 1.2917637 2.0179088 1.4084092
1.114192 1.6847761 1.2124645 0.85494804 1.9881166 0.19558552 1.7903303 1.1755383
1.2890964 1.3541127 1.458583 1.4626085 1.5112476 1.4848905 1.588644 1.4831545
1.3216118 1.8608723 1.3383533 1.0118433 1.8467098 0.57534546 1.6381297 1.2005492
2.0475638 1.0724461 1.0101895 1.5382842 1.6064314 1.2981855 1.51448 1.8528229
1.2738131 1.8985139 1.172185 0.9923639 1.7386138 0.89589494 1.4202312 0.838804
1.6800655 1.3427284 1.0634689 1.630531 1.5594627 1.0818588 1.6004217 1.9079566
1.3606625 1.7541292 1.20921 1.0235924 1.4537642 0.82830554 1.20436 1.0547857
0.6361321 1.0752108 0.94543844 1.6110026 1.369156 1.1607943 1.6426283 2.0506554
0.8873424 1.4946321 1.1311901 0.9627892 1.2378147 0.88637096 1.521134 1.2071885
1.2432007 1.1531911 0.89203036 1.6423615 1.2662635 1.2791337 1.3678781 2.439679
0.7905428 1.2014167 1.2027447 1.0829487 1.1955812 0.815128 1.6743733 1.2679075
1.6891849 0.9889851 0.8153352 1.5836169 1.0745959 1.5052202 0.8713943 2.2750704
0.9380943 1.0041348 1.4708705 1.0757704 1.1649785 0.7266963 2.0908513 1.3081214
1.753235 0.89007115 0.8481177 1.6767851 1.4732367 1.5710511 0.8710706 2.3078861
1.4543619 1.0042342 1.3256302 1.0443877 1.1899749 0.69591296 2.1820447 1.2480967
2.0017798 1.0162789 1.0811441 1.5892627 1.3968652 1.4708686 1.1173307 2.2432535
1.852446 1.087505 1.0973463 1.1112418 1.2335327 0.8731475 1.926826 1.2535664
1.5996969 1.057368 1.0515109 1.549782 1.2505561 1.4061793 1.1332219 2.2486145
1.9918193 1.0292176 0.8371092 0.9447929 1.2128291 0.97970486 1.8672681 1.2333605
1.4985721 0.68065906 0.91361547 1.540933 1.138413 1.3255669 1.1898953 2.3199265
1.9952815 1.174683 0.7814931 0.8987093 1.1782018 1.1069274 1.7905418 1.206332
1.0489196 0.56901675 0.8531231 1.5440466 1.112351 1.3135911 1.1848056 2.4438744
1.816462 1.2910672 0.64036316 0.85502064 1.2088914 1.0620599 1.733607 1.1465931
1.3619574 0.4918206 0.7474089 1.426256 1.0353135 1.3706598 1.104414 2.1768281
1.4428351 1.3630975 0.6366711 0.83514977 1.0872055 0.807798 1.6586298 1.1778976
1.5122745 0.293122 0.83281004 1.3943344 0.9478505 1.3999001 1.2447425 2.201328
1.1532518 1.4249403 0.77731895 0.8978542 1.0556614 0.77221787 1.7774886 1.2584872
00000000: 6b5e 8240 d5be 8a3e 9c51 e73f f44b 453f
00000010: 828b d13f 21d5 7a3e 773e 3840 e86e 843e
00000020: 7363 893f 73ac 0d40 d7e5 1b40 1e05 c43f
00000030: 2d81 1440 f36b fbbf 1161 1540 8b82 1940
00000040: a8a9 7a3f 03fb 293f a098 2240 e02d b03f
00000050: 3724 ba3f aae7 863f bbdb 3f40 1d8f fd3f
00000060: d668 3e3f f320 cf3f 0ebc 133d 4479 963f
00000070: fe83 2140 a5c8 003f afcb b6bf 4b8a d53f
00000080: 3c3d 453f 6d38 903f 44cd 1c40 cbc8 cf3f
00000090: bf9b ca3f 8358 a53f 6b25 0140 c146 b43f
000000a0: d89d 8e3f bea6 d73f 0932 9b3f e0dd 5a3f
000000b0: 9b7a fe3f 9247 483e 8b29 e53f 0a78 963f
000000c0: 1c01 a53f 9153 ad3f d9b2 ba3f c136 bb3f
000000d0: 9070 c13f e410 be3f b058 cb3f 02d8 bd3f
000000e0: 932a a93f 1031 ee3f 294f ab3f 1584 813f
000000f0: fd60 ec3f d749 133f 3cae d13f 99ab 993f
00000100: 490b 0340 ea45 893f e44d 813f 7fe6 c43f
00000110: 8b9f cd3f f12a a63f 7bda c13f 4d29 ed3f
00000120: 4f0c a33f 8102 f33f 280a 963f 900b 7e3f
00000130: e68a de3f 5f59 653f 23ca b53f dcbb 563f
00000140: 630c d73f 86de ab3f c01f 883f 3db5 d03f
00000150: 799c c73f 597a 8a3f 9eda cc3f ec37 f43f
00000160: 302a ae3f 4e87 e03f 65c7 9a3f 1305 833f
00000170: f214 ba3f d50b 543f 7828 9a3f 3803 873f
00000180: 8ed9 223f 82a0 893f 4108 723f 5535 ce3f
00000190: 8140 af3f e894 943f a541 d23f f03d 0340
000001a0: df28 633f 1b50 bf3f d6ca 903f 5a79 763f
000001b0: b670 9e3f 35e9 623f 85b4 c23f 2785 9a3f
000001c0: 3321 9f3f c49b 933f 1a5c 643f e738 d23f
000001d0: ec14 a23f a7ba a33f a116 af3f b323 1c40
000001e0: 0361 4a3f 06c8 993f 8af3 993f 109e 8a3f
000001f0: ce08 993f 3bac 503f dd51 d63f cb4a a23f
00000200: 3637 d83f 212e 7d3f cfb9 503f f5b3 ca3f
00000210: 5c8c 893f 0eab c03f b213 5f3f c19a 1140
00000220: f326 703f 7d87 803f 7c45 bc3f d8b2 893f
00000230: 041e 953f c508 3a3f 82d0 0540 8670 a73f
00000240: 016a e03f b4db 633f 3e1e 593f e5a0 d63f
00000250: 0593 bc3f 3418 c93f 7cfe 5e3f 68b4 1340
00000260: 8828 ba3f bf8a 803f 40ae a93f 7fae 853f
00000270: 1951 983f 5a27 323f 9fa6 0b40 a2c1 9f3f
00000280: 291d 0040 6d15 823f ee62 8a3f f66c cb3f
00000290: 7bcc b23f 6c45 bc3f b104 8f3f 7791 0f40
000002a0: f31c ed3f 5d33 8b3f d875 8c3f 2c3d 8e3f
000002b0: 66e4 9d3f 9886 5f3f 3ca2 f63f dd74 a03f
000002c0: dec2 cc3f d657 873f e997 863f 425f c63f
000002d0: 3912 a03f affd b33f 6a0d 913f 4de9 0f40
000002e0: eff3 fe3f 67bd 833f ca4c 563f f3dd 713f
000002f0: fc3d 9b3f f0cd 7a3f a402 ef3f c2de 9d3f
00000300: 36d1 bf3f ac3f 2e3f b4e2 693f 4b3d c53f
00000310: 84b7 913f 2dac a93f 7d4e 983f ad79 1440
00000320: 6265 ff3f 035c 963f ef0f 483f d011 663f
00000330: 51cf 963f ccaf 8d3f 7930 e53f 1669 9a3f
00000340: ff42 863f 15ab 113f 4766 5a3f 52a3 c53f
00000350: 8461 8e3f c123 a83f b6a7 973f 7068 1c40
00000360: d481 e83f b141 a53f d7ee 233f a2e2 5a3f
00000370: f4bc 9a3f 94f1 873f d6e6 dd3f 90c3 923f
00000380: 9f54 ae3f e9cf fb3e 3156 3f3f 8e8f b63f
00000390: 2785 843f c871 af3f 705d 8d3f 2751 0b40
000003a0: d2ae b83f fb79 ae3f e1fc 223f 60cc 553f
000003b0: 8d29 8b3f dacb 4e3f fb4d d43f 59c5 963f
000003c0: 3692 c13f 1614 963e 0a33 553f 8d79 b23f
000003d0: 55a6 723f ed2f b33f b953 9f3f 8fe2 0c40
000003e0: c19d 933f 7264 b63f 60fe 463f c6d9 653f
000003f0: ea1f 873f 12b0 453f bf84 e33f 1c16 a13f

dpgrnn2.inter_ln.bias f4 [33, 16]
-0.6750191 -1.2174568 -0.1485419 -0.17602655 0.21126613 0.3301065 -0.83508754 0.17995544
-0.60664105 0.6938588 -0.45656425 -0.6048518 -2.4341903 -3.517305 -1.2926394 0.1836
-1.6730695 -1.095325 -0.29976496 0.013628476 -0.45512503 -0.737827 -0.16962495 0.34579897
-1.1527445 0.38873115 -1.1718556 0.43338874 -0.18340316 -0.8018783 1.8548144 -0.27027056
-0.0044997823 -0.46329346 0.05304559 0.24885795 -0.75198454 -0.74943405 0.55064887 -0.20841126
0.33300903 0.02354962 -1.6878523 1.1233269 0.22902644 -1.0273194 -1.217781 -0.81136733
0.09988227 0.64499116 0.6794149 0.34556514 0.32003233 -1.3989543 0.8822192 0.5431034
-0.70678914 0.52585 -1.5152713 1.0191746 -0.2180585 -0.59037536 -0.47733724 -1.0700958
-0.25215438 -0.48513925 -0.24617593 0.016589267 0.233625 -0.36157632 0.6801216 0.088965796
-0.5258228 0.7515279 -0.48351145 0.12011244 -0.07724744 -0.8148953 0.2700696 -0.93305975
0.29857025 -1.0332894 0.24422346 0.1540039 0.23140207 -0.39470667 0.075631425 -0.42641646
-0.58087844 0.14012262 0.14274645 0.35567743 0.26567003 -0.32088944 -0.176122 -0.28632966
0.40636113 -0.602828 0.51252586 0.048222024 -0.052795347 -0.053428475 -0.48570576 -0.0008149322
-0.28426194 -0.4633596 -0.21271475 0.58487654 0.036756247 0.06896267 0.3121022 0.18627967
0.4183985 -0.2705815 0.38197455 0.18159984 -0.23406878 0.35935688 -0.3843352 0.60544294
-0.5109946 -0.8144486 -0.24598044 0.4959631 -0.37037075 0.40577853 0.14538468 0.24275634
1.0571741 0.07406794 -0.12136606 0.09643714 0.14651944 0.62157357 -0.52531534 0.31414923
-0.3050526 -1.0938461 -0.07532892 0.80430263 -0.3362169 0.47999433 0.9332305 0.45132342
1.0238274 0.37750304 -0.5163101 -0.11073822 0.29759374 0.62520665 -0.86074877 -0.38741127
-0.001878144 -1.0109508 0.14820218 0.81131047 -0.3234403 0.49161735 1.2251245 0.47972232
0.6618304 0.7904625 -0.32972085 0.0041465014 0.46304035 0.5266712 -0.7386514 -0.7170538
0.15957999 -0.78025764 0.16444342 0.565569 -0.20288979 0.56634694 1.0080246 0.57404506
0.44341555 0.40479112 -0.16560136 0.22272222 0.3889639 0.46355602 -0.8887344 -0.59929353
0.40876693 -0.5396417 0.40328 0.37582672 -0.07360702 0.3885118 0.89635485 0.44118598
0.40621954 0.24598591 -0.15161902 0.41467667 0.24103637 0.41771176 -0.77219975 -0.4477647
0.5543233 -0.23680109 0.5171988 0.32875508 0.08042216 0.36205903 0.9290098 0.4588479
0.42568848 0.18496558 -0.08401036 0.2688761 0.41822994 0.3997183 -0.670575 -0.499819
0.41939673 -0.059324775 0.64570886 0.21627447 -0.012858333 0.36827406 0.400466 0.3324418
0.4097503 0.1774587 -0.27007493 0.28888795 0.21809329 0.4433282 -0.9356651 -0.14632297
-0.09089139 0.019738961 0.58480656 0.29896688 -0.19649184 0.3193674 0.25063258 0.33809307
0.71097517 0.034938134 -0.01587187 0.49991363 0.24163714 0.5119431 -1.0534945 0.15416098
-0.07344794 0.12758663 0.6041402 0.32101586 -0.19113617 0.33464107 0.6669799 0.47162992
00000000: 0dce 2cbf a0d5 9bbf 5e1b 18be 4e40 34be
00000010: 2656 583e b803 a93e 4cc8 55bf 3d46 383e
00000020: d44c 1bbf bba0 313f cac2 e9be 91d7 1abf
00000030: c6c9 1bc0 861b 61c0 3575 a5bf a301 3c3e
00000040: 2427 d6bf 9c33 8cbf cb7a 99be f949 5f3c
00000050: 2606 e9be 3be2 3cbf 2ab2 2dbe 900c b13e
00000060: 228d 93bf c507 c73e 5dff 95bf 21e5 dd3e
00000070: 0ace 3bbe e547 4dbf 8f6a ed3f e760 8abe
00000080: e972 93bb cd34 edbe 5546 593d 9ed4 7e3e
00000090: 0f82 40bf e9da 3fbf 53f7 0c3f c369 55be
000000a0: 2980 aa3e 22eb c03c 8b0b d8bf 2dc9 8f3f
000000b0: e885 6a3e 347f 83bf 3fe0 9bbf c5b5 4fbf
000000c0: 138f cc3d 241e 253f 23ee 2d3f eaed b03e
000000d0: 47db a33e ef10 b3bf 1ed9 613f d308 0b3f
000000e0: 22f0 34bf 1b9e 063f 69f4 c1bf 5074 823f
000000f0: ba4a 5fbe d722 17bf 8c65 f4be e6f8 88bf
00000100: 611a 81be 2c64 f8be 8b15 7cbe 37e6 873c
00000110: 643b 6f3e 8820 b9be 731c 2e3f b333 b63d
00000120: 539c 06bf 2264 403f d08e f7be 83fd f53d
00000130: e833 9ebd fa9c 50bf 9046 8a3e 01dd 6ebf
00000140: 33de 983e d442 84bf b715 7a3e 33b3 1d3e
00000150: aaf4 6c3e fe16 cabe a6e4 9a3d 4253 dabe
00000160: 73b4 14bf 4e7c 0f3e 202c 123e 5a1b b63e
00000170: e705 883e 9f4b a4be 5359 34be cd99 92be
00000180: 910e d03e f052 1abf e534 033f 7584 453d
00000190: ef3f 58bd d1d7 5abd 6dae f8be 2da1 55ba
000001a0: c88a 91be 783d edbe e5d1 59be 78ba 153f
000001b0: b88d 163d 4d3c 8d3d dccb 9f3e 19c0 3e3e
000001c0: 5438 d63e a989 8abe 2b92 c33e 4ff5 393e
000001d0: baaf 6fbe a0fd b73e 95c7 c4be 4ffe 1a3f
000001e0: 8bd0 02bf b47f 50bf 4ce2 7bbe e0ee fd3e
000001f0: 3ca1 bdbe 34c2 cf3e b9df 143e 1e95 783e
00000200: 7b51 873f efb0 973d c58e f8bd d680 c53d
00000210: 3109 163e 721f 1f3f 117b 06bf 2bd8 a03e
00000220: db2f 9cbe 2603 8cbf 0c46 9abd c7e6 4d3f
00000230: 9f24 acbe d1c1 f53e 32e8 6e3f dd13 e73e
00000240: c70c 833f 1448 c13e e62c 04bf b8ca e2bd
00000250: 355e 983e 8b0d 203f 085a 5cbf c55a c6be
00000260: 0e2c f6ba d666 81bf 50c2 173e 0bb2 4f3f
00000270: f899 a5be 45b5 fb3e e1d0 9c3f 2a9e f53e
00000280: b86d 293f c05b 4a3f 2cd1 a8be 60df 873b
00000290: a013 ed3e ecd3 063f 4218 3dbf d690 37bf
000002a0: f068 233e f7be 47bf db63 283e 21c9 103f
000002b0: 57c2 4fbe 1dfc 103f f306 813f 9ef4 123f
000002c0: 5d07 e33e c840 cf3e 6793 29be 4b11 643e
000002d0: 4726 c73e 3757 ed3e 1984 63bf 4d6b 19bf
000002e0: e649 d13e f525 0abf b77a ce3e 5c6c c03e
000002f0: 47bf 96bd 05eb c63e 8377 653f 21e3 e13e
00000300: 02fc cf3e bbe3 7b3e 0442 1bbe 8050 d43e
00000310: 3dd2 763e 51de d53e e2ae 45bf 6a41 e5be
00000320: 22e8 0d3f fc7b 72be 2467 043f 9652 a83e
00000330: 60b4 a43d cd5f b93e 96d3 6d3f 1dee ea3e
00000340: d7f3 d93e 9e67 3d3e a00d acbd 21aa 893e
00000350: 3c22 d63e e1a7 cc3e ceaa 2bbf 47e8 ffbe
00000360: 2bbb d63e 89fe 72bd 2d4d 253f 0e77 5d3e
00000370: c2ab 52bc 6b8e bc3e e109 cd3e d035 aa3e
00000380: cbca d13e bcb7 353e 4347 8abe 1fe9 933e
00000390: d953 5f3e eafb e23e bf87 6fbf b0d5 15be
000003a0: 4425 babd 9ab3 a13c e2b5 153f 3012 993e
000003b0: 2835 49be 2084 a33e ea52 803e 891a ad3e
000003c0: 7802 363f 4a1b 0f3d b905 82bc aef4 ff3e
000003d0: ba6f 773e b40e 033f e8d8 86bf 60dc 1d3e
000003e0: e06b 96bd 12a6 023e efa8 1a3f 315c a43e
000003f0: 33b9 43be 1356 ab3e 32bf 2a3f 7a79 f13e
