stream/onnx_models/model_trained_on_dns3.tar (torch, 737323 bytes, 608 tensors)

exp_avg f4 [16, 9, 1, 5]
00000000: 262f db39 dac8 183a 743a 52b9 a5b0 3a38
00000010: b4d7 10b8 dac8 183a 743a 52b9 fe01 5b38
00000020: b4d7 10b8 1b40 f039 743a 52b9 f55f f4b8
00000030: b4d7 10b8 1b40 f039 4df6 cb3a 8c1c c639
00000040: 4863 1dba 7ae9 d538 5b51 8039 40f2 4bb9
00000050: 4863 1dba 7ae9 d538 24f0 8639 40f2 4bb9
00000060: 6adb f038 7ae9 d538 7e5c 0839 40f2 4bb9
00000070: 6adb f038 40e8 a039 67b0 7dba 1c55 253a
00000080: a51f 4b38 4ec6 4fb9 ca43 3c39 1855 253a
00000090: a51f 4b38 1d89 4db9 ca43 3c39 fe8b a7b9
000000a0: a51f 4b38 1d89 4db9 ca43 3c39 fe8b a7b9
000000b0: 2d1a 9839 1f0f 5cb9 1162 353a 569a bc39
000000c0: b45c 0339 7cad e8b8 1162 353a 569a bc39
000000d0: e1f3 c938 7cad e8b8 50cf 4638 569a bc39
000000e0: dd0e bb36 7cad e8b8 50cf 4638 9d37 b9b9
000000f0: 853d f838 a1d9 96b8 b59d ff38 8a6d 67b9
00000100: b1af 14b9 9ed9 96b8 b59d ff38 7dd7 5cb9
00000110: b1af 14b9 6506 39b9 b59d ff38 a90c 5ab9
00000120: b1af 14b9 6506 39b9 b572 c538 ecb2 8039
00000130: 8971 5c38 97f1 2f39 1a8a 9c39 a97f bab9
00000140: 9c71 5c38 97f1 2f39 4fb4 9939 a97f bab9
00000150: a914 27b9 97f1 2f39 4fb4 9939 a97f bab9
00000160: a914 27b9 501e 0037 7d6e 6f3a 0617 193a
00000170: 9c88 a5b7 4ce3 bf38 74af 0d3a 0617 193a
00000180: 9b88 a5b7 da1f e738 75af 0d3a c899 5a3a
00000190: 9b88 a5b7 51db 2b38 75af 0d3a c899 5a3a
000001a0: 579d 9f39 c507 63b9 ed3d 4e39 2f27 a838
000001b0: f1ab 5cb9 42e6 3c36 ed3d 4e39 2f27 a838
000001c0: f2f5 55b9 42e6 3c36 0299 1c38 2f27 a838
000001d0: 8b65 6bb9 42e6 3c36 0299 1c38 f12a 0a39
000001e0: 94fd a5b8 5f1d 8d39 f90f 2c38 e95b 2139
000001f0: d660 a638 631d 8d39 f90f 2c38 28d4 2039
00000200: d360 a638 8c27 093a ff0f 2c38 28d4 2039
00000210: d360 a638 8c27 093a 03ea 51b7 9beb cc37
00000220: 8c33 0e38 7011 2638 c956 9f37 40a9 4037
00000230: 8c33 0e38 7011 2638 e347 a637 40a9 4037
00000240: 1b99 0b38 7011 2638 7371 3937 40a9 4037
00000250: 1b99 0b38 489c 4b38 597f 1936 2c30 3d36
00000260: 5811 aab6 2ca0 3536 85f7 76b7 2c30 3d36
00000270: 5811 aab6 b641 2f36 85f7 76b7 588c 8737
00000280: 5811 aab6 2069 4136 87f7 76b7 588c 8737
00000290: 9bce 8a36 e358 40b7 8fb6 cd36 6907 81b7
000002a0: 71b6 ba37 6e74 43b7 8bb6 cd36 6907 81b7
000002b0: e311 bb37 6e74 43b7 145c aa36 6907 81b7
000002c0: e311 bb37 6e74 43b7 145c aa36 3a39 80b5
000002d0: 5bf1 f2ba 695c adba 4a63 67ba e8d9 8e39
000002e0: f474 c139 695c adba 4a63 67ba fe62 8239
000002f0: f474 c139 35cc 1f39 4a63 67ba 6337 e9b9
00000300: f374 c139 35cc 1f39 8f24 a33a 87a5 b1b9
00000310: f164 0239 567a 23b9 f331 5a3a d633 e139
00000320: f164 0239 567a 23b9 bd4d 593a d633 e139
00000330: a196 ac39 567a 23b9 e968 cb38 d633 e139
00000340: a196 ac39 b815 12bb 63bd 9e39 3e42 97b9
00000350: f243 5539 06c7 c837 47e8 19b7 3c42 97b9
00000360: f243 5539 a2f8 0338 47e8 19b7 1f16 53b9
00000370: f243 5539 a2f8 0338 47e8 19b7 1f16 53b9
00000380: 3f02 1339 a3b9 27ba 33fe 13b6 d3d5 77b8
00000390: fe45 6538 0fe1 b038 33fe 13b6 d3d5 77b8
000003a0: f753 4f38 0fe1 b038 6c76 a239 d3d5 77b8
000003b0: 5bea a7b7 0fe1 b038 6c76 a239 652b fa39
000003c0: 6e33 e0b9 ec86 7838 b48d 98b5 cb6c 4939
000003d0: 48eb 2db7 ec86 7838 b48d 98b5 7147 4c39
000003e0: 48eb 2db7 44f1 84b9 b48d 98b5 0236 2639
000003f0: 48eb 2db7 44f1 84b9 af0c 5239 da7a 28b9
0.00041806063 0.0005828269 -0.00020048936 4.451037e-05 -3.4533165e-05 0.0005828269 -0.00020048936 5.2215524e-05
-3.4533165e-05 0.0004582413 -0.00020048936 -0.000116527 -3.4533165e-05 0.0004582413 0.0015561074 0.00037786772
-0.0006003869 0.0001020012 0.00024474677 -0.00019449834 -0.0006003869 0.0001020012 0.0002573739 -0.00019449834
0.00011484961 0.0001020012 0.00013004427 -0.00019449834 0.00011484961 0.00030690618 -0.000967747 0.0006306933
4.8428443e-05 -0.00019814933 0.0001795433 0.00063069304 4.8428443e-05 -0.00019601402 0.0001795433 -0.00031957024
4.8428443e-05 -0.00019601402 0.0001795433 -0.00031957024 0.00029011202 -0.00020986468 0.0006919215 0.00035973144
0.00012527668 -0.00011094936 0.0006919215 0.00035973144 9.629853e-05 -0.00011094936 4.7399953e-05 0.00035973144
5.5747646e-06 -0.00011094936 4.7399953e-05 -0.00035327385 0.000118370204 -7.193094e-05 0.00012188723 -0.00022070683
-0.0001417983 -7.193092e-05 0.00012188723 -0.0002106111 -0.0001417983 -0.00017645357 0.00012188723 -0.00020794816
-0.0001417983 -0.00017645357 9.415058e-05 0.0002454737 5.2557825e-05 0.000167793 0.00029857532 -0.000355718
5.2557894e-05 0.000167793 0.00029316774 -0.000355718 -0.00015934058 0.000167793 0.00029316774 -0.000355718
-0.00015934058 7.636452e-06 0.00091335905 0.00058399176 -1.9733146e-05 9.149927e-05 0.00054048677 0.00058399176
-1.9733145e-05 0.00011020871 0.0005404868 0.0008338955 -1.9733145e-05 4.097383e-05 0.0005404868 0.0008338955
0.0003044407 -0.00021651301 0.0001966876 8.018163e-05 -0.00021044888 2.814821e-06 0.0001966876 8.018163e-05
-0.00020404885 2.814821e-06 3.7335798e-05 8.018163e-05 -0.00022449174 2.814821e-06 3.7335798e-05 0.00013176702
-7.915046e-05 0.000269155 4.102287e-05 0.00015388396 7.933534e-05 0.0002691551 4.102287e-05 0.00015337823
7.933532e-05 0.0005232028 4.1022893e-05 0.00015337823 7.933532e-05 0.0005232028 -1.2511856e-05 2.4428407e-05
3.3903445e-05 3.9593724e-05 1.899469e-05 1.1483498e-05 3.3903445e-05 3.9593724e-05 1.9822217e-05 1.1483498e-05
3.3282773e-05 3.9593724e-05 1.1053274e-05 1.1483498e-05 3.3282773e-05 4.854452e-05 2.2872903e-06 2.8191234e-06
-5.068414e-06 2.7064334e-06 -1.4720373e-05 2.8191234e-06 -5.068414e-06 2.611528e-06 -1.4720373e-05 1.6158607e-05
-5.068414e-06 2.8820432e-06 -1.4720375e-05 1.6158607e-05 4.1367725e-06 -1.1464787e-05 6.1307287e-06 -1.5381449e-05
2.2257884e-05 -1.1650014e-05 6.130727e-06 -1.5381449e-05 2.2300466e-05 -1.1650014e-05 5.077114e-06 -1.5381449e-05
2.2300466e-05 -1.1650014e-05 5.077114e-06 -9.553398e-07 -0.0018535064 -0.0013226393 -0.0008826746 0.00027246703
0.00036898965 -0.0013226393 -0.0008826746 0.00024869287 0.00036898965 0.00015239495 -0.0008826746 -0.0004448249
0.00036898963 0.00015239495 0.0012446808 -0.00033883398 0.0001243537 -0.00015590465 0.0008323483 0.00042953965
0.0001243537 -0.00015590465 0.0008289477 0.00042953965 0.00032918624 -0.00015590465 9.699335e-05 0.00042953965
0.00032918624 -0.0022290777 0.00030277212 -0.0002885032 0.00020338575 2.3934535e-05 -9.173592e-06 -0.00028850313
0.00020338575 3.146439e-05 -9.173592e-06 -0.00020130769 0.00020338575 3.146439e-05 -9.173592e-06 -0.00020130769
0.00014019849 -0.00063982065 -2.205267e-06 -5.908853e-05 5.466304e-05 8.4342544e-05 -2.205267e-06 -5.908853e-05
4.9430844e-05 8.4342544e-05 0.0003098728 -5.908853e-05 -2.0017082e-05 8.4342544e-05 0.0003098728 0.00047716047
-0.00042762927 5.9253463e-05 -1.1366124e-06 0.00019209382 -1.0366384e-05 5.9253463e-05 -1.1366124e-06 0.0001948157
-1.0366384e-05 -0.0002535676 -1.1366124e-06 0.00015851113 -1.0366384e-05 -0.0002535676 0.00020031886 -0.00016067494

exp_avg_sq f4 [16, 9, 1, 5]
00000000: f7d5 1939 a9fa 4c38 5de2 e036 9b6c 9135
00000010: bd1a a136 a9fa 4c38 5de2 e036 d5d9 6e35
00000020: bd1a a136 9dd7 c937 5de2 e036 c52b 0935
00000030: bd1a a136 9dd7 c937 c0bb 3038 77dc af37
00000040: 1464 3137 30ec 2336 e7ca 3c36 34c8 1336
00000050: 1464 3137 30ec 2336 8112 3e36 34c8 1336
00000060: 1b07 e336 30ec 2336 c877 c335 34c8 1336
00000070: 1b07 e336 9dfd f336 7eca 5637 94a2 cd36
00000080: de9b ea35 7c1d a335 2c2b 0f36 91a2 cd36
00000090: de9b ea35 c67f a335 2c2b 0f36 b82e cf36
000000a0: de9b ea35 c67f a335 2c2b 0f36 b82e cf36
000000b0: 6bb2 dd36 54e1 ec37 1043 5b37 4dbb 3336
000000c0: 9c0f cf34 7a1c 6135 1043 5b37 4dbb 3336
000000d0: f77f cc34 7a1c 6135 57c4 4737 4dbb 3336
000000e0: 6333 9734 7a1c 6135 57c4 4737 9af8 e837
000000f0: 51f6 f836 1db4 9836 bf1b a635 a4ca 8035
00000100: ae25 4935 1db4 9836 c01b a635 c3af 8035
00000110: ae25 4935 afe6 5b36 c01b a635 1c55 3835
00000120: ae25 4935 afe6 5b36 8f47 b036 b0cb aa36
00000130: 9b10 3936 3095 8035 d714 1a35 663d 3335
00000140: 9c10 3936 3095 8035 0e2c 1a35 663d 3335
00000150: 055a 5e36 3095 8035 0e2c 1a35 663d 3335
00000160: 055a 5e36 9dc4 a236 557f 0638 0f47 2f37
00000170: e7e6 ec33 12d5 b235 443a 0d38 0f47 2f37
00000180: e7e6 ec33 2f8d ac35 443a 0d38 7775 6f37
00000190: e7e6 ec33 8fc5 8335 443a 0d38 7775 6f37
000001a0: 1c50 fc37 deed e636 5ba0 4436 fe30 9434
000001b0: 8ae4 6735 36dd 2136 5ba0 4436 fe30 9434
000001c0: a9a9 6835 36dd 2136 1a61 5d36 fe30 9434
000001d0: 1df6 1135 36dd 2136 1a61 5d36 98be 1337
000001e0: 68fa a536 7f23 2436 43cb 8134 9f04 f334
000001f0: 09c5 df37 7e23 2436 43cb 8134 30c6 f334
00000200: 09c5 df37 df7e 6336 43cb 8134 30c6 f334
00000210: 09c5 df37 df7e 6336 46d5 8b36 6a9a d632
00000220: 3eda 0633 0276 0633 6b14 fb32 bc4c 0133
00000230: 3eda 0633 0276 0633 dcab fb32 bc4c 0133
00000240: e8f9 2233 0276 0633 6304 d432 bc4c 0133
00000250: e8f9 2233 5123 0d33 301a 6831 db62 4032
00000260: ec4f 6d31 59c7 9731 b926 2431 db62 4032
00000270: ec4f 6d31 59c4 9731 b926 2431 8521 8331
00000280: ec4f 6d31 f9b7 2531 b926 2431 8521 8331
00000290: bbee 4531 616a 1732 59d8 9831 3ca3 8a31
000002a0: 4247 4231 c1e3 2131 58d8 9831 3ca3 8a31
000002b0: e14c 4231 c1e3 2131 7f40 8731 3ca3 8a31
000002c0: e14c 4231 c1e3 2131 7f40 8731 bb13 2f31
000002d0: 7759 9b38 5dd1 5237 fce2 ee36 e2bd 8439
000002e0: 0c71 b637 5dd1 5237 fce2 ee36 67ad 8439
000002f0: 0c71 b637 6bbd e937 fce2 ee36 fb73 6a36
00000300: 0d71 b637 6abd e937 94a7 7a37 256b 1138
00000310: 378e 1636 2807 2135 4a4c 7639 cc07 7537
00000320: 378e 1636 2807 2135 4a53 7639 cc07 7537
00000330: e8f5 ad37 2807 2135 30b9 1735 cc07 7537
00000340: e8f5 ad37 d0ec d236 3405 ee36 dea0 8835
00000350: fb05 da34 ba82 f034 813e 7e35 dfa0 8835
00000360: fb05 da34 d109 f134 813e 7e35 6eb0 3835
00000370: fb05 da34 d109 f134 813e 7e35 6eb0 3835
00000380: 7a30 c635 84b0 8a37 650a 2d37 66f5 e535
00000390: 3947 ad34 1cb8 0f36 650a 2d37 66f5 e535
000003a0: 5025 a734 1cb8 0f36 c953 6137 66f5 e535
000003b0: d284 c433 1cb8 0f36 c953 6137 3a3a 9537
000003c0: 53d3 e635 c850 a535 7fde 9934 75f9 f734
000003d0: b3f8 5f34 c850 a535 7fde 9934 5742 f834
000003e0: b3f8 5f34 899d e435 7fde 9934 793b 4334
000003f0: b3f8 5f34 899d e435 af2d 2136 ddbb bb35
0.00014670925 4.8870836e-05 6.7020724e-06 1.083495e-06 4.8012867e-06 4.8870836e-05 6.7020724e-06 8.8978896e-07
4.8012867e-06 2.406147e-05 6.7020724e-06 5.110017e-07 4.8012867e-06 2.406147e-05 4.2136526e-05 2.0964288e-05
1.0573323e-05 2.4426372e-06 2.8132288e-06 2.202124e-06 1.0573323e-05 2.4426372e-06 2.8322977e-06 2.202124e-06
6.7659544e-06 2.4426372e-06 1.4563493e-06 2.202124e-06 6.7659544e-06 7.271489e-06 1.280254e-05 6.1284027e-06
1.7479722e-06 1.2153027e-06 2.133379e-06 6.1284013e-06 1.7479722e-06 1.2181633e-06 2.133379e-06 6.1745195e-06
1.7479722e-06 1.2181633e-06 2.133379e-06 6.1745195e-06 6.607084e-06 2.8238319e-05 1.3069031e-05 2.6782102e-06
3.8568112e-07 8.386047e-07 1.3069031e-05 2.6782102e-06 3.8091068e-07 8.386047e-07 1.1907038e-05 2.6782102e-06
2.816333e-07 8.386047e-07 1.1907038e-05 2.777232e-05 7.419651e-06 4.550921e-06 1.2376039e-06 9.595719e-07
7.4933166e-07 4.550921e-06 1.237604e-06 9.587897e-07 7.4933166e-07 3.2767819e-06 1.237604e-06 6.866919e-07
7.4933166e-07 3.2767819e-06 5.2535393e-06 5.090107e-06 2.7576814e-06 9.580162e-07 5.7399797e-07 6.677204e-07
2.7576816e-06 9.580162e-07 5.743358e-07 6.677204e-07 3.3132976e-06 9.580162e-07 5.743358e-07 6.677204e-07
3.3132976e-06 4.850865e-06 3.2066677e-05 1.0447357e-05 1.1031607e-07 1.3324045e-06 3.3671284e-05 1.0447357e-05
1.1031607e-07 1.2856088e-06 3.3671284e-05 1.42728595e-05 1.1031607e-07 9.817758e-07 3.3671284e-05 1.42728595e-05
3.0078045e-05 6.8822255e-06 2.9299615e-06 2.7602795e-07 8.6386774e-07 2.4119631e-06 2.9299615e-06 2.7602795e-07
8.6673623e-07 2.4119631e-06 3.2988087e-06 2.7602795e-07 5.437485e-07 2.4119631e-06 3.2988087e-06 8.806259e-06
4.9465343e-06 2.4458566e-06 2.4176015e-07 4.526564e-07 2.6675423e-05 2.4458564e-06 2.4176015e-07 4.5406478e-07
2.6675423e-05 3.3899485e-06 2.4176015e-07 4.5406478e-07 2.6675423e-05 3.3899485e-06 4.167351e-06 2.4983098e-08
3.1397796e-08 3.1306634e-08 2.922953e-08 3.0104943e-08 3.1397796e-08 3.1306634e-08 2.9298398e-08 3.0104943e-08
3.7945853e-08 3.1306634e-08 2.4682043e-08 3.0104943e-08 3.7945853e-08 3.286124e-08 3.377533e-09 1.1198348e-08
3.453347e-09 4.4173416e-09 2.3887152e-09 1.1198348e-08 3.453347e-09 4.4170005e-09 2.3887152e-09 3.8164125e-09
3.453347e-09 2.4115236e-09 2.3887152e-09 3.8164125e-09 2.8802976e-09 8.813545e-09 4.448378e-09 4.034886e-09
2.827122e-09 2.3558047e-09 4.4483777e-09 4.034886e-09 2.8274416e-09 2.3558047e-09 3.9363495e-09 4.034886e-09
2.8274416e-09 2.3558047e-09 3.9363495e-09 2.5477067e-09 7.40764e-05 1.2565722e-05 7.119377e-06 0.00025318476
2.1748732e-05 1.2565722e-05 7.119377e-06 0.00025306197 2.1748732e-05 2.7863969e-05 7.119377e-06 3.4936227e-06
2.1748734e-05 2.7863967e-05 1.49401785e-05 3.467048e-05 2.2434522e-06 5.998759e-07 0.00023488808 1.4604953e-05
2.2434522e-06 5.998759e-07 0.00023491416 1.4604953e-05 2.0737716e-05 5.998759e-07 5.6521367e-07 1.4604953e-05
2.0737716e-05 6.2860563e-06 7.0935585e-06 1.0179608e-06 4.0610016e-07 4.47986e-07 9.471333e-07 1.0179609e-06
4.0610016e-07 4.489689e-07 9.471333e-07 6.880208e-07 4.0610016e-07 4.489689e-07 9.471333e-07 6.880208e-07
1.4766258e-06 1.6533078e-05 1.0314024e-05 1.713325e-06 3.2275582e-07 2.1415826e-06 1.0314024e-05 1.713325e-06
3.1133322e-07 2.1415826e-06 1.3430553e-05 1.713325e-06 9.151121e-08 2.1415826e-06 1.3430553e-05 1.7789298e-05
1.7197839e-06 1.2316968e-06 2.8660358e-07 4.618884e-07 2.085897e-07 1.2316968e-06 2.8660358e-07 4.6241868e-07
2.085897e-07 1.7033173e-06 2.8660358e-07 1.8182426e-07 2.085897e-07 1.7033173e-06 2.401746e-06 1.3987261e-06

exp_avg f4 [16]
00000000: b8e3 0db1 a14a 87b0 fd9f 53b0 023a c42c
00000010: c57d b2b0 809f 4330 a793 0a30 5d54 7aaf
00000020: ed3c 3730 db38 462f a56c 50af 917d 0a2c
00000030: 9e09 90ae 543c 6cae efe3 772e 0460 a4ae
-2.0647644e-09 -9.843754e-10 -7.698871e-10 5.577095e-12 -1.298695e-09 7.116725e-10 5.0413934e-10 -2.276734e-10
6.6661593e-10 1.8028194e-10 -1.8956088e-10 1.9680683e-12 -6.55007e-11 -5.371377e-11 5.6363744e-11 -7.4749124e-11

exp_avg_sq f4 [16]
00000000: 0059 e025 9cdb 3a23 1a1e 6f24 23eb 001d
00000010: 25d3 8424 4ddb fd23 03f4 0923 15c2 1723
00000020: 302a ac22 5393 3822 044a 3023 646e 301f
00000030: 27b9 8b20 d409 7123 aff5 101f cb1a d620
3.8918115e-16 1.0129584e-17 5.185036e-17 1.7062222e-21 5.760357e-17 2.7523192e-17 7.478456e-18 8.226825e-18
4.666536e-18 2.5014643e-18 9.5566525e-18 3.7360763e-20 2.367004e-19 1.3066717e-17 3.069641e-20 3.627074e-19

exp_avg f4 [16]
00000000: fcdb 0d3b 6fee 823b 0bfe acbb a84e 3d3b
00000010: 3f2f 883c c932 bbbb a65d 41bc 998b 7e3d
00000020: 2d05 21bd ea4a 183d d896 27bc e8e8 d83b
00000030: 2e5d 7f3a 1b3f 09bc 2d4b 303c ae3d 85bd
0.0021646013 0.0039957087 -0.0052793077 0.0028885994 0.016624091 -0.005712841 -0.011802113 0.06214485
-0.039311577 0.03718082 -0.010228835 0.0066195615 0.0009741363 -0.008376862 0.010760111 -0.06505905

exp_avg_sq f4 [16]
00000000: eac7 463a cbda c43a 27ce 4c3a 6032 703a
00000010: f779 ba3a 0267 fd3a bff6 e63c cd16 3b3d
00000020: 1c86 7a3d b9d5 343e 9a18 983b bf36 833a
00000030: 6adf f739 92a6 523b 25b0 873a 7b51 063e
0.000758289 0.0015018819 0.00078127015 0.000916278 0.0014227022 0.0019333067 0.02819383 0.04567604
0.061163053 0.17659654 0.0046416046 0.0010010822 0.00047277968 0.003214274 0.0010352178 0.1311702

exp_avg f4 [16]
00000000: 3f16 073c cce0 d63b 9399 9639 609d 7f3a
00000010: 663b 343d 75a9 72bc 9421 453b 45a4 eb3a
00000020: 7a5e b43c de98 0f3b 23f5 d03c f157 883a
00000030: a0d2 9239 d268 c2bc 2fc4 8e3a 0df6 903c
0.00824505 0.0065575596 0.0002872465 0.0009750929 0.04400196 -0.0148109095 0.0030079829 0.0017978033
0.022017706 0.0021911184 0.025507515 0.0010402185 0.00028004218 -0.023731623 0.0010892208 0.017695451

exp_avg_sq f4 [16]
00000000: 1b19 cc3b 4732 3c3b b054 053c 44d0 d037
00000010: 5a0d e93b 7023 253c 678a 6d3b 1a31 9b3b
00000020: 1ded de3c 3794 a03b b1a0 f23c d0fe cd37
00000030: 5ec0 c537 493f b23c 8bd6 8637 17b7 e33c
0.0062285787 0.002871649 0.008137867 2.4892513e-05 0.0071121873 0.01007925 0.0036245824 0.004736078
0.027212674 0.004900481 0.02961764 2.455656e-05 2.3573808e-05 0.021758692 1.607395e-05 0.027797265

exp_avg f4 [16, 8, 1, 5]
00000000: ca56 dfba 15fd baba 3ef6 87b9 cee7 d7ba
00000010: c49e 97ba acc1 b5ba 2050 73ba a588 9fba
00000020: 2ef9 deba 3c84 deba 81a0 d1ba 39aa e6ba
00000030: e0db 88ba e749 d4ba d1cf c9ba 5f96 00b8
00000040: 0fc2 58b7 e2df 04b7 027c 9439 e3cc 9339
00000050: f18a f5b9 a86f 0938 0bb6 363a c6ac 83b9
00000060: c8ea 99b9 4e94 df38 c11a 2fb9 60ac 3f3a
00000070: 6a69 9f39 7e5e f938 507e 67ba 8f56 2c3a
00000080: fefb c439 be2c 6cbb ddb8 e6ba 691b 00ba
00000090: e4fb 283a 4eff 1fbb 8965 cab9 f72c 2bba
000000a0: 11a5 fcb9 2664 dbb9 12bc 70ba 3a7e 24ba
000000b0: ae5b 42ba 4a90 80b9 fb1f eaba e9e7 c2ba
000000c0: 806e adb9 2c1a 44b9 ae8c 29b9 be18 6bba
000000d0: 15b9 2dba ca14 66ba a501 5cba 55d4 2fb8
000000e0: 1f7f a6b8 63f7 4137 4e17 52b9 e59c 59b9
000000f0: 96e8 3f39 7670 e239 a898 00b6 a333 2339
00000100: 64eb 95b8 d4c5 9639 72eb d839 34f5 a339
00000110: 5e2f 183a 949a dd39 c33e 02bb d696 4b3a
00000120: c555 55bb e9be 6bb9 93ba cdb9 5347 04ba
00000130: 8b27 c6ba fd16 8439 2d2e f7ba 9d3a 3dba
00000140: a849 11bb 2181 26bb be3c 0cbb 6c5c 56bb
00000150: a71b 62bb 2d3c 44bb 8aa9 60bb 2766 59bb
00000160: 4545 94bb 728f a2bb 4ee6 19bb 1840 34bb
00000170: e5b4 49bb b246 7abb f3ae 86bb ae86 94b8
00000180: 0bcf aab8 700e 8f36 a8fe bd39 9548 b939
00000190: 0228 f7b7 1e71 45b9 a222 0aba 2f1f e4b7
000001a0: fa54 2cba 9046 afb7 c241 5738 b62d e737
000001b0: 4842 4239 275e 8638 0476 c2b9 d940 34ba
000001c0: cb1e 513a 06e2 1aba df18 1bbb 7c80 dcb6
000001d0: 0555 d8b9 19c6 a4b9 8be0 caba 54d7 94ba
000001e0: a5a2 53ba eca3 89b9 e163 11b8 c6e1 62b9
000001f0: bdc8 1038 af37 493a da46 963a 4b95 233a
00000200: 4c7c dc39 7d48 ac3a 430a 32b9 be8c fc39
00000210: 57e8 7fb8 1f69 1838 b9ef cf38 e138 c7b8
00000220: 4217 c1b8 0ee1 8fb6 833d 1039 c733 0939
00000230: 2fdf 8239 af4e 98b8 2cf8 5b3a a681 1c3a
00000240: 631d 853a 06cc 9eb9 79a7 6039 fdaa 5539
00000250: 6b35 043a bda1 1d3a 941c fb39 2c25 deba
00000260: 75df 793a 7091 1ebb aa15 05bb 0236 023b
00000270: 21d4 c339 afce bdb9 8386 04ba e266 91ba
00000280: 7a0e 0dbb 7d2c 1cbb bb80 1cbb 6766 47bb
00000290: 3151 42bb 44bb c2ba 2136 fbba fd84 e6ba
000002a0: c77e 0ebb 174d 34bb f0d5 e8ba 7635 19bb
000002b0: 2bb4 19bb 4964 1fbb 70f3 31bb bdc4 6fb8
000002c0: cca7 aab8 bcbb 3937 4327 8238 f78c 8d38
000002d0: 68dd bbb9 1ec8 12ba a08c c9ba dee0 6eba
000002e0: f69a f0ba eeec 3cb9 a570 98b8 6ebd ecb9
000002f0: b68d 84b9 9c7e 3eba 85e2 57b9 6df5 693a
00000300: daea 28ba d070 083b c816 24b9 044e ba39
00000310: c0fe 46ba 6dd6 c53a e212 a7ba 175c f13a
00000320: 2d25 473a 3c47 be39 af27 a2b9 3742 143b
00000330: 2026 e03a 7a94 90b9 9d2a 45b9 0fef 9bb9
00000340: aef5 8d3b e596 8e3b b78c 633a fb21 a839
00000350: 59c2 b7b9 e644 623b 738e 2c3b 3471 86b8
00000360: b2bc 5fb8 00c2 2d35 08dd 72ba 8127 6eba
00000370: a2ea 47b9 c35d c8b9 525c ad3a c767 d738
00000380: d920 ec38 f5b7 10b8 d22e a0b8 d037 68b8
00000390: 5658 1238 1c68 dbb8 1bf6 9239 b76f 383a
000003a0: b93b 3eb9 6ed4 823a dc5f 1f3b bf11 03b9
000003b0: 18e1 383a fc89 80b9 517c fe3a 1b70 2c3b
000003c0: 6b87 233b e62d 0c3b 6773 e23a 293c 273b
000003d0: 723f 223b 933c 473b 2127 d63a 9c82 b83a
000003e0: 7003 103b 67b5 0b3b 6b23 3d3b 9ba4 543b
000003f0: dcb7 d13a bf78 2e3b 98cf 243b 748b 7538
-0.0017039415 -0.0014266098 -0.0002593267 -0.0016472281 -0.0011567702 -0.0013866923 -0.0009281654 -0.001217146
-0.0017011517 -0.0016976665 -0.0015993268 -0.0017598338 -0.0010441504 -0.0016196341 -0.0015397017 -3.0657622e-05
-1.2919786e-05 -7.91994e-06 0.00028321153 0.00028190677 -0.0004683356 3.2767333e-05 0.00069698755 -0.00025114993
-0.0002935736 0.000106610925 -0.00016699267 0.00073117577 0.00030405383 0.00011890846 -0.0008830773 0.00065741775
0.00037571782 -0.003603741 -0.0017602701 -0.0004886897 0.0006446226 -0.0024413648 -0.00038604092 -0.00065298326
-0.0004818817 -0.00041845551 -0.0009183298 -0.0006274913 -0.0007414174 -0.00024521566 -0.0017862314 -0.001487014
-0.0003307946 -0.00018701766 -0.00016169503 -0.00089682254 -0.00066270056 -0.00087769015 -0.0008392579 -4.1921e-05
-7.939175e-05 1.1561296e-05 -0.00020035842 -0.0002075318 0.00018301824 0.0004318987 -1.9162344e-06 0.00015564128
-7.1487186e-05 0.00028757623 0.0004137415 0.00031272473 0.0005805398 0.00042267574 -0.0019873835 0.0007766312
-0.0032552343 -0.00022482466 -0.00039239656 -0.00050460285 -0.0015117986 0.0002519413 -0.0018858366 -0.0007218512
-0.0022169147 -0.0025406557 -0.002139851 -0.0032708896 -0.0034501345 -0.0029943094 -0.003428074 -0.003317246
-0.004524859 -0.0049609477 -0.002348322 -0.0027504023 -0.0030777988 -0.003818911 -0.004110211 -7.082276e-05
-8.1447964e-05 4.263413e-06 0.00036238623 0.00035340028 -2.9463325e-05 -0.00018829523 -0.0005269443 -2.7194239e-05
-0.0006573942 -2.0894484e-05 5.1321236e-05 2.7558632e-05 0.00018525973 6.407155e-05 -0.00037090492 -0.0006876118
0.0007977306 -0.0005908314 -0.0023665947 -6.5714685e-06 -0.00041262075 -0.00031428112 -0.0015478296 -0.0011355677
-0.0008073247 -0.00026252808 -3.4663713e-05 -0.00021637147 3.4519227e-05 0.0007675839 0.0011465207 0.0006240203
0.00042054278 0.0013144162 -0.00016979226 0.00048170047 -6.101312e-05 3.6337526e-05 9.915181e-05 -9.499654e-05
-9.207289e-05 -4.287932e-06 0.00013755825 0.00013084627 0.00024961817 -7.262581e-05 0.00083911675 0.0005970247
0.0010155853 -0.00030288118 0.00021424693 0.00020376961 0.000504336 0.00060131756 0.00047895743 -0.0016948334
0.0009531894 -0.0024195574 -0.0020307102 0.0019868617 0.00037351347 -0.0003620288 -0.0005055444 -0.0011093284
-0.0021523521 -0.0023830228 -0.002388044 -0.0030426027 -0.0029650445 -0.0014856835 -0.0019165912 -0.0017587241
-0.0021743046 -0.002751177 -0.0017763954 -0.0023377812 -0.0023453336 -0.002432125 -0.0027153157 -5.7165267e-05
-8.137486e-05 1.107057e-05 6.206196e-05 6.749661e-05 -0.0003583238 -0.0005599278 -0.0015376993 -0.00091124873
-0.0018356729 -0.0001801734 -7.2689065e-05 -0.00045154564 -0.00025282585 -0.0007266791 -0.00020588383 0.0008924816
-0.0006443687 0.0020819195 -0.00015648745 0.0003553481 -0.00075910613 0.0015093811 -0.0012746716 0.0018414286
0.0007596787 0.00036292698 -0.00030928614 0.0022622475 0.0017101206 -0.00027576444 -0.00018803259 -0.00029742016
0.004332266 0.004351484 0.0008680331 0.00032068774 -0.0003504928 0.003452593 0.0026330024 -6.410704e-05
-5.334308e-05 6.472983e-07 -0.00092645036 -0.0009084866 -0.00019065526 -0.0003821683 0.0013226366 0.00010271329
0.00011259475 -3.45036e-05 -7.6381155e-05 -5.536509e-05 3.489138e-05 -0.00010462126 0.00028030653 0.000703569
-0.0001814206 0.0009981522 0.0024318611 -0.00012499744 0.00070525846 -0.0002451687 0.0019415711 0.0026311937
0.0024952542 0.0021389662 0.0017276824 0.0025518036 0.0024757055 0.0030401095 0.0016338566 0.001407701
0.0021974705 0.002131784 0.0028860222 0.0032446745 0.0016000229 0.0026622263 0.002514815 5.8542428e-05

exp_avg_sq f4 [16, 8, 1, 5]
00000000: 41d7 6738 5b26 2238 c907 5e38 93c7 5638
00000010: e01d 6c38 59b9 8b38 509c 4b38 4463 8c38
00000020: 271e 9b38 8e90 bd38 213d 6738 76cf 3d38
00000030: aaa6 3238 7959 8238 a40f 7638 2e60 4034
00000040: 7001 4834 3b85 8031 42a0 8435 a725 8435
00000050: 0e5e 8e37 b8f4 6f37 cc7d 9937 380a 8337
00000060: 7044 b337 564d 4137 aca1 3536 1322 0d37
00000070: e050 3f36 6217 da36 7bde 2238 12ee 2a38
00000080: 776b bb37 f0f3 c838 0785 ef37 20e7 1039
00000090: 24c6 3537 8551 d138 5f08 0837 1bd4 8838
000000a0: 51f1 2b38 b412 4338 fa19 2c38 7a61 3938
000000b0: f5cf 3b38 84d8 9038 1b70 c338 0b02 9d38
000000c0: 6b7d b538 cd93 ae38 48e4 5038 80ad 5538
000000d0: f4d4 8838 99d0 5138 deb6 6638 bc05 9134
000000e0: e4f9 9034 0bb3 d031 1c7a cc34 02ae cd34
000000f0: 67fd ca37 fc30 fc37 d8d8 8c37 10e6 6b37
00000100: 2b8c 9337 d556 f336 9efb 5137 cf58 ef36
00000110: 6b05 3b37 2d46 b436 aa0e 6139 41de 9037
00000120: 25ac c339 bf83 da38 7871 1438 28ed 1538
00000130: e21f 0939 bb0e 3637 c92a fb38 5edf 1138
00000140: 3f35 7c38 dd47 6b38 301d 8c38 655c 7438
00000150: 92f2 8038 ba1b da38 f71b d738 84cd ef38
00000160: 5768 0a39 2106 fd38 0a29 9738 6b46 9638
00000170: 91cc a438 bb4c 9838 0efb ad38 cfb7 eb34
00000180: 7967 f034 743d 9631 83f7 8f35 150a 8d35
00000190: 3277 8637 2fd2 e437 40c8 8537 b615 c837
000001a0: 8263 9337 cd2c 3a37 c094 5b36 f1d1 a337
000001b0: 3759 ba36 d01d fc36 12ee f738 fc25 d937
000001c0: 52c4 9039 0aed b437 aed2 6939 ce42 d938
000001d0: 9a90 2037 4fab 2739 890c 2f38 1e23 1d38
000001e0: 1c2d 1538 c406 0738 37fa fd37 4a40 1b38
000001f0: 8238 0538 ed27 7738 c573 5938 ca7d 5938
00000200: 2d9f 8438 a4a6 6638 52d7 2438 806c 3b38
00000210: 726e 0538 0b1d 5238 af8f 1538 ba5f ca34
00000220: 85e1 cc34 1396 6931 aacb c734 7f93 ca34
00000230: 1150 a337 49bc 2137 d809 ab37 061e 2937
00000240: 151c 9637 e9ff c836 ee60 a136 fd6b 6d36
00000250: 8208 0437 c5dd 1436 c058 8238 e478 4039
00000260: 4b8a 4937 6eba 4739 e709 6c37 8567 2d38
00000270: 75e2 2b37 4e65 ba37 fe66 2d38 dde8 0637
00000280: 21e6 ad37 ca6c d237 2e1b e137 62c5 0538
00000290: b05b 0538 d889 e937 2067 3838 5b21 1a38
000002a0: 8b1c 6638 63be 6938 b040 c537 214b e037
000002b0: 77c9 0438 1012 1838 ebc2 2238 d04f 6e34
000002c0: eb3c 6734 ad1e 8231 4b2b 1d35 3be4 1935
000002d0: 7b76 0337 5ec7 1237 db8b 2e37 2281 3c37
000002e0: b336 1d37 c93c 4235 5474 1d36 1d50 4f36
000002f0: 2d97 9836 f259 a636 3979 1937 08e7 b936
00000300: afef 8438 076c 8338 e535 9c38 5e8b 9b36
00000310: e519 bc37 8c3f 9837 6d7e 3d38 e693 3238
00000320: c3a7 9438 2bf7 2838 8bb6 8d36 b89e 0439
00000330: ef26 1239 6254 0239 ebcc e338 36e2 2d37
00000340: 38ac e239 68a9 ea39 c68b aa38 cdfe 8c38
00000350: 834b 7036 9a7e 4039 7393 5539 8736 6c36
00000360: aed4 6c36 0e9a 1f31 fb2e 6c37 568e 6c37
00000370: 7f78 b337 d4b8 0e37 539a 0538 815a d437
00000380: d3ee e237 8173 8d36 72a9 3436 0e7b 1336
00000390: d52e 7936 c4c1 8736 b571 1c38 9473 a738
000003a0: 43a3 ca37 f5ad fc38 661a e938 2ea8 3038
000003b0: e726 d437 3dbc b137 5f00 b238 59bf 9138
000003c0: 53d1 3e38 727f 4d38 062a 4238 4dbb 1f38
000003d0: 50f4 3a38 0ae1 ad38 72b0 8438 6295 8938
000003e0: 48cf 9f38 44dd a638 e789 7c38 324f 5a38
000003f0: 3ee5 6538 f4b6 5838 14e3 6438 8545 0735
5.5275163e-05 3.865953e-05 5.2936175e-05 5.1207444e-05 5.6294608e-05 6.66256e-05 4.854455e-05 6.69421e-05
7.396592e-05 9.039148e-05 5.5131623e-05 4.5254325e-05 4.2593725e-05 6.215549e-05 5.8665537e-05 1.7916383e-07
1.8626974e-07 3.740437e-09 9.881408e-07 9.845725e-07 1.6971517e-05 1.4302488e-05 1.82976e-05 1.5621175e-05
2.1370332e-05 1.1521703e-05 2.7065207e-06 8.412188e-06 2.8508293e-06 6.4996284e-06 3.883101e-05 4.075288e-05
2.234218e-05 9.58218e-05 2.8552966e-05 0.00013819011 1.0834574e-05 9.981081e-05 8.108181e-06 6.524493e-05
4.099432e-05 4.650904e-05 4.1032188e-05 4.419822e-05 4.477795e-05 6.906784e-05 9.319206e-05 7.486724e-05
8.6541135e-05 8.3244966e-05 4.9803668e-05 5.094474e-05 6.524651e-05 5.0023755e-05 5.500658e-05 2.7012527e-07
2.700391e-07 6.0739516e-09 3.8086807e-07 3.8310833e-07 2.4198276e-05 3.0063551e-05 1.6790276e-05 1.4060657e-05
1.7589036e-05 7.252073e-06 1.2515955e-05 7.1330937e-06 1.114733e-05 5.3725876e-06 0.00021463135 1.7269633e-05
0.00037321556 0.0001041959 3.5391626e-05 3.5745237e-05 0.00013077215 1.0851475e-05 0.00011976582 3.477872e-05
6.013107e-05 5.6095294e-05 6.681157e-05 5.8260182e-05 6.148698e-05 0.000104002145 0.00010257208 0.00011434688
0.00013199575 0.00012065122 7.207885e-05 7.165674e-05 7.858233e-05 7.262217e-05 8.2960454e-05 4.39059e-07
4.477877e-07 4.372561e-09 1.0726366e-06 1.0508253e-06 1.602955e-05 2.7277592e-05 1.5948084e-05 2.3851968e-05
1.7570103e-05 1.1096895e-05 3.2720127e-06 1.9528876e-05 5.553618e-06 7.513656e-06 0.00011822222 2.5886104e-05
0.0002761209 2.1568052e-05 0.00022299096 0.0001035981 9.570411e-06 0.00015990179 4.1734926e-05 3.7464422e-05
3.556638e-05 3.219281e-05 3.0276466e-05 3.7014754e-05 3.1762298e-05 5.8926573e-05 5.184465e-05 5.1853982e-05
6.323899e-05 5.499147e-05 3.930118e-05 4.4685323e-05 3.181253e-05 5.009495e-05 3.5658184e-05 3.7695082e-07
3.8162048e-07 3.399127e-09 3.7214824e-07 3.773275e-07 1.9468398e-05 9.640186e-06 2.0389372e-05 1.0080175e-05
1.789447e-05 5.9902563e-06 4.809458e-06 3.537861e-06 7.869794e-06 2.2182805e-06 6.215414e-05 0.00018355582
1.2012732e-05 0.0001904757 1.4069002e-05 4.1342824e-05 1.024512e-05 2.2220102e-05 4.1342333e-05 8.04124e-06
2.073037e-05 2.508461e-05 2.6834747e-05 3.1893498e-05 3.179506e-05 2.7839953e-05 4.396506e-05 3.6747526e-05
5.4862856e-05 5.572884e-05 2.3514353e-05 2.6737865e-05 3.165888e-05 3.6256446e-05 3.880534e-05 2.2194513e-07
2.1535713e-07 3.7869854e-09 5.855006e-07 5.732906e-07 7.835794e-06 8.748697e-06 1.0403771e-05 1.1235739e-05
9.370665e-06 7.2359086e-07 2.3462535e-06 3.0892036e-06 4.547552e-06 4.9576565e-06 9.147735e-06 5.540325e-06
6.338895e-05 6.2666884e-05 7.448698e-05 4.6355844e-06 2.2423405e-05 1.8149403e-05 4.5178855e-05 4.257625e-05
7.088438e-05 4.0284514e-05 4.2233783e-06 0.00012647628 0.00013938149 0.00012429201 0.000108623724 1.0364272e-05
0.00043234392 0.00044758175 8.1322665e-05 6.7231806e-05 3.580674e-06 0.0001835771 0.00020368192 3.519848e-06
3.5290536e-06 2.3225115e-09 1.4077635e-05 1.4099836e-05 2.1394573e-05 8.506893e-06 3.1853397e-05 2.5314514e-05
2.705251e-05 4.215574e-06 2.692072e-06 2.1976334e-06 3.7131151e-06 4.045871e-06 3.7299196e-05 7.984709e-05
2.4156301e-05 0.000120486984 0.00011115223 4.21183e-05 2.5290485e-05 2.11877e-05 8.4877705e-05 6.94978e-05
4.549448e-05 4.89945e-05 4.629234e-05 3.808299e-05 4.457339e-05 8.2911996e-05 6.327116e-05 6.560494e-05
7.62032e-05 7.956711e-05 6.0209913e-05 5.2049007e-05 5.4811353e-05 5.16688e-05 5.457092e-05 5.0392583e-07

exp_avg f4 [16]
00000000: 08e2 8f32 d14f 52b0 eeb2 18b2 2f9d 31b2
00000010: cfcc beb0 9098 cdb1 9eb7 5231 e4cf 9cb1
00000020: 18ac 9132 a8c1 7232 acc3 afb0 7dc9 8e32
00000030: f0fa de32 a134 9232 e397 02b1 a60b 57b2
1.6750178e-08 -7.651098e-10 -8.888248e-09 -1.0338495e-08 -1.388253e-09 -5.9836296e-09 3.0663396e-09 -4.563832e-09
1.695848e-08 1.4130286e-08 -1.2788539e-09 1.6622602e-08 2.5958315e-08 1.702057e-08 -1.9003827e-09 -1.2517296e-08

exp_avg_sq f4 [16]
00000000: c543 ee26 2443 c526 ef52 d726 61ef b626
00000010: 848e b026 6cc9 0828 6a8f fd26 06dc e326
00000020: d49a cf27 3227 8928 d1a1 6128 36b3 0428
00000030: ae18 2d28 c03d 1629 0ca3 7c25 c8c2 9f28
1.6532936e-15 1.368782e-15 1.4941101e-15 1.2693671e-15 1.2251082e-15 7.593193e-15 1.7594274e-15 1.5810927e-15
5.7621907e-15 1.5227054e-14 1.2525097e-14 7.366332e-15 9.608781e-15 3.336025e-14 2.1912758e-16 1.7737019e-14

exp_avg f4 [16]
00000000: adb4 e43b 3a49 c3bb 06e7 13bc 4f94 1e3b
00000010: cf4b 84b8 f865 7a3b 1d17 ac3b b1a2 82ba
00000020: 3c4b 613c d07f 6e38 b463 7b3b 522e 9a39
00000030: d831 623c 5570 52bb 540b ab3a d3ae 1fbb
0.006979546 -0.005959657 -0.009027248 0.0024197286 -6.308371e-05 0.003820775 0.0052517788 -0.0009966699
0.013750847 5.6862656e-05 0.0038358988 0.0002940768 0.013805829 -0.0032110412 0.0013049641 -0.0024365678

exp_avg_sq f4 [16]
00000000: 83a1 443a f293 2a3a d1df 8a3a 16aa f339
00000010: 6ae7 ad3a 1378 433a 2565 513a 0daf 983a
00000020: 9d76 673b 6e6f 4c3b 71ba 703a bfe1 d23a
00000030: d1eb 023c ed3e 3d3a fab2 bd3a e79d 983b
0.0007500874 0.0006507031 0.0010595267 0.00046475296 0.0013267819 0.0007456552 0.0007987789 0.0011648849
0.0035318502 0.0031194347 0.00091830554 0.0016089006 0.007990793 0.00072191545 0.0014472895 0.0046574953

exp_avg f4 [16]
00000000: 3d81 f839 6b0b 033b 59e9 f5ba 7c9f a3ba
00000010: 0d82 01ba bdd5 c3ba 51d7 853b c302 6cbb
00000020: d451 183b 6aa4 abbb fefd 563a 4e32 02bb
00000030: 3874 a3bb 4df9 153b 9ba8 673a 336c b33b
0.00047398536 0.001999582 -0.001876156 -0.0012483443 -0.00049403385 -0.0014941018 0.0040845056 -0.0036012388
0.0023242133 -0.0052381055 0.00082013 -0.001986641 -0.0049882196 0.002288419 0.0008837075 0.005475545

exp_avg_sq f4 [16]
00000000: dfd2 db39 3129 0939 5b31 3539 707a b938
00000010: a879 2e39 238e 033a 538d 2f39 5feb b838
00000020: 1cb2 2c39 31dd 1d3a 70c3 183a 66d0 da38
00000030: d200 ce39 4a30 fd39 85e1 8b3a d4ae 053b
0.00041928046 0.00013080683 0.00017279891 8.844293e-05 0.00016639254 0.00050184334 0.00016741948 8.817645e-05
0.00016469549 0.0006022035 0.00058274623 0.00010433867 0.00039291993 0.000482919 0.0010672068 0.0020398395

exp_avg f4 [16, 24, 1, 1]
00000000: dbde 15ba 13aa 86ba 937e b839 39bf 10b9
00000010: e270 baba cb31 133a ca08 7638 8d98 60ba
00000020: 4425 b139 4138 ddb9 3e12 9eba dd9c 56bb
00000030: f553 683a 2e96 02bb e993 a33a 96e6 88bb
00000040: f5bf 20bb b8d1 0ebb 4e78 803a 050e a4b9
00000050: ef9f 223b c4b4 36bb 198b d4b9 3a52 aa3a
00000060: 2729 bdb9 566f 5eb9 1216 56ba b921 29ba
00000070: 1d83 da39 1fdd 85b9 ceb8 19ba 6a57 0aba
00000080: 3367 1cba 6c4c 23ba 3427 42b9 2d42 4db9
00000090: 5d9b b1b9 4805 d5b8 76c2 e437 c737 12bb
000000a0: 9de4 23bb 0000 1ebb 4677 a036 9c1c 8239
000000b0: ae97 b039 6589 8eba 0083 10b9 d6fc 4fba
000000c0: f0a6 a738 73a2 79ba a45e 82ba c93f 113a
000000d0: ecc0 4f39 284c 47ba cc83 ec38 915e 8fb9
000000e0: 489b 01b7 b87a 43b9 2041 50ba 0895 e4ba
000000f0: e40d 58ba 489c 1a3a 8a04 d936 f451 adb9
00000100: 2b21 ea39 623f 30ba 1702 d2ba 751b 09ba
00000110: 7da4 103a 57c7 3eba 05cf d3ba a1c0 11bb
00000120: c6b2 2b39 6cda 7639 ed54 9bb9 7444 29b9
00000130: b2ef 8239 0f6a 653a 32f5 0e3a e2c7 573a
00000140: 600f 17b8 ddae 7738 0f87 f438 d03b ad37
00000150: 9db7 d8b9 7343 1f39 90d2 8c39 a726 a3b8
00000160: 9754 e4b9 f426 1fba 1a89 72ba 2502 ddb9
00000170: c12b 5bba 49d1 1c3a 3656 4fb8 33d7 7638
00000180: fdbd fd39 ac9c 323b 09aa 0a3b 493b 47b9
00000190: 4975 2d3b 14d8 d93a d3e7 9b3a 645a 693b
000001a0: 0bb6 e43a 4973 1b39 0fed 753a 3950 8aba
000001b0: 3dec bdb9 d3ca a83a 7046 a83a 2702 49ba
000001c0: feb9 803a 4a41 e43a 5362 813b 2e96 683b
000001d0: 96a4 2e3b 7ab0 a33a a29a 943b cb9b 43ba
000001e0: c30e 603a 2771 1ebb b84c 353a f3fb 2fba
000001f0: ff0b 7a3a 9d08 513b 8b26 d2b7 a927 a23a
00000200: 730a f93a 7d10 1dba de88 50ba a5b4 5e3b
00000210: 28e4 d3b8 62d5 29ba d9bf 813b 0b10 e53a
00000220: 50a9 4e3a fa74 f13a e104 41ba dd6d 7aba
00000230: 0ab6 2d3b d130 daba e33d 30ba 1983 0a3c
00000240: 5bd6 0937 652a 19b9 5c39 a3b6 8adb ecb7
00000250: d42a 5939 3561 9238 60a5 0aba 0add adb9
00000260: fc1c 36b9 10cd 0eb8 dd40 6db9 9c29 1f39
00000270: 386f 14b7 8198 2139 65d9 1f39 446d 0aba
00000280: 0059 14ba 510e 20ba a5a2 14b8 19e6 2b3a
00000290: eaf2 2f3a efc8 26ba 5326 8139 a3e0 bdb9
000002a0: c091 013a afbc b13a 1d6b 3f3b d623 4e3a
000002b0: 2eb6 463a 1ba8 a7b9 6335 6eba 0026 89ba
000002c0: 37d3 0e3b 8307 113b 4373 2f3b fecb 3f3b
000002d0: 6c22 7bba 4c65 e4ba 7cd5 653a 4e23 d8ba
000002e0: 6055 beb8 47ec be3a 7f1c a239 7f1c 403b
000002f0: d470 863b abc9 b33a 7577 c43a 73c2 553b
00000300: 7360 2cb7 d640 19ba 4562 81b9 cbb7 be39
00000310: f712 00ba b583 6f3a c3d8 58b9 e59d 9639
00000320: aa41 8639 1c1b 0f39 7592 65ba 995e 8eba
00000330: 964a edb9 cd07 22ba f138 cc39 edde 5dba
00000340: 1e2a 68ba e2c0 77ba be01 85ba 4a1e 9ab9
00000350: b91d b339 ddc7 99ba 99f3 29b9 f448 c4b9
00000360: 9987 cdb8 d1d7 abb9 c82e 0aba db07 8ab8
00000370: 2435 3c39 d210 eeb8 9a15 6c39 faca 1439
00000380: e4d5 06ba 20f3 0239 d000 36b8 4899 2d38
00000390: 2316 8f39 f948 9939 cb7c 8db7 0846 6b39
000003a0: 6de9 58b9 6069 98b9 e99d beb8 c8ce 4cb9
000003b0: 704f 29ba 990d c838 16b9 8fb8 06a0 ccba
000003c0: 98ac 0aba 6fc5 13b9 45cc 16ba 529a 7eb8
000003d0: 5d20 9338 13e8 54b9 363d 5a38 16b8 32b9
000003e0: 60e1 2cba 5f47 72ba 44e7 94ba 9e8d 56ba
000003f0: 7aa0 5cb9 0cfd b137 bea8 7aba 22d3 72ba
-0.0005717107 -0.0010274075 0.0003518952 -0.00013804146 -0.0014224316 0.0005615025 5.8659156e-05 -0.0008567654
0.00033787836 -0.00042194317 -0.001205988 -0.0032747306 0.0008862608 -0.001992594 0.0012479994 -0.0041778786
-0.0024528478 -0.0021792483 0.0009801479 -0.00031290963 0.0024814566 -0.002787874 -0.00040539427 0.0012994476
-0.0003607955 -0.00021213046 -0.0008166741 -0.00064518634 0.00041677887 -0.00025532485 -0.0005864025 -0.0005277308
-0.00059663056 -0.0006229344 -0.00018515886 -0.00019574976 -0.00033875825 -0.00010157615 2.7270271e-05 -0.0022311078
-0.002500809 -0.0024108887 4.782257e-06 0.00024816848 0.00033682346 -0.0010874687 -0.00013781711 -0.0007934099
7.994275e-05 -0.0009522803 -0.0009946418 0.0005540816 0.00019812927 -0.0007602596 0.00011277906 -0.00027345543
-7.725153e-06 -0.00018642365 -0.00079442747 -0.0017439434 -0.0008241816 0.00058979215 6.4676324e-06 -0.0003305819
0.0004465667 -0.0006723312 -0.0016022351 -0.00052302267 0.0005517675 -0.0007277629 -0.0016159719 -0.002224006
0.00016374429 0.00023541757 -0.00029627178 -0.00016142597 0.0002497412 0.00087514607 0.0005453407 0.0008231384
-3.6015525e-05 5.9052243e-05 0.00011659983 2.065106e-05 -0.00041335533 0.00015188548 0.00026859762 -7.779645e-05
-0.00043550573 -0.0006071173 -0.0009251997 -0.00042154003 -0.0008360707 0.00059821137 -4.9432936e-05 5.885139e-05
0.00048397473 0.0027254028 0.0021158478 -0.00019000204 0.0026467612 0.0016620182 0.001189465 0.0035606856
0.0017449273 0.00014824899 0.0009381333 -0.0010552473 -0.000362249 0.0012877829 0.0012838375 -0.0007667862
0.0009821055 0.0017414477 0.0039484887 0.0035489905 0.0026648394 0.0012488507 0.004535035 -0.00074618746
0.00085471215 -0.002417633 0.0006916034 -0.00067132636 0.0009538531 0.0031896003 -2.5051899e-05 0.0012371439
0.0019000306 -0.00059915317 -0.0007954965 0.0033982184 -0.000101037615 -0.0006478635 0.0039596376 0.0017476095
0.0007883506 0.0018421703 -0.0007363093 -0.0009553114 0.0026506209 -0.0016646629 -0.0006723089 0.008454108
8.215745e-06 -0.0001460701 -4.864456e-06 -2.8235623e-05 0.00020710687 6.979929e-05 -0.0005288925 -0.00033161818
-0.0001736767 -3.4046418e-05 -0.00022626245 0.00015178922 -8.847383e-06 0.00015410969 0.00015244407 -0.0005280564
-0.0005659014 -0.0006105649 -3.5437424e-05 0.00065574195 0.0006711917 -0.0006362339 0.0002463335 -0.00036216257
0.0004942678 0.001356026 0.0029208132 0.00078636163 0.00075802475 -0.0003197797 -0.0009086935 -0.0010463595
0.0021793374 0.0022129721 0.0026771582 0.0029265876 -0.00095800194 -0.0017425208 0.00087674684 -0.0016490014
-9.075808e-05 0.0014566266 0.0003092028 0.002931386 0.0041028056 0.0013716718 0.0014989214 0.0032617121
-1.0274455e-05 -0.0005846148 -0.00024678014 0.0003637656 -0.00048856385 0.00091367523 -0.00020680115 0.0002872787
0.00025607395 0.00013647642 -0.00087574805 -0.0010861933 -0.00045259733 -0.0006180972 0.00038952337 -0.00084636995
-0.00088563736 -0.0009451044 -0.0010147614 -0.00029395736 0.00034163686 -0.0011732538 -0.00016207843 -0.00037438388
-9.800419e-05 -0.00032776457 -0.0005271253 -6.581816e-05 0.00017948874 -0.000113518574 0.00022514761 0.00014189995
-0.00051435665 0.00012488337 -4.3392938e-05 4.138917e-05 0.0002729158 0.00029236803 -1.6866621e-05 0.00022437435
-0.00020686323 -0.0002907021 -9.089319e-05 -0.00019531988 -0.00064586755 9.539276e-05 -6.853246e-05 -0.0015611656
-0.00052900007 -0.00014092562 -0.00057524844 -6.070204e-05 7.015534e-05 -0.0002030435 5.2032257e-05 -0.0001704398
-0.0006594863 -0.00092422025 -0.0011360426 -0.0008184555 -0.00021040617 2.1217878e-05 -0.0009561888 -0.00092630286

exp_avg_sq f4 [16, 24, 1, 1]
00000000: 0b79 6638 8da3 0039 fea8 c038 7b51 6938
00000010: d84e 5d38 d20f 9638 df7f b438 6b51 ee38
00000020: b3dc d638 dda5 c238 a755 ea38 1666 3a39
00000030: 2fd1 9838 96fa 6838 3a99 a838 9711 dc39
00000040: 7a6a ec39 f110 da39 e7ad 9738 ec4b a438
00000050: 11fc b438 35bd 3139 d203 9839 3d65 0839
00000060: 6539 5e37 4bfc 8937 0f42 8f37 cc79 0f37
00000070: 8c2d 0b37 3380 1c37 01d6 7e37 9615 7137
00000080: 5cd7 7a37 8f5a c937 c047 e337 b5d2 0638
00000090: fe9b 3e37 50a6 8936 1edc f036 9627 d638
000000a0: b4c8 d838 d5d0 e638 bc41 6637 45ee 3a37
000000b0: 091a 2e37 f6b1 3337 93b1 ce37 0901 e337
000000c0: f2d2 a037 3deb ae37 a84b e237 a2c0 db37
000000d0: 36e6 0a38 c5d8 a237 454c d437 5029 0c38
000000e0: e09d e337 8010 6438 3f28 5138 50af 8b38
000000f0: 89d8 f737 c776 0938 9a65 e937 ab01 5e38
00000100: f1f6 6738 d31f 4a38 6bdc f037 7c38 1438
00000110: 40d5 f837 325c bc38 8725 c238 348f 6a38
00000120: c6dd 0e37 dd85 d736 66d4 a236 a1d2 3e37
00000130: c543 f636 f057 0b37 8d14 6537 0fe2 0337
00000140: 508e 0137 6656 af37 01ce 1637 2db4 2337
00000150: 7da7 7637 1bb7 3c37 c250 6f36 4d53 3b38
00000160: 1661 d637 db58 8b37 57d9 4037 1f80 2337
00000170: 43cb 0137 3905 2b38 2b04 8237 e6d2 c037
00000180: b6e2 d138 d3fd b938 7d57 e538 d1b9 1c39
00000190: 484f 0f39 1b1b e238 9781 2939 029c 3439
000001a0: aa99 1b39 50a1 bc39 1be8 a039 f671 b339
000001b0: 2fa8 0039 338a dd38 0245 1039 b642 163a
000001c0: ef69 153a 37d1 1c3a 16dd d638 cb61 e738
000001d0: 8185 fb38 cfb8 b239 4b0a de39 836e e539
000001e0: 1a11 2438 18bd b338 f768 5b38 5e35 4738
000001f0: c892 5738 10ee 8438 b047 a838 ad41 3b38
00000200: 4191 cc38 ebb4 b638 94ba 2f38 7943 ae39
00000210: 9824 b138 5082 8f38 76f1 4e39 1a41 6a39
00000220: 600d 3238 9d5b 2f39 8385 aa38 d5c8 b438
00000230: b031 d938 d21c 8439 f509 5238 9407 663a
00000240: 71ed a936 d964 bb36 30e6 8136 665e e336
00000250: 9430 8f36 24ad 4236 76de c536 4684 8f36
00000260: 6fb9 8736 efc9 4537 3f7e 5937 493b 3037
00000270: aaee c536 e128 8f36 386c 0536 d101 9d36
00000280: 8e10 4c36 a7fd 6f36 5807 d036 abcd e136
00000290: 169b e436 cf42 5c37 b24f cc36 04b4 1e37
000002a0: 2cba 9038 1567 df38 ece3 0339 46ef 9c38
000002b0: 994b aa38 595f ab38 e78b c638 082f b738
000002c0: fffe fe38 6fd8 8639 61e4 8439 0cc3 9b39
000002d0: 7953 b238 ea8b fe38 edc7 7a38 11eb 8439
000002e0: 790c 8e39 b227 a739 5f6a a238 7745 fd38
000002f0: dd32 0839 18c7 cc39 5e27 a439 f05a cd39
00000300: ab3f c036 67f8 fd36 14b1 f836 80ca 3c37
00000310: c58c 5237 bc65 0a37 a4b5 4c37 4a73 a637
00000320: 9ee9 cc36 c1fb 0a37 a8b8 4837 b35e 7a37
00000330: 77d7 b637 b7e3 0937 3cfc bc36 b836 1337
00000340: afde f036 e9a8 0937 ff3f ca37 36ff bb37
00000350: 9b94 8037 b964 4838 b9f1 9437 3b77 0138
00000360: a1da 2e36 e758 7136 9b0c 4836 ea70 8336
00000370: 4f66 8c36 3e0b 4136 02b9 a336 5357 a036
00000380: 1e5d 5f36 0f3c 1136 6599 8936 5bc0 ba36
00000390: 9704 7f36 5a59 8a36 5147 2436 aa49 9435
000003a0: eba3 8835 8dd5 c335 5eac d336 cb88 af36
000003b0: f914 5936 6334 0d37 ba33 0a37 b98e e136
000003c0: dc63 b436 9655 0a37 9b70 4c37 8b11 0237
000003d0: 4f58 3e37 b620 4b37 8a70 0837 2176 3837
000003e0: 77a1 6137 aec8 b637 cdb4 eb37 852a 2138
000003f0: 247b ca36 199c 9b36 7648 0037 a11e 2938
5.4949003e-05 0.00012267959 9.186751e-05 5.5627414e-05 5.2763935e-05 7.155504e-05 8.606887e-05 0.0001136389
0.000102454236 9.281535e-05 0.000111739435 0.00017776372 7.286888e-05 5.5546487e-05 8.039405e-05 0.00041974775
0.0004509276 0.00041592823 7.232633e-05 7.834271e-05 8.63002e-05 0.0001695052 0.00028994546 0.00013007685
1.3245594e-05 1.6449156e-05 1.707769e-05 8.551822e-06 8.29565e-06 9.328173e-06 1.5189406e-05 1.4369745e-05
1.49513035e-05 2.4003237e-05 2.709392e-05 3.2144326e-05 1.1361202e-05 4.1022795e-06 7.1781824e-06 0.00010211689
0.000103370665 0.000110061526 1.3724373e-05 1.114194e-05 1.037727e-05 1.0710666e-05 2.4639803e-05 2.706099e-05
1.9171715e-05 2.0851958e-05 2.697653e-05 2.6196536e-05 3.3116165e-05 1.9412846e-05 2.5307885e-05 3.3417076e-05
2.7134025e-05 5.4374803e-05 4.9866965e-05 6.660691e-05 2.9545527e-05 3.2773965e-05 2.7823076e-05 5.2930478e-05
5.5304674e-05 4.819019e-05 2.871287e-05 3.5338555e-05 2.9663206e-05 8.981711e-05 9.257631e-05 5.5923316e-05
8.515495e-06 6.423083e-06 4.8527027e-06 1.1373923e-05 7.3392607e-06 8.30552e-06 1.36542485e-05 7.860842e-06
7.722134e-06 2.0901858e-05 8.988661e-06 9.7575075e-06 1.4701739e-05 1.1248306e-05 3.5660782e-06 4.4661854e-05
2.5555997e-05 1.6611468e-05 1.1494695e-05 9.745388e-06 7.736325e-06 4.077444e-05 1.5499149e-05 2.298639e-05
0.00010008125 8.868766e-05 0.00010935867 0.00014946541 0.00013667077 0.000107815686 0.00016165372 0.00017224255
0.00014839196 0.00035978341 0.0003069051 0.00034226448 0.00012269685 0.00010563843 0.00013758618 0.00057319866
0.0005699684 0.0005982103 0.00010245496 0.00011033154 0.0001199348 0.000340885 0.00042350809 0.0004376062
3.9116574e-05 8.5706066e-05 5.2311425e-05 4.7495e-05 5.1396695e-05 6.338593e-05 8.024217e-05 4.464544e-05
9.754534e-05 8.712135e-05 4.1897016e-05 0.00033238137 8.446834e-05 6.843044e-05 0.00019735642 0.00022340231
4.2450964e-05 0.00016723429 8.1311e-05 8.620477e-05 0.00010356621 0.00025198475 5.0077175e-05 0.0008774933
5.0642343e-06 5.5847745e-06 3.871297e-06 6.7761166e-06 4.2673873e-06 2.9009034e-06 5.8969554e-06 4.2771308e-06
4.044901e-06 1.1789131e-05 1.2963602e-05 1.0504221e-05 5.8988417e-06 4.266491e-06 1.9881536e-06 4.679176e-06
3.0408005e-06 3.576142e-06 6.199738e-06 6.7294654e-06 6.812984e-06 1.3128577e-05 6.0889515e-06 9.459447e-06
6.901132e-05 0.00010652669 0.00012578041 7.483228e-05 8.120313e-05 8.171675e-05 9.4674346e-05 8.73488e-05
0.000121591605 0.00025719727 0.00025347157 0.00029709225 8.5032494e-05 0.00012137725 5.979084e-05 0.0002535214
0.00027093643 0.00031882297 7.744575e-05 0.00012076919 0.00012988919 0.00039058249 0.00031309848 0.000391684
5.729458e-06 7.5689054e-06 7.4115906e-06 1.1252821e-05 1.2549751e-05 8.249128e-06 1.2201639e-05 1.9842428e-05
6.1068704e-06 8.284057e-06 1.1963923e-05 1.492321e-05 2.1796424e-05 8.218855e-06 5.6322006e-06 8.774623e-06
7.178481e-06 8.205164e-06 2.4110077e-05 2.2410979e-05 1.5327989e-05 4.777752e-05 1.7755536e-05 3.086704e-05
2.605528e-06 3.5963546e-06 2.980966e-06 3.917249e-06 4.1842354e-06 2.8765785e-06 4.8793163e-06 4.7785375e-06
3.328379e-06 2.1641642e-06 4.1007756e-06 5.565625e-06 3.8000633e-06 4.1231224e-06 2.4479416e-06 1.1048298e-06
1.0180496e-06 1.4590784e-06 6.308356e-06 5.231331e-06 3.2347727e-06 8.416452e-06 8.2374845e-06 6.7221376e-06
5.376043e-06 8.245368e-06 1.21855655e-05 7.752688e-06 1.1345443e-05 1.2107359e-05 8.132434e-06 1.0994759e-05
1.3448639e-05 2.178954e-05 2.8098375e-05 3.842499e-05 6.0344046e-06 4.637532e-06 7.646266e-06 4.0321265e-05

exp_avg f4 [16]
00000000: 453a 5d31 4ecd 63b0 5776 b82f 62b2 8cb1
00000010: aa12 b9b0 27b1 7db1 2f2e 3ab0 da01 0fb0
00000020: a22f eeb0 0047 34ae 5b6a ae2e f518 a32f
00000030: 6d27 3e30 67ef 3430 14ed 1cb0 b029 2bb1
3.2192855e-09 -8.2873874e-10 3.355349e-10 -4.094816e-09 -1.3465826e-09 -3.6917045e-09 -6.7732037e-10 -5.202573e-10
-1.7330317e-09 -4.0990322e-11 7.9314964e-11 2.966726e-10 6.9177625e-10 6.582383e-10 -5.708938e-10 -2.4907472e-09

exp_avg_sq f4 [16]
00000000: 66f5 d024 8d9e 1024 f1a2 d724 f3d8 0d25
00000010: 39ef f924 cfdb 0126 7f35 df23 7a01 8124
00000020: 13b3 9324 3ce0 4822 510d 0724 2a90 7d23
00000030: 20e3 7424 484d bb24 7ac4 db24 3721 d723
9.062134e-17 3.135932e-17 9.351742e-17 1.2303306e-16 1.08391795e-16 4.505376e-16 2.4200365e-17 5.5947333e-17
6.405445e-17 2.7223763e-18 2.9284738e-17 1.3745685e-17 5.310145e-17 8.122924e-17 9.5308955e-17 2.3324414e-17

exp_avg f4 [16]
00000000: b3f2 a9b6 178f 5f38 91e8 643a b6b1 b5b9
00000010: 19c3 acb7 911d d43a 4b85 3d3a b2ae a5b7
00000020: daae 0b39 bad1 20b7 02a1 8d39 8d24 b0b9
00000030: 679e 20ba 2939 acb6 c001 6338 1cdf 09ba
-5.0648464e-06 5.3300606e-05 0.0008732165 -0.00034655415 -2.0594847e-05 0.0016183128 0.000722964 -1.9750882e-05
0.0001332121 -9.585574e-06 0.00027013576 -0.00033596568 -0.00061271194 -5.1326538e-06 5.4122647e-05 -0.0005259381

exp_avg_sq f4 [16]
00000000: 2567 1e32 98b4 8533 d507 953a 0bd9 b836
00000010: 8574 db32 7fe2 843a 42cd eb36 6aa7 f534
00000020: fc13 df38 2807 3a32 90f2 8c37 d6d4 9236
00000030: 579e 9136 8278 c531 47b6 bf34 e816 1436
9.220263e-09 6.226145e-08 0.0011370132 5.5088944e-06 2.5547942e-08 0.0010138302 7.027441e-06 4.5756616e-07
0.00010637191 1.0828252e-08 1.6802253e-05 4.3759164e-06 4.33977e-06 5.7471548e-09 3.5709147e-07 2.2067052e-06

exp_avg f4 [16]
00000000: f81f 2ab9 6df8 17ba e781 83b9 3851 6f3a
00000010: 4caf c8b9 d47d 983a f13b 8b3a 55d8 d738
00000020: 2d98 bf38 a0f3 8938 f396 a6b9 5ee1 26ba
00000030: 8332 caba acde c8b8 6f8c a2b9 f03e f83a
-0.00016224373 -0.0005797211 -0.00025083052 0.0009129229 -0.0003827758 0.0011634179 0.0010622722 0.00010292294
9.135935e-05 6.578048e-05 -0.00031774453 -0.000636598 -0.0015426431 -9.578219e-05 -0.0003100368 0.0018939655

exp_avg_sq f4 [16]
00000000: 8ce4 1a37 c0be f736 488a c438 1d1f 2038
00000010: 1002 1537 f053 083a 6dde 7f37 2cde 4f37
00000020: 53a7 8938 ed7b 0935 acf8 c237 567a 8337
00000030: da3b e737 ecb1 0536 2424 4437 8933 ef37
9.232328e-06 7.38338e-06 9.371765e-05 3.817595e-05 8.881572e-06 0.0005200496 1.5250972e-05 1.238989e-05
6.5638356e-05 5.121681e-07 2.3242399e-05 1.5673384e-05 2.7565216e-05 1.9922109e-06 1.1690925e-05 2.8515018e-05
