checkpoints/model_trained_on_vctk.tar (torch, 737323 bytes, 608 tensors)

exp_avg f4 [16, 9, 1, 5]
0.0006333521 0.0006585333 0.00032243913 -0.00028625698 4.4069375e-06 0.0006585333 0.00032243913 -0.00028669107
4.4069375e-06 0.00042943086 0.00032243913 -0.00015694305 4.4069375e-06 0.00042943086 0.00021740403 -2.3491515e-05
3.0533996e-05 -3.4721886e-06 8.389612e-05 -6.813283e-05 3.0533996e-05 -3.4721886e-06 8.403859e-05 -6.813283e-05
3.452604e-05 -3.4721886e-06 -9.147187e-05 -6.813283e-05 3.452604e-05 0.00021027902 -7.953097e-05 0.00012834209
0.000113114846 -7.173374e-05 0.00020769173 0.00012834207 0.000113114846 -7.168451e-05 0.00020769173 -0.00019499542
0.000113114846 -7.168451e-05 0.00020769173 -0.00019499542 -3.8554143e-05 0.0012203644 0.00041638312 0.00019511065
0.0001928194 -0.000112187685 0.00041638312 0.00019511065 0.00019185965 -0.000112187685 3.278448e-05 0.00019511065
1.4419358e-07 -0.000112187685 3.278448e-05 -0.00012937462 0.00032908836 0.00022823428 -0.00013090436 -7.459088e-05
0.0002401435 0.0002282343 -0.00013090434 -7.297509e-05 0.0002401435 -0.00028239976 -0.00013090434 -0.00024970347
0.0002401435 -0.00028239976 0.00022487235 0.00010280985 0.00029170822 2.56524e-05 -0.00045921007 0.0004367502
0.00029170827 2.56524e-05 -0.00045915422 0.0004367502 -0.00042142966 2.56524e-05 -0.00045915422 0.0004367502
-0.00042142966 -4.6778758e-05 -0.00078625313 0.0012616451 0.0018694975 0.004025675 0.003930018 0.0012616451
0.0018694975 0.00402714 0.003930018 0.0027822272 0.0018694975 0.0020667596 0.003930018 0.0027822272
0.002775993 -0.0010927407 0.0013180779 -0.00094610365 0.0007208471 -0.0014696822 0.0013180779 -0.00094610365
0.0007209693 -0.0014696822 0.0020886525 -0.00094610365 0.00073545886 -0.0014696822 0.0020886525 -0.0009674269
-0.00054258225 -0.00046196269 0.0010658324 -0.00049521175 -0.0009898465 -0.00046196283 0.0010658324 -0.0004952439
-0.0009898464 0.0007730494 0.0010658323 -0.0004952438 -0.0009898464 0.0007730494 0.00036586024 0.0013116086
-0.00016688801 1.4066794e-05 -0.00041456902 5.109521e-05 -0.00016688801 1.4066794e-05 -0.0004148506 5.109521e-05
0.0004614742 1.4066794e-05 1.253516e-05 5.109521e-05 0.0004614742 0.00022930584 0.00020607005 -0.00012586196
8.5170796e-05 -0.00027113518 0.00013832787 -0.00012586196 8.5170796e-05 -0.00027040773 0.00013832787 -0.00014934171
8.5170796e-05 -7.8355806e-05 0.00013832786 -0.00014934172 0.00014000403 -0.00018944358 0.00023707243 -0.00016031008
-5.5621018e-05 0.00011964215 0.00023707238 -0.00016031008 -5.56099e-05 0.00011964215 -4.2886895e-05 -0.00016031008
-5.56099e-05 0.00011964215 -4.2886895e-05 -3.3213164e-05 0.00015944497 0.00010563208 3.2955028e-05 -7.750368e-05
9.818844e-05 0.00010563208 3.2955028e-05 -7.777071e-05 9.818844e-05 0.00026246184 3.2955028e-05 -0.0002715802
9.818838e-05 0.00026246184 4.6231304e-05 -1.4164558e-05 7.826752e-05 3.099568e-05 -1.2667876e-05 -9.6911805e-05
7.826752e-05 3.099568e-05 -1.2601794e-05 -9.6911805e-05 0.0001889972 3.099568e-05 -0.00016273036 -9.6911805e-05
0.0001889972 -4.955453e-06 2.934923e-05 8.5376676e-05 -8.355066e-05 3.4863962e-05 0.00010990066 8.5376676e-05
-8.355066e-05 3.4846027e-05 0.00010990066 -0.00012420809 -8.355066e-05 3.4846027e-05 0.00010990066 -0.00012420809
7.706489e-06 -0.0045688185 -0.0061977645 -3.5440502e-05 -0.0012855413 -0.00054467487 -0.0061977645 -3.5440502e-05
-0.0012857126 -0.00054467487 2.405945e-05 -3.5440502e-05 -0.0005388192 -0.00054467487 2.405945e-05 0.0002388307
0.00069707073 -0.0011166766 0.00038847487 -0.00080586964 0.00042718474 -0.0011166766 0.00038847487 -0.00080567255
0.00042718474 -0.00028952415 0.00038847487 -0.0006774914 0.00042718474 -0.00028952415 9.468747e-05 -0.0027997952
00000000: 8a07 263a 6ca1 2c3a 0c0d a939 c314 96b9
00000010: 4edf 9336 6ca1 2c3a 0c0d a939 064f 96b9
00000020: 4edf 9336 3c25 e139 0c0d a939 1491 24b9
00000030: 4edf 9336 3c25 e139 f3f6 6339 a50f c5b7
00000040: a111 0038 bf03 69b6 63f1 af38 89e2 8eb8
00000050: a111 0038 bf03 69b6 e03d b038 89e2 8eb8
00000060: 0ed0 1038 bf03 69b6 96d4 bfb8 89e2 8eb8
00000070: 0ed0 1038 587e 5c39 ddc9 a6b8 9193 0639
00000080: 1238 ed38 c26f 96b8 d3c7 5939 9093 0639
00000090: 1238 ed38 5455 96b8 d3c7 5939 af77 4cb9
000000a0: 1238 ed38 5455 96b8 d3c7 5939 af77 4cb9
000000b0: 32b5 21b8 a2f4 9f3a ff4d da39 9e96 4c39
000000c0: 902f 4a39 4e46 ebb8 ff4d da39 9e96 4c39
000000d0: ef2d 4939 4e46 ebb8 1182 0938 9e96 4c39
000000e0: a1d3 1a34 4e46 ebb8 1182 0938 bca8 07b9
000000f0: 7e89 ac39 2c52 6f39 5f43 09b9 ac6d 9cb8
00000100: 08cf 7b39 2e52 6f39 5e43 09b9 340a 99b8
00000110: 08cf 7b39 0e0f 94b9 5e43 09b9 a2ea 82b9
00000120: 08cf 7b39 0e0f 94b9 b6cb 6b39 9e9b d738
00000130: 6af0 9839 1c30 d737 22c2 f0b9 9ffb e439
00000140: 6cf0 9839 1c30 d737 a3ba f0b9 9ffb e439
00000150: 55f3 dcb9 1c30 d737 a3ba f0b9 9ffb e439
00000160: 55f3 dcb9 4f34 44b8 8e1c 4eba c95d a53a
00000170: ed09 f53a cfe9 833b 61c7 803b c95d a53a
00000180: ed09 f53a 19f6 833b 61c7 803b 0756 363b
00000190: ed09 f53a 7972 073b 61c7 803b 0756 363b
000001a0: 6fed 353b 4b3a 8fba 5bc3 ac3a f103 78ba
000001b0: 3bf7 3c3a 5aa2 c0ba 5bc3 ac3a f103 78ba
000001c0: 6eff 3c3a 5aa2 c0ba c6e1 083b f103 78ba
000001d0: cfcb 403a 5aa2 c0ba c6e1 083b ec9a 7dba
000001e0: 143c 0eba 9533 f2b9 67b3 8b3a 19d1 01ba
000001f0: bdbd 81ba 9a33 f2b9 67b3 8b3a 41d3 01ba
00000200: bcbd 81ba 78a6 4a3a 66b3 8b3a 40d3 01ba
00000210: bcbd 81ba 78a6 4a3a eed0 bf39 48ea ab3a
00000220: a9fe 2eb9 6c00 6c37 835a d9b9 104f 5638
00000230: a9fe 2eb9 6c00 6c37 4e80 d9b9 104f 5638
00000240: 05f2 f139 6c00 6c37 1a4e 5237 104f 5638
00000250: 05f2 f139 d171 7039 8214 5839 d0f9 03b9
00000260: b99d b238 2627 8eb9 1b0c 1139 d0f9 03b9
00000270: b99d b238 83c5 8db9 1b0c 1139 9c98 1cb9
00000280: b99d b238 f452 a4b8 1a0c 1139 9d98 1cb9
00000290: 0cce 1239 60a5 46b9 a596 7839 e918 28b9
000002a0: 9d4a 69b8 64e8 fa38 a296 7839 e918 28b9
000002b0: ad3e 69b8 64e8 fa38 74e1 33b8 e918 28b9
000002c0: ad3e 69b8 64e8 fa38 74e1 33b8 5d4e 0bb8
000002d0: af30 2739 cb86 dd38 3139 0a38 7989 a2b8
000002e0: 84ea cd38 cb86 dd38 3139 0a38 d518 a3b8
000002f0: 84ea cd38 089b 8939 3139 0a38 e162 8eb9
00000300: 7cea cd38 089b 8939 7ce8 4138 50a4 6db7
00000310: 8e23 a438 5c01 0238 1d88 54b7 213d cbb8
00000320: 8e23 a438 5c01 0238 4b6c 53b7 213d cbb8
00000330: 8d2d 4639 5c01 0238 99a2 2ab9 213d cbb8
00000340: 8d2d 4639 0447 a6b6 fe32 f637 410c b338
00000350: eb37 afb8 e53a 1238 787a e638 410c b338
00000360: eb37 afb8 a327 1238 787a e638 db3d 02b9
00000370: eb37 afb8 a327 1238 787a e638 db3d 02b9
00000380: 1e4b 0137 07b6 95bb 9e16 cbbb f3a5 14b8
00000390: 9c7f a8ba 83c8 0eba 9e16 cbbb f3a5 14b8
000003a0: 5b85 a8ba 83c8 0eba 47d3 c937 f3a5 14b8
000003b0: 8b3f 0dba 83c8 0eba 47d3 c937 a16e 7a39
000003c0: a0bb 363a 735d 92ba 37ac cb39 ff40 53ba
000003d0: c4f7 df39 735d 92ba 37ac cb39 c533 53ba
000003e0: c4f7 df39 46cb 97b9 37ac cb39 ae99 31ba
000003f0: c4f7 df39 46cb 97b9 f392 c638 c57c 37bb

exp_avg_sq f4 [16, 9, 1, 5]
1.2715822e-05 1.3718517e-05 2.2865572e-06 2.1875126e-06 1.489112e-06 1.3718517e-05 2.2865572e-06 2.187935e-06
1.489112e-06 5.0352464e-06 2.2865572e-06 2.9699172e-06 1.489112e-06 5.0352464e-06 4.7897333e-06 7.067914e-07
2.6627617e-06 1.0684347e-06 1.95122e-06 8.507036e-07 2.6627617e-06 1.0684347e-06 1.951301e-06 8.507036e-07
5.777953e-07 1.0684347e-06 5.992978e-07 8.507036e-07 5.777953e-07 4.618119e-07 6.350708e-07 6.0620744e-07
9.5125154e-07 6.7435474e-07 7.1712634e-07 6.0620755e-07 9.5125154e-07 6.743497e-07 7.1712634e-07 5.70136e-07
9.5125154e-07 6.743497e-07 7.1712634e-07 5.70136e-07 4.904471e-07 3.0274212e-05 8.609711e-06 3.58245e-06
1.6084634e-06 1.0431238e-06 8.609711e-06 3.58245e-06 1.6082922e-06 1.0431238e-06 1.1346898e-06 3.58245e-06
1.1048134e-06 1.0431238e-06 1.1346898e-06 2.1570027e-06 3.252864e-06 2.208408e-06 9.936424e-07 1.3981372e-06
8.016509e-07 2.208408e-06 9.936423e-07 1.3979916e-06 8.016509e-07 9.2202583e-07 9.936423e-07 8.081706e-07
8.016509e-07 9.2202583e-07 7.3554963e-07 2.5451116e-06 1.340344e-06 9.285072e-07 8.368012e-07 7.5304155e-07
1.340344e-06 9.285072e-07 8.367849e-07 7.5304155e-07 9.011143e-07 9.285072e-07 8.367849e-07 7.5304155e-07
9.011143e-07 6.361097e-07 0.00012380662 0.00011293185 0.000100753845 8.703032e-05 8.576364e-05 0.00011293185
0.000100753845 8.703176e-05 8.576364e-05 5.7921432e-05 0.000100753845 7.581261e-05 8.576364e-05 5.7921432e-05
7.589886e-05 2.3515946e-05 3.20657e-05 2.0938585e-05 9.010903e-06 1.7059665e-05 3.20657e-05 2.0938585e-05
9.011495e-06 1.7059665e-05 2.8276829e-05 2.0938585e-05 7.493109e-06 1.7059665e-05 2.8276829e-05 1.7270648e-05
2.4476189e-05 2.4561497e-05 1.7967614e-05 7.722667e-06 1.6316906e-05 2.4561497e-05 1.7967614e-05 7.722669e-06
1.6316906e-05 2.7127817e-05 1.7967612e-05 7.722668e-06 1.6316906e-05 2.7127817e-05 1.5054269e-05 8.67729e-06
1.1432476e-06 4.423114e-07 9.955123e-07 3.5357417e-07 1.1432476e-06 4.423114e-07 9.954647e-07 3.5357417e-07
1.0108736e-06 4.423114e-07 1.0559048e-06 3.5357417e-07 1.0108736e-06 1.295603e-06 7.732626e-07 8.767453e-07
3.9590768e-07 1.0014678e-06 3.4437664e-07 8.767453e-07 3.9590768e-07 1.0014554e-06 3.4437664e-07 2.7052576e-07
3.9590768e-07 2.963277e-07 3.4437664e-07 2.7052576e-07 1.8051745e-07 7.021703e-07 3.1970708e-07 3.274321e-07
2.9960006e-07 2.5149845e-07 3.1970706e-07 3.274321e-07 2.9960418e-07 2.5149845e-07 2.5324326e-07 3.274321e-07
2.9960418e-07 2.5149845e-07 2.5324326e-07 1.702063e-07 5.437772e-06 3.2030905e-06 3.3918823e-07 2.841024e-06
5.082461e-06 3.2030905e-06 3.3918823e-07 2.8413265e-06 5.082461e-06 3.748e-06 3.3918823e-07 1.3236925e-06
5.082461e-06 3.748e-06 2.661967e-06 3.920761e-07 1.4321615e-06 6.545418e-07 1.513874e-06 6.3950597e-07
1.4321615e-06 6.545418e-07 1.513867e-06 6.3950597e-07 3.4066184e-07 6.545418e-07 3.6914153e-07 6.3950597e-07
3.4066184e-07 2.3293428e-07 3.403747e-07 3.6896304e-07 5.4457905e-07 3.66137e-07 4.99779e-07 3.6896301e-07
5.4457905e-07 3.6614082e-07 4.99779e-07 3.4428808e-07 5.4457905e-07 3.6614082e-07 4.99779e-07 3.4428808e-07
2.3664447e-07 7.157548e-05 8.801951e-05 7.781097e-06 8.19234e-06 3.7780565e-06 8.801951e-05 7.781097e-06
8.192834e-06 3.7780565e-06 1.3923244e-06 7.781097e-06 2.4738242e-06 3.7780565e-06 1.3923244e-06 2.3680698e-06
9.385451e-06 1.3100618e-05 2.6176886e-06 4.007178e-06 1.8968956e-06 1.3100618e-05 2.6176886e-06 4.0069885e-06
1.8968956e-06 1.5185477e-06 2.6176886e-06 1.5748011e-06 1.8968956e-06 1.5185477e-06 1.2141811e-06 2.270975e-05
00000000: 0a56 5537 9528 6637 c172 1936 2ecd 1236
00000010: 80dd c735 9528 6637 c172 1936 70d4 1236
00000020: 80dd c735 70f4 a836 c172 1936 ca4e 4736
00000030: 80dd c735 70f4 a836 7fb7 a036 56ba 3d35
00000040: e6b1 3236 2367 8f35 b4f1 0236 e85b 6435
00000050: e6b1 3236 2367 8f35 19f3 0236 e85b 6435
00000060: ca19 1b35 2367 8f35 6edf 2035 e85b 6435
00000070: ca19 1b35 f2ee f734 bc79 2a35 42ba 2235
00000080: 8259 7f35 4e05 3535 8c80 4035 44ba 2235
00000090: 8259 7f35 f504 3535 8c80 4035 730b 1935
000000a0: 8259 7f35 f504 3535 8c80 4035 730b 1935
000000b0: 45a7 0335 60f5 fd37 6d72 1037 066a 7036
000000c0: 62e2 d735 7601 8c35 6d72 1037 066a 7036
000000d0: 80dc d735 7601 8c35 a54b 9835 066a 7036
000000e0: 1949 9435 7601 8c35 a54b 9835 06c1 1036
000000f0: c74b 5a36 2934 1436 4b5d 8535 a1a7 bb35
00000100: 0831 5735 2934 1436 4a5d 8535 a0a2 bb35
00000110: 0831 5735 2281 7735 4a5d 8535 10f1 5835
00000120: 0831 5735 2281 7735 9672 4535 afcc 2a36
00000130: dfe5 b335 873e 7935 8aa0 6035 9f24 4a35
00000140: dfe5 b335 873e 7935 6c9f 6035 9f24 4a35
00000150: 1ae4 7135 873e 7935 6c9f 6035 9f24 4a35
00000160: 1ae4 7135 20c1 2a35 16d2 0139 d3d5 ec38
00000170: cf4b d338 0c84 b638 01dc b338 d3d5 ec38
00000180: cf4b d338 d284 b638 01dc b338 aaf0 7238
00000190: cf4b d338 96fd 9e38 01dc b338 aaf0 7238
000001a0: e42b 9f38 1c44 c537 497e 0638 45a5 af37
000001b0: 892d 1737 5a1b 8f37 497e 0638 45a5 af37
000001c0: 1430 1737 5a1b 8f37 0734 ed37 45a5 af37
000001d0: 516d fb36 5a1b 8f37 0734 ed37 6fe0 9037
000001e0: 3752 cd37 6a09 ce37 28b9 9637 9a90 0137
000001f0: 4ae0 8837 6a09 ce37 28b9 9637 9c90 0137
00000200: 4ae0 8837 8b90 e337 27b9 9637 9b90 0137
00000210: 4ae0 8837 8b90 e337 9891 7c37 ad94 1137
00000220: b071 9935 d176 ed34 8b9d 8535 ddd2 bd34
00000230: b071 9935 d176 ed34 e89b 8535 ddd2 bd34
00000240: 5aad 8735 d176 ed34 9db8 8d35 ddd2 bd34
00000250: 5aad 8735 95e4 ad35 3492 4f35 7a59 6b35
00000260: 238d d434 2c6a 8635 c4e2 b834 7a59 6b35
00000270: 238d d434 bf69 8635 c4e2 b834 c73c 9134
00000280: 238d d434 f816 9f34 c4e2 b834 c73c 9134
00000290: 42d4 4134 c77c 3c35 35a4 ab34 edc9 af34
000002a0: b8d8 a034 af05 8734 34a4 ab34 edc9 af34
000002b0: 49d9 a034 af05 8734 7df5 8734 edc9 af34
000002c0: 49d9 a034 af05 8734 7df5 8734 f4c1 3634
000002d0: 1b76 b636 adf4 5636 ad19 b634 6ca8 3e36
000002e0: 028a aa36 adf4 5636 ad19 b634 9ead 3e36
000002f0: 028a aa36 2686 7b36 ad19 b634 baa9 b135
00000300: 028a aa36 2686 7b36 3fa4 3236 877e d234
00000310: b238 c035 c5b3 2f35 5130 cb35 84aa 2b35
00000320: b238 c035 c5b3 2f35 1330 cb35 84aa 2b35
00000330: 35e4 b634 c5b3 2f35 6d2e c634 84aa 2b35
00000340: 35e4 b634 7d1c 7a34 bebc b634 e515 c634
00000350: 302f 1235 7c91 c434 8d28 0635 e415 c634
00000360: 302f 1235 0392 c434 8d28 0635 98d6 b834
00000370: 302f 1235 0392 c434 8d28 0635 98d6 b834
00000380: 5618 7e34 cb1a 9638 1d97 b838 8f8b 0237
00000390: d571 0937 848a 7d36 1d97 b838 8f8b 0237
000003a0: f473 0937 848a 7d36 e7df ba35 8f8b 0237
000003b0: fa03 2636 848a 7d36 e7df ba35 21eb 1e36
000003c0: 3576 1d37 baca 5b37 8cab 2f36 6675 8636
000003d0: d698 fe35 baca 5b37 8cab 2f36 c573 8636
000003e0: d698 fe35 e7d0 cb35 8cab 2f36 c15d d335
000003f0: d698 fe35 e7d0 cb35 f2f6 a235 d180 be37

exp_avg f4 [16]
5.1222604e-10 2.9423293e-09 4.774261e-10 -8.8189367e-10 -4.605219e-10 -1.1341926e-09 -1.5644476e-10 2.7403158e-10
7.909551e-10 1.3177114e-10 -3.152472e-11 3.414957e-11 4.0405557e-10 6.843087e-11 1.8682356e-10 3.275701e-10
00000000: b4cc 0c30 0132 4a31 e03b 0330 c069 72b0
00000010: b22c fdaf dbe1 9bb0 4903 2caf 84a6 962f
00000020: 846a 5930 47e2 102f aea5 0aae ff30 162e
00000030: c421 de2f 287b 962e 286a 4d2f 6515 b42f

exp_avg_sq f4 [16]
1.4517106e-17 9.206005e-17 5.2549987e-17 1.5102023e-17 2.6428797e-18 7.603026e-18 1.4530528e-18 1.882943e-18
5.3816507e-18 1.2135466e-19 2.795869e-18 3.5275952e-19 1.3923769e-17 1.6388798e-18 3.474675e-18 2.3438068e-18
00000000: 8ce5 8523 a946 d424 1358 7224 a54a 8b23
00000010: 9602 4322 4640 0c23 c86e d621 caef 0a22
00000020: 418c c622 3245 0f20 794c 4e22 833b d020
00000030: 926c 8023 21db f121 6131 8022 42f1 2c22

exp_avg f4 [16]
-0.011245346 -0.0058593145 0.041022293 -0.013241311 -0.0011915398 -0.0030039814 0.02313176 0.0096493205
-0.09440048 0.070785396 0.0038000557 0.0007978561 0.007258737 0.002777409 0.006684732 0.022699952
00000000: 663e 38bc 7eff bfbb fe06 283d 15f2 58bc
00000010: 712d 9cba 72de 44bb d17e bd3c 2f18 1e3c
00000020: 0a55 c1bd eff7 903d 5b0a 793b 3727 513a
00000030: b3da ed3b 3105 363b 990b db3b 40f5 b93c

exp_avg_sq f4 [16]
0.0060994844 0.0067153163 0.015110208 0.014844716 0.0030030268 0.0017280955 0.018704029 0.024543049
0.02813141 0.06296668 0.0022828963 0.0007050611 0.0019715126 0.0005569589 0.0052677603 0.008132154
00000000: 2fde c73b 280c dc3b ce90 773c 4037 733c
00000010: 6ece 443b 4381 e23a 3139 993c 810e c93c
00000020: d873 e63c adf4 803d a59c 153b d9d3 383a
00000030: 7e34 013b e100 123a 2d9d ac3b ba3c 053c

exp_avg f4 [16]
-0.013967423 0.0068016537 -0.28613254 -0.030637462 0.0051996014 -0.009970081 0.017350111 -0.100070685
-0.013654003 0.049889967 -0.014654461 -0.0013344181 0.005545364 0.00045667816 -0.0036387811 0.03986653
00000000: 9ed7 64bc 68e0 de3b f77f 92be 6afb fabc
00000010: 6b61 aa3b 8d59 23bc d221 8e3c dcf1 ccbd
00000020: 0ab5 5fbc 6c59 4c3d 4419 70bc a4e7 aeba
00000030: e3b5 b53b 4e6e ef39 9e78 6ebb 164b 233d

exp_avg_sq f4 [16]
0.022344226 0.03431388 0.16424999 0.054846443 0.008036862 0.0023681726 0.0053330716 0.051736955
0.0051771486 0.026773952 0.0051506297 5.4096025e-05 0.008763648 4.2410717e-05 0.02806602 0.038227674
00000000: 3d0b b73c b68c 0c3d 2631 283e aaa6 603d
00000010: 0bad 033c 5833 1b3b 0cc1 ae3b 21ea 533d
00000020: 12a5 a93b 0c55 db3c 9dc6 a83b 2ae5 6238
00000030: 6795 0f3c 29e2 3138 b6ea e53c 9f94 1c3d

exp_avg f4 [16, 8, 1, 5]
0.0029557552 0.0029099502 0.0014798346 0.0012344881 0.001290531 0.008759628 0.007919145 0.0074489145
0.0072161546 0.008393031 -0.0018528644 0.0020791537 -0.0006077462 0.0022146483 -0.0019404899 0.0043434715
0.0039127017 0.003871613 0.00345534 0.0040386054 0.0010519987 0.0015921432 0.0008005125 0.00015679184
2.1327454e-05 0.0016733808 0.0014588014 -9.918267e-05 0.00019718503 0.00043030467 -0.0026664215 -0.0030266931
-0.0024404353 0.00035803934 0.0003298525 -0.0037831832 -0.0032327953 0.0015605567 0.0013885953 0.0009618328
-0.00048735537 -0.000541665 -0.00027418308 -0.00079414906 -0.000417361 -0.0028264446 -0.0015912896 -0.0016851022
-0.0014198221 -0.0013891705 0.00039936035 -0.0010854923 0.0011998506 -0.0006659325 0.000114442766 -0.0014999018
-0.0010518411 -0.00095639704 -0.0008208992 -0.0007542976 0.00016099348 -0.00035874886 0.00031882973 -0.0003239234
3.66142e-05 0.00044192522 -0.00020702527 8.5816115e-05 -0.0002957365 0.00015919641 0.00021887096 0.0009975386
-0.0006817284 0.0009943 0.00028499836 0.00013041333 -0.0005082552 7.7946795e-05 0.0005313572 -0.00086611125
-0.0035654746 -0.0025685262 -0.0012017253 -0.0008671131 -0.0011714322 -0.0074860184 -0.0067351568 -0.005174775
-0.0041782595 -0.0044650105 0.00089843816 0.001682785 0.00012708997 -0.0008099906 -0.0001275375 -0.004162844
-0.0037622992 -0.002745812 -0.0020186817 -0.002232179 -0.0019391401 -0.0019761291 -0.00084904715 5.2949636e-05
-0.00030903547 -0.0019910159 -0.0013606758 -0.00013694992 -0.00034764988 -0.00047420777 0.0045771045 0.0059449286
0.003125981 -0.0008664467 0.00048445858 0.0060852966 0.003851515 -0.0004737749 -8.891135e-05 0.00024107043
0.00070698647 0.0009639202 -0.00024362511 -6.848858e-05 -0.0002001993 0.0005214462 -3.0970874e-05 -0.00042219713
-0.000326146 -9.453233e-05 -0.002396444 0.001091673 -0.00077997847 0.00010161283 -0.0008675402 0.00023654575
0.00022370758 -0.00017951774 -0.0001657029 -0.00012187544 0.00019406411 0.0011139024 -0.0002131071 0.00011616072
-0.00026055533 0.0007784316 0.0007143048 -0.00049952813 6.605119e-05 -7.150311e-05 5.8559628e-05 -0.003229725
-0.00017421518 -0.00028122085 0.00078440114 -0.0032983937 -0.0020739702 -7.6622455e-05 0.00062548544 -0.0005247363
-7.052089e-05 -0.00030951892 -0.0012333558 -0.001025613 -0.0011799438 -0.002510205 -0.0020265684 -0.0027333985
-0.0017094532 -0.0009644155 0.0005334688 -0.00011281049 0.000659757 0.0031696686 -0.00031844203 -0.001381121
-0.0011098095 -0.0015160614 -0.0012618335 -0.0005678966 0.0001427545 -1.8152956e-05 -0.00014678051 -0.0009026143
-0.00049302145 0.0002735331 7.965771e-05 -0.00054327096 -0.00072413846 -0.00084964273 -0.00027818177 -6.811529e-05
-0.00039498176 0.0028045871 0.0007758479 -0.0006594595 -0.00046852778 0.001964748 0.0007168565 0.0032393076
-0.0034995999 -0.0029908482 -0.0031933293 -0.0022146236 -0.0020053019 -0.011244738 -0.011181381 -0.010317441
-0.007288278 -0.0072876713 0.00028269403 0.0007977802 -0.0006844001 -0.0020214277 -0.00024983095 -0.0059408788
-0.005495715 -0.00541999 -0.0037431319 -0.0037676527 -0.001765538 -0.0011180902 -0.001534423 -0.0005686885
-0.00053509336 -0.0009888841 -0.0010780091 -0.0010692345 -0.00041726892 -0.00043686328 0.0041021686 0.0020359515
0.0034074422 0.0013515609 0.0009522304 0.0019248225 0.0025977565 0.00041247098 -0.00021437553 -0.0015344298
-0.0004123941 -0.0005466995 0.00017633189 -0.00023705195 0.0006115067 0.0014464769 0.0024244885 0.0024825558
0.0024319133 0.0032973315 0.0031763108 0.0010676819 0.0028612828 0.0008422487 0.0002659092 0.0006578412
00000000: 58b5 413b ddb4 3e3b 02f7 c13a 8cce a13a
00000010: 0927 a93a 8b84 0f3c 4dbf 013c 0616 f43b
00000020: 7e75 ec3b ec82 093c d0db f2ba 6942 083b
00000030: 2851 1fba a223 113b 0958 feba ae53 8e3b
00000040: 1f36 803b e3ba 7d3b fc72 623b 4756 843b
00000050: 38e3 893a 76af d03a 7cd9 513a 7d68 2439
00000060: 5ce8 b237 5855 db3a 4135 bf3a 4a00 d0b8
00000070: 74c3 4e39 849a e139 21bf 2ebb 7c5b 46bb
00000080: b6ef 1fbb 3ab7 bb39 0ef0 ac39 48ef 77bb
00000090: 4edd 53bb 988b cc3a 8701 b63a 8223 7c3a
000000a0: bb83 ffb9 86fe 0dba 3bc0 8fb9 712e 50ba
000000b0: 3fd1 dab9 df3b 39bb d292 d0ba a6de dcba
000000c0: 5319 baba d414 b6ba 3d61 d139 1447 8eba
000000d0: 4e44 9d3a f991 2eba fe00 f038 5a98 c4ba
000000e0: eedd 89ba b8b6 7aba 9d31 57ba 0ebc 45ba
000000f0: 5cd0 2839 7516 bcb9 9a28 a739 43d4 a9b9
00000100: 3392 1938 33b2 e739 ec14 59b9 2df8 b338
00000110: 150d 9bb9 f6ed 2639 ba80 6539 d7bf 823a
00000120: 05b6 32ba 2c53 823a d56b 9539 90bf 0839
00000130: 6e3c 05ba 5e77 a338 c74a 0b3a be0b 63ba
00000140: bdaa 69bb b854 28bb 3683 9dba fa4e 63ba
00000150: be8a 99ba 464d f5bb 97b2 dcbb 2991 a9bb
00000160: c8e9 88bb 394f 92bb 2a85 6b3a e590 dc3a
00000170: 7443 0539 8d55 54ba 96bb 05b9 7768 88bb
00000180: e890 76bb 15f3 33bb dc4b 04bb c049 12bb
00000190: bf2a feba f281 01bb 9792 5eba 3d16 5e38
000001a0: 0a06 a2b9 b47b 02bb b458 b2ba 379a 0fb9
000001b0: c744 b6b9 179f f8b9 89fb 953b adcd c23b
000001c0: 42dd 4c3b 4122 63ba eefe fd39 2b67 c73b
000001d0: b369 7c3b fe64 f8b9 eb75 bab8 dac7 7c39
000001e0: 0f55 393a 97af 7c3a 9e75 7fb9 87a1 8fb8
000001f0: 97ec 51b9 aab1 083a b9e6 01b8 575a ddb9
00000200: 93fe aab9 a93f c6b8 a90d 1dbb 7816 8f3a
00000210: 7877 4cba f918 d538 a36b 63ba 4409 7839
00000220: 0c93 6a39 ed3c 3cb9 89c0 2db9 6197 ffb8
00000230: b07d 4b39 5d00 923a 8075 5fb9 509b f338
00000240: 259b 88b9 a90f 4c3a 2f40 3b3a c4f2 02ba
00000250: f684 8a38 f1f3 95b8 ec9d 7538 cba9 53bb
00000260: 88ad 36b9 d370 93b9 45a0 4d3a dd29 58bb
00000270: 72eb 07bb 5eb0 a0b8 9ef7 233a 758e 09ba
00000280: 9de4 93b8 ed46 a2b9 8ea8 a1ba dd6d 86ba
00000290: 58a8 9aba 4082 24bb 2dd0 04bb d122 33bb
000002a0: bb0f e0ba d4d0 7cba 7cd8 0b3a ac94 ecb8
000002b0: 8bf3 2c3a 37ba 4f3b 91f4 a6b9 bb06 b5ba
000002c0: 0777 91ba 94b6 c6ba 1b64 a5ba e5de 14ba
000002d0: 5fb0 1539 2d47 98b7 18e9 19b9 6c9d 6cba
000002e0: 1c3e 01ba fe68 8f39 e80d a738 4c6a 0eba
000002f0: 1cd4 3dba 8fba 5eba edd8 91b9 1ed9 8eb8
00000300: 8e15 cfb9 2acd 373b 4562 4b3a 94df 2cba
00000310: bca4 f5b9 00c3 003b 6deb 3b3a 904a 543b
00000320: 8b59 65bb 1b02 44bb 2d47 51bb 3823 11bb
00000330: 626b 03bb d93b 38bc 1c32 37bc 7c0a 29bc
00000340: 82d2 eebb 6bcd eebb 8d36 9439 1f22 513a
00000350: 5069 33ba ee79 04bb befb 82b9 b4ab c2bb
00000360: 6615 b4bb 2c9a b1bb 554f 75bb b9ea 76bb
00000370: a069 e7ba e28c 92ba b11e c9ba 0a14 15ba
00000380: 8245 0cba 729d 81ba fc4b 8dba 8e25 8cba
00000390: e3c4 dab9 cc0a e5b9 7c6b 863b 996d 053b
000003a0: 654f 5f3b dc26 b13a 1a9f 793a 534a fc3a
000003b0: 1f3f 2a3b eb40 d839 fec9 60b9 ec1e c9ba
000003c0: 9936 d8b9 6250 0fba bbe5 3839 2691 78b9
000003d0: 854d 203a b697 bd3a 2be4 1e3b 60b2 223b
000003e0: bc60 1f3b 0b18 583b a729 503b 76f1 8b3a
000003f0: 5c84 3b3b 5aca 5c3a bb69 8b39 fa72 2c3a

exp_avg_sq f4 [16, 8, 1, 5]
2.4093999e-05 2.5911024e-05 2.537609e-05 1.3956699e-05 1.5164326e-05 0.00020762248 0.00022284458 0.00018686483
0.00018553203 0.00020944305 5.208651e-05 6.2252824e-05 4.829744e-05 3.0141862e-05 0.00011861961 5.7295194e-05
5.467586e-05 5.5951365e-05 4.9705395e-05 5.3589672e-05 1.3451539e-05 5.899557e-06 2.3808932e-05 4.882771e-06
4.2897727e-06 1.713308e-05 1.7726257e-05 1.06704565e-05 5.451536e-06 1.254362e-05 9.050081e-05 3.2462165e-05
0.00017909936 4.065793e-05 1.9568693e-05 6.2321815e-05 0.00029611975 7.38694e-05 4.5170254e-05 7.824904e-05
1.16645915e-05 5.321873e-06 5.5968035e-06 4.3405944e-06 4.0563814e-06 3.9197854e-05 2.8350009e-05 2.5309768e-05
3.0748823e-05 3.1530682e-05 1.3656485e-05 2.793429e-05 7.5351386e-06 9.694297e-06 9.405856e-06 1.1954256e-05
9.010193e-06 6.7114984e-06 8.423461e-06 8.445988e-06 7.3648066e-06 4.6258488e-06 2.1885598e-06 2.370455e-06
1.6251576e-06 7.058982e-06 2.5568208e-06 3.55966e-06 1.8459812e-06 1.769045e-06 5.3088075e-05 4.4209883e-05
1.1066569e-05 1.8871198e-05 1.0104964e-05 8.048777e-05 2.029063e-05 4.009545e-05 1.7183524e-05 1.3339853e-05
9.619666e-06 9.004917e-06 4.7105223e-06 3.4157179e-06 4.4839867e-06 5.7925365e-05 5.514459e-05 4.5538614e-05
4.440582e-05 4.3198903e-05 2.4284784e-05 1.34038255e-05 8.869908e-06 1.5727059e-05 1.1542905e-05 1.636997e-05
1.6327822e-05 1.2584193e-05 1.1687052e-05 1.2043021e-05 4.529757e-06 6.085693e-06 1.5682573e-06 1.3772546e-06
1.3768932e-06 4.7102567e-06 3.8316657e-06 5.67823e-07 6.069495e-07 1.821268e-06 3.9854698e-05 5.03872e-05
1.5898526e-05 1.591475e-05 6.014966e-06 4.8367012e-05 3.2941083e-05 1.411662e-05 6.3175344e-06 1.8138164e-05
2.8907796e-06 2.6680066e-06 5.964709e-07 1.4186976e-06 2.1536632e-06 4.276384e-06 2.8971165e-06 1.1229407e-06
3.7689374e-06 3.7396173e-06 1.8267025e-05 1.1910842e-05 1.428286e-05 1.5795486e-05 1.3632013e-05 1.1941439e-06
1.1108017e-06 3.6027873e-07 6.940613e-07 1.0074633e-06 1.7022851e-06 2.7693266e-06 8.9710676e-07 6.1591135e-07
2.1472024e-06 2.7061908e-06 1.978426e-06 4.478877e-07 2.23006e-06 1.9071364e-06 1.360882e-05 2.5809995e-05
1.20223895e-05 6.9722746e-06 1.8989576e-05 3.1343887e-05 2.6804888e-05 6.158191e-06 3.3520642e-05 2.3046205e-05
2.5067895e-06 3.9435663e-06 5.0816984e-06 9.123284e-06 1.4050978e-05 2.0791162e-05 2.4432973e-05 2.3723052e-05
3.7249676e-05 3.7557576e-05 1.2819105e-05 2.1362193e-05 5.893681e-05 8.4663225e-05 6.916908e-05 5.153572e-06
6.0368893e-06 7.149328e-06 9.178748e-06 1.0615751e-05 8.493399e-07 2.5087625e-06 3.8646363e-06 4.4127783e-06
1.2367967e-05 2.1485364e-06 4.197842e-06 4.7696963e-06 1.0201153e-05 1.2078387e-05 8.506369e-06 2.1289341e-05
3.4703906e-05 3.955936e-05 8.5215084e-05 1.4813041e-05 5.026931e-05 3.161306e-05 0.00013197529 0.0001037217
1.4376077e-05 1.28690335e-05 1.14538825e-05 9.326656e-06 9.080064e-06 0.00027283025 0.00027433046 0.0002725263
0.00025850203 0.00025926554 1.9327746e-05 1.41111295e-05 1.2366907e-05 1.1471544e-05 1.0997897e-05 7.1682465e-05
7.040708e-05 7.207921e-05 6.76916e-05 6.904406e-05 4.544539e-06 3.884251e-06 3.13205e-06 1.8453214e-06
1.2099341e-06 5.1397606e-06 4.012491e-06 1.950853e-06 1.1793455e-06 1.2189347e-06 2.9691264e-05 2.7031107e-05
2.1928092e-05 1.5564821e-05 8.953514e-06 4.5678047e-05 4.2460746e-05 2.5506397e-05 1.9460373e-05 1.2380871e-05
7.384413e-06 9.089977e-06 6.741068e-06 1.1238152e-05 6.359979e-06 9.526609e-05 9.8294666e-05 0.000116430645
0.000108421205 0.000105421095 3.341746e-05 1.4090239e-05 5.4960292e-05 1.0482999e-05 2.6539468e-05 2.4164578e-05
00000000: 781d ca37 805b d937 bdde d437 9127 6a37
00000010: 496a 7e37 3cb5 5939 63ab 6939 25f1 4339
00000020: 608b 4239 f19d 5b39 7777 5a38 bb8d 8238
00000030: fb92 4a38 28d9 fc37 6bc3 f838 3f50 7038
00000040: c253 6538 52ad 6a38 c37a 5038 79c5 6038
00000050: ecad 6137 cff4 c536 4bb9 c737 afd6 a336
00000060: def0 8f36 02b9 8f37 d9b2 9437 4305 3337
00000070: 56ec b636 7072 5237 41cb bd38 fc27 0838
00000080: 9ecc 3b39 1f88 2a38 7327 a437 c5b2 8238
00000090: 8540 9b39 55ea 9a38 3175 3d38 a219 a438
000000a0: 0ab3 4337 8a92 b236 2dcc bb36 6ca5 9136
000000b0: 0d1c 8836 6068 2438 2ed1 ed37 5050 d437
000000c0: 4cf8 0038 d03f 0438 281e 6537 6e54 ea37
000000d0: 59d6 fc36 b0a4 2237 d8cd 1d37 238f 4837
000000e0: 7c2a 1737 5533 e136 7d52 0d37 3eb3 0d37
000000f0: 351f f736 bd37 9b36 2cdf 1236 1b14 1f36
00000100: fd1f da35 32dc ec36 d995 2b36 7ee2 6e36
00000110: 6ec3 f735 ec6f ed35 e3aa 5e38 006e 3938
00000120: 8daa 3937 974d 9e37 7d88 2937 8bcb a838
00000130: cc35 aa37 292c 2838 5625 9037 3bce 5f37
00000140: 2764 2137 d313 1737 140f 9e36 9639 6536
00000150: 2775 9636 e3f4 7238 0d4b 6738 b700 3f38
00000160: 6340 3a38 7830 3538 2db7 cb37 fee0 6037
00000170: f7cf 1437 9aed 8337 66a8 4137 3e52 8937
00000180: bbf7 8837 b320 5337 8213 4437 620c 4a37
00000190: 51fe 9736 b433 cc36 e97c d235 1cda b835
000001a0: b1cd b835 cc0c 9e36 c291 8036 806c 1835
000001b0: 41ed 2235 4b72 f435 a829 2738 d856 5338
000001c0: d35d 8537 aa80 8537 2ad4 c936 afdd 4a38
000001d0: 382a 0a38 6cd6 6c37 35fb d336 6927 9837
000001e0: 37ff 4136 010c 3336 2b1d 2035 146a be35
000001f0: a787 1036 dc7d 8f36 156c 4236 f3b7 9635
00000200: daed 7c36 23f6 7a36 233c 9937 add4 4737
00000210: 6ba0 6f37 8c80 8437 0db5 6437 7946 a035
00000220: db16 9535 556c c134 884f 3a35 2d38 8735
00000230: 127a e435 abd8 3936 b5d0 7035 1b55 2535
00000240: a818 1036 019c 3536 1ac5 0436 3775 f034
00000250: 24a8 1536 b5f8 ff35 7051 6437 8b82 d837
00000260: c5b3 4937 62f3 e936 ce4b 9f37 3e77 0338
00000270: 0fdb e037 75a2 ce36 8498 0c38 5953 c137
00000280: 513a 2836 fa52 8436 7583 aa36 3510 1937
00000290: 7ebc 6b37 ae68 ae37 69f5 cc37 de00 c737
000002a0: 893c 1c38 2487 1d38 a311 5737 f632 b337
000002b0: eb32 7738 398d b138 de0e 9138 d9ec ac36
000002c0: 7c90 ca36 43e4 ef36 6cfe 1937 4e1a 3237
000002d0: 32fe 6335 365c 2836 f9ac 8136 7a11 9436
000002e0: 0480 4f37 932f 1036 30db 8c36 610b a036
000002f0: 9e25 2b37 47a4 4a37 94b6 0e37 8396 b237
00000300: 098f 1138 8aec 2538 80b5 b238 8785 7837
00000310: 43d8 5238 4498 0438 d962 0a39 2a85 d938
00000320: c830 7137 14e8 5737 0d2a 4037 af79 1c37
00000330: 9456 1837 a80a 8f39 03d4 8f39 dce1 8e39
00000340: 8e87 8739 08ee 8739 0522 a237 d7be 6c37
00000350: 767b 4f37 e875 4037 9c83 3837 3b54 9638
00000360: 83a7 9338 3b29 9738 a7f5 8d38 bfcb 9038
00000370: 4b7d 9836 7655 8236 3630 5236 c3ac f735
00000380: 0565 a235 3576 ac36 09a3 8636 66eb 0236
00000390: 014a 9e35 479a a335 8111 f937 dcc0 e237
000003a0: 38f2 b737 3391 8237 0d37 1637 6e96 3f38
000003b0: e117 3238 92f6 d537 d53e a337 70b7 4f37
000003c0: a0c7 f736 2781 1837 5531 e236 7f8b 3c37
000003d0: ce67 d536 98c9 c738 8c23 ce38 3a2c f438
000003e0: 3160 e338 8515 dd38 b929 0c38 1e65 6c37
000003f0: 2a85 6638 23e0 2f37 13a1 de37 09b5 ca37

exp_avg f4 [16]
1.4548906e-08 -9.1943253e-10 1.2571755e-08 -3.293158e-09 -3.134249e-10 -2.4468259e-08 1.1218531e-08 -2.845562e-09
1.503762e-08 -2.8476764e-08 -2.1239353e-08 6.8146875e-09 -1.1447739e-08 2.9931444e-09 7.988287e-10 6.794077e-09
00000000: c4f2 7932 50bb 7cb0 2afb 5732 d94d 62b1
00000010: a24e acaf 452e d2b2 9fbb 4032 a88b 43b1
00000020: 132c 8132 119d f4b2 d571 b6b2 a026 ea31
00000030: b0ab 44b2 f4af 4d31 9394 5b30 5571 e931

exp_avg_sq f4 [16]
1.9235409e-15 4.0109284e-16 1.0431745e-15 3.729654e-17 1.0471423e-15 2.2949515e-15 1.1952283e-15 6.3065025e-15
2.10918e-15 3.588793e-15 1.6289474e-15 1.6462512e-15 1.8589373e-15 1.60585e-15 1.9371514e-16 1.125292e-15
00000000: 119b 0a27 db36 e725 5956 9626 fcff 2b24
00000010: bbe8 9626 625e 2527 2440 ac26 3837 e327
00000020: 81fb 1727 c64c 8127 8dc1 ea26 f33f ed26
00000030: 57f3 0527 686d e726 9e56 5f25 f22b a226

exp_avg f4 [16]
0.005491501 -0.0017688165 -0.009015388 -0.0087326355 0.0028576383 -0.01899545 0.02640032 0.0038044422
0.003995772 0.029412178 0.0042942325 0.00061705324 0.018188247 0.0026049973 -0.004267558 -0.014855996
00000000: 0df2 b33b a2d7 e7ba 47b5 13bc 5413 0fbc
00000010: 3747 3b3b 599c 9bbc 7c45 d83c f353 793b
00000020: f7ee 823b cff1 f03c a2b6 8c3b bec1 213a
00000030: 85ff 943c 9ab8 2a3b dfd6 8bbb 9066 73bc

exp_avg_sq f4 [16]
0.001017013 0.001585594 0.00047603218 0.0017462329 0.0005705821 0.0007485893 0.0018377719 0.00033909982
0.00037036283 0.002504587 0.00046714584 0.000337087 0.0055431835 0.0013124585 0.00093158905 0.0016116621
00000000: 4b4d 853a b5d3 cf3a f593 f939 dae1 e43a
00000010: 1e93 153a fa3c 443a 64e1 f03a 35c9 b139
00000020: 422d c239 ff23 243b 41eb f439 0dbb b039
00000030: 98a3 b53b cd06 ac3a e235 743a 683e d33a

exp_avg f4 [16]
0.0068472945 0.009082956 0.008310893 -0.0018505271 0.0064527607 -0.022344116 0.008804427 0.0024049415
0.007718934 -0.0027052038 -0.0032443597 0.0013841335 -0.00024788332 0.0004170638 -0.0059988224 0.0003912095
00000000: 455f e03b aed0 143c 692a 083c 638d f2ba
00000010: ae71 d33b 020b b7bc 7240 103c 399c 1d3b
00000020: 1def fc3b ca49 31bb 539f 54bb d06b b53a
00000030: 56f6 81b9 5ba9 da39 c591 c4bb 401b cd39

exp_avg_sq f4 [16]
0.0006009282 0.003260713 0.0011865166 0.00028519772 0.00030483463 0.0020776507 0.0017783886 0.0011226293
0.00023919392 5.4167318e-05 0.0001919682 0.00012647652 0.00038847383 0.00017357017 0.000658275 0.0018803476
00000000: 9c87 1d3a b0b1 553b e484 9b3a 9786 9539
00000010: 36d2 9f39 3229 083b d218 e93a 3025 933a
00000020: 21d0 7a39 b731 6338 124b 4939 c89e 0439
00000030: 13ac cb39 6300 3639 1690 2c3a ff75 f63a

exp_avg f4 [16, 24, 1, 1]
-0.0008069536 -0.0005594283 -9.1837705e-05 -0.00064298225 0.00062227 0.00029195295 -0.0013248903 0.00035102371
0.0002128192 0.0002819031 -0.0003990806 -0.00050545915 6.6317734e-05 -0.0013302433 -0.00028894292 0.00041755967
-0.00059387303 0.00011501928 -0.0001731123 -6.504771e-05 -0.00015190853 -0.001184517 -0.00012826773 4.6035184e-05
-0.0030400162 -0.0002457318 0.00085056014 -0.00021469916 0.0006639642 0.00024474235 -0.0019669968 -6.555596e-05
0.002574862 -0.00013377004 -0.00023814433 -0.0010362734 -0.0035845842 -0.0013588609 0.00059195975 -0.0026210626
0.0002696445 -0.0006494261 -0.00041867184 -0.0008567292 9.070962e-05 -0.0050860196 -0.0021771586 -0.001732335
-0.00017164985 0.0001650623 0.00011248489 -8.301426e-05 0.00016864142 -0.00022702827 -0.0003331496 0.00079429365
-0.0019000219 0.0017361799 -0.0005992008 0.00041240343 0.00038462388 -0.0013611709 -3.8180202e-05 -0.00038923655
-0.00025067537 0.00026172635 -0.00016012175 0.0004395392 -0.00029448612 0.0006578813 0.0019789557 -0.00028627482
0.0059313937 -0.0022398438 -9.4139476e-05 0.0013870138 -0.001799631 9.5002666e-05 0.0032375944 -1.5391925e-05
0.001268778 -0.0025233761 0.0014348064 0.00055943825 0.0064880988 0.0060411184 0.0010795563 0.005073973
0.0005556529 -0.0005052215 6.003297e-05 0.0008081193 0.00037281335 0.005473602 0.00038014658 0.0039553894
-0.003999559 -0.0010054122 -0.0009414485 0.00026243852 0.0011768391 0.00048350883 -0.002104586 -0.0006454293
0.00021710388 0.0013664293 -0.00028837356 -0.0007083253 -0.004597073 -0.0038586743 -0.001358397 -0.0028662866
-0.0010747926 -0.00022670273 0.00021192525 -0.00021742654 -0.0006037622 -0.0035567028 -0.0016707898 -0.00073626963
0.0013021788 0.000913087 0.00019957771 5.8425947e-05 0.0003976362 0.00018132573 -0.0009235606 0.000467788
-0.0021216818 -0.00028749116 -0.0005976231 -1.4764289e-05 0.0019462763 0.00035604637 -0.001512311 -0.00041401913
0.00095336203 -0.00014924585 -1.1227228e-05 -0.00010914339 -0.00030523766 -5.9648784e-05 0.0018324918 0.00012089977
-1.9090223e-05 0.0003670594 0.00010899859 -3.86273e-05 -0.00025524097 5.9704336e-05 0.00014410831 0.00010796885
-0.00047169553 -9.396215e-05 -0.0003195633 0.00018999253 0.00047194003 0.00045161197 0.0003277364 0.00015462528
0.00024303661 0.00043399347 8.439538e-05 -5.348776e-05 -3.1909163e-05 8.97489e-05 0.00042305153 0.0002747338
0.008664659 0.003819109 0.0031059287 -1.5171327e-05 -0.0015327011 -0.00049350254 0.0051495545 0.002826929
0.0041027768 -0.0006330205 0.0032718927 0.0009899825 0.011208502 0.010342688 0.004450563 0.009607157
0.0061024996 0.004305149 0.0030576773 0.0037818556 0.0043544336 0.017858775 0.012669776 0.013979048
0.00035430022 -0.00016835902 -0.00062752375 0.0005266112 4.2445397e-05 7.863449e-05 0.00085866643 -0.00017589839
-0.00016132703 -0.001023021 0.000686327 -2.128695e-05 -0.0012509282 0.0003309443 -0.00054853683 0.000991045
0.00036063962 3.087322e-06 6.256444e-05 -9.530317e-05 0.00046611257 0.0019773284 0.00026231664 0.0005893183
-0.0019722302 -0.001989579 -0.0011183225 -0.0017178621 -0.00020631429 0.0005056871 -0.0012314242 0.0007926234
-0.00046581507 0.0032939096 0.00016012517 0.0005958218 0.0025941562 -0.001740168 -0.00047931838 -0.0009062865
-0.0019362677 0.0010732206 0.0011620059 0.0012509021 -0.00036158806 -0.0022713665 -0.0003892768 -0.0012256472
0.00054287474 -0.00034246888 0.00022840225 5.071977e-05 0.00018689944 -3.480735e-05 0.00047437724 -0.000299192
0.0004847098 0.00024705438 0.0007482361 -0.00040339262 0.0005365632 0.00059604866 -0.00024234668 -2.6580923e-05
00000000: bd89 53ba 99a6 12ba fe98 c0b8 cf8d 28ba
00000010: d51f 233a 4311 9939 f1a7 adba 9b09 b839
00000020: 3828 5f39 65cc 9339 b13b d1b9 ca80 04ba
00000030: 1014 8b38 8f5b aeba 437d 97b9 e9eb da39
00000040: 25ae 1bba 8136 f138 7b85 35b9 396a 88b8
00000050: a349 1fb9 cc41 9bba 9b7f 06b9 e715 4138
00000060: 023b 47bb 90d5 80b9 20f8 5e3a de20 61b9
00000070: e20d 2e3a c350 8039 bbe8 00bb 177b 89b8
00000080: 04bf 283b 9f44 0cb9 62b6 79b9 91d3 87ba
00000090: 58eb 6abb ce1b b2ba bf2d 1b3a 22c6 2bbb
000000a0: 125f 8d39 3f3e 2aba 2f81 dbb9 2096 60ba
000000b0: 5b3b be38 a0a8 a6bb a9ae 0ebb 840f e3ba
000000c0: e8fc 33b9 9314 2d39 dee5 eb38 f117 aeb8
000000d0: 56d5 3039 700e 6eb9 95aa aeb9 2538 503a
000000e0: 280a f9ba 8890 e33a af13 1dba da37 d839
000000f0: 58a7 c939 5169 b2ba ae23 20b8 7212 ccb9
00000100: 146d 83b9 5138 8939 5be6 27b9 f471 e639
00000110: 4265 9ab9 ab75 2c3a 5eb1 013b 2817 96b9
00000120: 235c c23b 58ca 12bb bf6c c5b8 76cc b53a
00000130: 99e1 ebba 2b3c c738 d22d 543b e81d 81b7
00000140: 204d a63a 3a5f 25bb 1d10 bc3a 44a7 123a
00000150: 1e9a d43b 93f4 c53b e67f 8d3a 9243 a63b
00000160: 3ca9 113a d770 04ba e9cb 7b38 f8d7 533a
00000170: 2976 c339 e75b b33b 694e c739 369c 813b
00000180: bc0e 83bb 09c8 83ba 8acb 76ba e797 8939
00000190: 2b40 9a3a 757f fd39 18ed 09bb 0732 29ba
000001a0: 61a6 6339 c219 b33a d830 97b9 e8ae 39ba
000001b0: 0ba3 96bb d0e1 7cbb 3d0c b2ba 4fd8 3bbb
000001c0: 0ee0 8cba 0db7 6db9 4038 5e39 fefc 63b9
000001d0: cc45 1eba 9217 69bb 67fe daba 3802 41ba
000001e0: dfad aa3a 3b5c 6f3a bc45 5139 620e 7538
000001f0: d479 d039 4122 3e39 1a1b 72ba 7141 f539
00000200: ea0b 0bbb 69ba 96b9 cfa9 1cba 23b4 77b7
00000210: 321a ff3a bcab ba39 bd38 c6ba b510 d9b9
00000220: 0beb 793a e17e 1cb9 945c 3cb7 e9e3 e4b8
00000230: 4e08 a0b9 652f 7ab8 3930 f03a 928b fd38
00000240: f123 a0b7 e171 c039 2c96 e438 bf03 22b8
00000250: ddd1 85b9 0b6b 7a38 c81b 1739 566d e238
00000260: e74d f7b9 8c0d c5b8 0f8b a7b9 bb38 4739
00000270: b86e f739 55c6 ec39 09d4 ab39 e822 2239
00000280: a5d7 7e39 9e89 e339 6dfd b038 0c58 60b8
00000290: 34d6 05b8 9337 bc38 04cd dd39 250a 9039
000002a0: 37f6 0d3c 044a 7a3b d68c 4b3b 5a88 7eb7
000002b0: eae4 c8ba 655e 01ba 98bd a83b 0044 393b
000002c0: 9670 863b 49f1 25ba 406d 563b 4dc2 813a
000002d0: dda3 373c 6174 293c 07d6 913b 5667 1d3c
000002e0: 7af7 c73b 3512 8d3b 5063 483b 02d9 773b
000002f0: a3af 8e3b 914c 923c e494 4f3c 6008 653c
00000300: 5fc1 b939 8889 30b9 6880 24ba 480c 0a3a
00000310: 6607 3238 92e8 a438 2118 613a 5d71 38b9
00000320: e529 29b9 e316 86ba a0ea 333a 6191 b2b7
00000330: 2ff6 a3ba 9882 ad39 afcb 0fba f4e5 813a
00000340: 3b14 bd39 ca2f 4f36 0735 8338 80dd c7b8
00000350: 9260 f439 1196 013b 8b87 8939 7b7c 1a3a
00000360: 8840 01bb 9963 02bb ad94 92ba e329 e1ba
00000370: 1256 58b9 1690 043a bd67 a1ba 0ec8 4f3a
00000380: a438 f4b9 a2de 573b 46e7 2739 ed30 1c3a
00000390: b802 2a3b 5916 e4ba 064d fbb9 dc93 6dba
000003a0: 5dca fdba 4fab 8c3a 734e 983a 4ff5 a33a
000003b0: 8793 bdb9 35db 14bb d917 ccb9 e5a5 a0ba
000003c0: b54f 0e3a 658d b3b9 437f 6f39 f0bb 5438
000003d0: 70fa 4339 1cfe 11b8 d6b5 f839 dfdc 9cb9
000003e0: a620 fe39 1487 8139 4625 443a 717e d3b9
000003f0: 26a8 0c3a 2640 1c3a 711e 7eb9 19fa deb7

exp_avg_sq f4 [16, 24, 1, 1]
8.007295e-06 1.7126042e-05 2.4925108e-05 5.1618777e-06 6.1850083e-06 9.873375e-06 1.3862831e-05 2.5056663e-05
2.8034983e-05 8.144966e-06 2.1172404e-05 2.6821132e-05 4.0445822e-05 2.931316e-05 2.3306866e-05 1.4807494e-05
3.10396e-05 3.254249e-05 4.510643e-06 5.161689e-06 3.8074886e-06 1.5570266e-05 4.767047e-05 5.4876396e-05
2.5210189e-05 4.6722826e-06 2.4572731e-05 4.6432974e-06 3.1888567e-06 2.5473717e-06 1.2538034e-05 6.186745e-06
5.6747693e-05 7.3322108e-06 9.214684e-06 7.3813917e-06 4.2208118e-05 1.2479821e-05 3.6584115e-05 1.7046068e-05
9.858413e-06 3.221541e-05 5.9833033e-06 4.0876303e-06 6.511358e-06 8.75578e-05 6.182045e-05 0.00012179432
1.3822645e-05 8.710158e-06 1.6286835e-05 2.470643e-06 2.7735869e-06 3.1290442e-06 1.54391e-05 7.825363e-06
1.2185185e-05 1.00656125e-05 1.0644634e-05 7.3059705e-06 2.3512619e-05 1.42399595e-05 9.98861e-06 1.2752e-05
4.5434517e-06 1.38810165e-05 2.5276913e-06 2.377475e-06 2.2038162e-06 2.868334e-05 1.0281731e-05 1.295976e-05
9.531445e-05 8.970959e-05 8.9305744e-05 3.2624826e-05 2.9805693e-05 3.4884066e-05 0.00012918614 6.608791e-05
0.00013361593 9.208632e-05 8.829387e-05 0.00010302281 0.0002501742 0.00017857815 0.0001049373 0.00013248909
0.00012341347 0.000121126395 2.2680219e-05 2.0415664e-05 2.8128627e-05 0.00026203442 0.00016214805 0.00026961355
3.6499205e-05 2.3514496e-05 7.2176854e-06 6.0253415e-06 5.7404345e-06 4.885333e-06 5.5558223e-05 1.3954781e-05
8.305637e-06 2.1427177e-05 1.0006951e-05 6.805016e-06 4.6823487e-05 4.456302e-05 2.9782785e-05 3.9320283e-05
1.8321929e-05 1.5325204e-05 5.681862e-06 7.0811493e-06 3.6735403e-06 0.00014506078 4.480438e-05 2.1135602e-05
4.1249514e-05 3.7608057e-05 7.1864204e-05 1.3502146e-05 1.0424802e-05 1.0069578e-05 6.4770014e-05 3.9561986e-05
0.00016939364 3.4829533e-05 3.2229324e-05 5.3768e-05 0.00011510044 5.391274e-05 8.486557e-05 4.0251904e-05
7.040494e-05 0.00011343038 3.1844284e-05 1.6012604e-05 1.2651329e-05 7.918785e-05 5.4943277e-05 0.00030702222
1.8859812e-06 2.0551054e-06 2.3879536e-06 6.858398e-07 1.0508842e-06 1.8256983e-06 3.2946652e-06 3.197681e-06
5.6925937e-06 2.1483177e-06 2.223149e-06 2.4977408e-06 8.282648e-06 3.5415878e-06 1.5660617e-06 1.4202034e-06
2.496965e-06 4.5679735e-06 7.6964375e-07 7.080747e-07 7.075031e-07 5.334658e-06 6.1863793e-06 9.349401e-06
0.00011267689 8.1718055e-05 6.74713e-05 2.0340634e-05 1.5449157e-05 2.1349319e-05 0.00015690483 4.7665835e-05
7.79434e-05 0.00010124788 5.9145284e-05 6.410826e-05 0.00020033706 0.00019154945 9.3443545e-05 9.980104e-05
6.6294095e-05 8.525546e-05 2.6315658e-05 2.9251596e-05 2.7551017e-05 0.0004390178 0.00032994233 0.00040393576
1.6868655e-05 2.2189613e-05 1.7162989e-05 2.2981133e-06 3.6095125e-06 4.3420946e-06 1.3711659e-05 1.2449468e-05
1.23605305e-05 1.37693505e-05 8.653472e-06 1.3584458e-05 2.1454163e-05 1.5272331e-05 1.1898164e-05 2.3256536e-05
2.3743734e-05 2.0343505e-05 2.8973495e-06 3.2217088e-06 3.73076e-06 4.9980645e-05 4.8195943e-05 4.2130174e-05
8.413151e-05 7.739845e-05 5.3736207e-05 1.9316907e-05 1.2731351e-05 1.0161247e-05 0.000100791476 5.1732357e-05
6.431501e-05 4.698926e-05 2.1548909e-05 1.3407461e-05 0.0001536852 9.937689e-05 8.903246e-05 0.0001172694
8.808128e-05 8.313742e-05 1.8123028e-05 1.479268e-05 1.3937948e-05 0.00034224096 0.0003075795 0.0002905435
6.180463e-06 1.5647562e-05 6.500325e-06 1.6296517e-06 2.6754876e-06 3.6957283e-06 7.94597e-06 8.0263135e-06
9.165527e-06 9.115543e-06 8.245778e-06 8.389914e-06 1.2349363e-05 8.537393e-06 5.5176565e-06 5.4750008e-06
00000000: 1257 0637 e5a9 8f37 4316 d137 3134 ad36
00000010: d188 cf36 d3a5 2537 6894 6837 c630 d237
00000020: ab2c eb37 5da6 0837 649b b137 f1fd e037
00000030: 5fa4 2938 88e5 f537 1d83 c337 b46d 7837
00000040: 8430 0238 3c7e 0838 215a 9736 9232 ad36
00000050: 2884 7f36 e49c 8237 c7f1 4738 152b 6638
00000060: 787a d337 9ac6 9c36 8a21 ce37 9fcd 9b36
00000070: 2400 5636 83f3 2a36 725a 5237 bc97 cf36
00000080: 5f04 6e38 3607 f636 c498 1a37 acad f736
00000090: 9f08 3138 6c60 5137 e571 1938 27fe 8e37
000000a0: 9065 2537 081f 0738 2fc4 c836 7a28 8936
000000b0: 247c da36 3c9f b738 9aa5 8138 d46b ff38
000000c0: cfe7 6737 d821 1237 b69f 8837 53cd 2536
000000d0: dc21 3a36 92fc 5136 3783 8137 ae49 0337
000000e0: f96e 4c37 7adf 2837 5b96 3237 cf25 f536
000000f0: f73c c537 29e8 6e37 c194 2737 6cf1 5537
00000100: f473 9836 83e2 6837 68a1 2936 b68c 1f36
00000110: 46e5 1336 019d f037 b37f 2c37 bf6d 5937
00000120: 8ee3 c738 7822 bc38 a849 bb38 a4d6 0838
00000130: 3d07 fa37 7b50 1238 2476 0739 ad98 8a38
00000140: 411b 0c39 771e c138 692a b938 f30d d838
00000150: d029 8339 b540 3b39 c911 dc38 c5ec 0a39
00000160: 8d68 0139 3d05 fe38 6641 be37 4e42 ab37
00000170: c4f5 eb37 aa61 8939 4906 2a39 eb5a 8d39
00000180: b916 1938 ff40 c537 722f f236 4a2d ca36
00000190: f59d c036 b1ec a336 3007 6938 541f 6a37
000001a0: 7058 0b37 83be b337 87e3 2737 a456 e436
000001b0: 5664 4438 2ee9 3a38 0bd6 f937 d5eb 2438
000001c0: 0bb2 9937 a08e 8037 d3a6 be36 9c9a ed36
000001d0: f186 7636 751b 1839 56ec 3b38 5c4c b137
000001e0: 5403 2d38 58bd 1d38 cdb5 9638 4787 6237
000001f0: 2fe6 2e37 82f0 2837 23d5 8738 5cef 2538
00000200: 429f 3139 ed15 1238 f92d 0738 f384 6138
00000210: 1462 f138 5d20 6238 dbf9 b138 27d4 2838
00000220: 5da6 9338 79e1 ed38 8a90 0538 ce52 8637
00000230: 0b41 5437 a711 a638 e572 6638 d3f7 a039
00000240: d221 fd35 71ea 0936 bb40 2036 8d1a 3835
00000250: 1b0c 8d35 840a f535 eb19 5d36 be97 5636
00000260: 0203 bf36 d12b 1036 6931 1536 dc9e 2736
00000270: b4f5 0a37 04ac 6d36 7831 d235 d19d be35
00000280: 8891 2736 9846 9936 8499 4e35 8612 3e35
00000290: 3eeb 3d35 5d00 b336 9894 cf36 5fdb 1c37
000002a0: f24c ec38 0c60 ab38 617f 8d38 2ea1 aa37
000002b0: d098 8137 5017 b337 d286 2439 cdec 4738
000002c0: 8b75 a338 0b55 d438 c412 7838 dc71 8638
000002d0: 9211 5239 aada 4839 1ff7 c338 464c d138
000002e0: 5f07 8b38 2dcb b238 72c0 dc37 5361 f537
000002f0: 5c1d e737 f92b e639 1cfc ac39 57c7 d339
00000300: 2981 8d37 d523 ba37 3df9 8f37 4939 1a36
00000310: f43a 7236 4fb2 9136 210b 6637 0fde 5037
00000320: 1360 4f37 e902 6737 612e 1137 cee8 6337
00000330: 77f8 b337 151d 8037 3a9e 4737 0817 c337
00000340: 482d c737 58a7 aa37 1670 4236 8934 5836
00000350: f85d 7a36 4fa2 5138 0026 4a38 eeb4 3038
00000360: c36f b038 fa50 a238 d062 6138 be0a a237
00000370: bc98 5537 397a 2a37 0360 d338 32fb 5838
00000380: dce0 8638 5516 4538 eec3 b437 9bf0 6037
00000390: 8f26 2139 9068 d038 f0b6 ba38 88ee f538
000003a0: 47b8 b838 105a ae38 e806 9837 142e 7837
000003b0: 08d7 6937 ce6e b339 9f42 a139 1754 9839
000003c0: c661 cf36 e242 8337 5e1d da36 68ba da35
000003d0: 878c 3336 2104 7836 ae4f 0537 c1a8 0637
000003e0: a4c5 1937 f6ee 1837 5957 0a37 68c2 0c37
000003f0: 1c30 4f37 d33b 0f37 4f24 b936 e6b5 b736

exp_avg f4 [16]
-1.7807159e-10 -8.022415e-10 4.372831e-09 4.479516e-10 2.8436344e-09 -4.3646575e-09 7.767143e-10 2.1526725e-09
4.2505757e-10 2.015256e-09 1.7611343e-09 1.4215465e-10 -3.141172e-10 1.2628069e-09 3.6533805e-09 -6.676095e-10
00000000: b2ca 43af ba84 5cb0 d43f 9631 9543 f62f
00000010: bf69 4331 eff7 95b1 6980 5530 37ee 1331
00000020: 89ad e92f c27c 0a31 680c f230 fa4c 1c2f
00000030: 11b0 acaf 118f ad30 f30e 7b31 d882 37b0

exp_avg_sq f4 [16]
1.9182206e-17 5.8112945e-17 9.807e-17 1.0449676e-16 5.1620755e-17 4.4038278e-16 9.801961e-18 1.3987189e-16
1.8014199e-18 1.3050733e-16 2.3015081e-17 2.0136989e-17 1.9221641e-17 7.5136706e-17 7.2272054e-17 3.3839982e-17
00000000: b4ec b023 d4ff 8524 4f22 e224 00f4 f024
00000010: 080f 6e24 07dd fd25 74d0 3423 e542 2125
00000020: dceb 0422 f776 1625 d346 d423 1fbb b923
00000030: d149 b123 e240 ad24 e4a5 a624 330f 1c24

exp_avg f4 [16]
-3.9638264e-05 -0.0041534286 0.009553314 -0.00015412991 1.56766e-05 0.00013026662 -2.9850848e-06 0.00053705025
2.3096895e-06 4.5561144e-05 -7.4164534e-05 0.0006802312 0.00032976692 4.368408e-05 0.0036581801 1.4182582e-06
00000000: 4341 26b8 7c19 88bb 8185 1c3c ef9d 21b9
00000010: 3e81 8337 2e98 0839 5e53 48b6 d5c8 0c3a
00000020: 2a00 1b36 e818 3f38 c888 9bb8 8b51 323a
00000030: 91e4 ac39 6c39 3738 14be 6f3b fb5a be35

exp_avg_sq f4 [16]
8.656903e-08 0.00016231545 0.0010988992 1.4192589e-05 2.0379423e-08 3.9064395e-05 1.8215803e-07 6.455553e-05
8.1170344e-07 6.285345e-05 3.4799406e-08 2.7081635e-06 7.5047287e-06 4.5582e-07 0.00014942895 4.063953e-10
00000000: d4e7 b933 3933 2a39 f008 903a b51c 6e37
00000010: d30e af32 13d9 2338 3897 4334 fc61 8738
00000020: d6e3 5935 30d0 8338 5a76 1533 e5bd 3536
00000030: 21d1 fb36 6cb7 f434 07b0 1c39 0e6b df2f

exp_avg f4 [16]
0.00024599553 -0.007286374 -0.0044614407 0.00017512434 -0.00037421283 0.00029693774 3.090221e-05 -0.00032146295
5.131633e-06 -2.6304173e-05 -0.0008278554 0.0015824342 0.00053689175 -0.00017501457 -0.0022413179 0.0002309328
00000000: f6f8 8039 89c2 eebb 4731 92bb 95a1 3739
00000010: ff31 c4b9 4fae 9b39 ff9c 0138 078a a8b9
00000020: 6430 ac36 c8a7 dcb7 6f04 59ba ae69 cf3a
00000030: 32be 0c3a 1e84 37b9 13e3 12bb 8d26 7239

exp_avg_sq f4 [16]
3.3340914e-06 0.00049972587 0.00024078356 1.8335202e-05 1.1273065e-05 0.00020399639 2.0839703e-05 2.315745e-05
3.9901597e-06 2.0449725e-05 4.327016e-06 1.459202e-05 1.9973419e-05 7.281767e-06 5.6386616e-05 1.0090474e-05
00000000: 41bf 5f36 0900 033a d87a 7c39 8cce 9937
00000010: 7221 3d37 dde7 5539 ecd0 ae37 3f42 c237
00000020: 36e3 8536 738b ab37 c930 9136 40d0 7437
00000030: 978c a737 e755 f436 ab80 6c38 414a 2937
