checkpoints/model_trained_on_dns3.tar (torch, 579819 bytes, 609 tensors)

exp_avg f4 [16, 9, 1, 5]
0.00022277974 -8.042584e-05 -7.408343e-05 -0.0007244899 -0.00068969995 -8.042584e-05 -7.408343e-05 -0.0007351526
-0.00068969995 -0.0019959332 -7.408343e-05 0.0007260778 -0.00068969995 -0.0019959332 -0.0022314882 0.0002614863
0.00048652408 -0.00012485558 0.00037107055 -0.00044322177 0.00048652408 -0.00012485558 0.00036993143 -0.00044322177
0.0004893247 -0.00012485558 -0.00011700331 -0.00044322177 0.0004893247 0.00040585527 -0.0003241723 -0.00023285861
-0.00054136274 0.00016033674 0.00029496226 -0.0002328587 -0.00054136274 0.0001588397 0.00029496226 -4.0958144e-05
-0.00054136274 0.0001588397 0.00029496226 -4.0958144e-05 0.0005176285 0.0019743678 0.0026562728 0.0007712491
-0.00036418505 0.00022446744 0.0026562728 0.0007712491 -0.00024589736 0.00022446744 -0.00078703737 0.0007712491
-0.0002627572 0.00022446744 -0.00078703737 -0.00063476735 -0.0011507381 -0.0003346316 0.00030139482 -0.0018363791
0.000589927 -0.00033463174 0.0003013948 -0.0018272394 0.000589927 0.00026622336 0.0003013948 0.00011816981
0.000589927 0.00026622336 -0.00056979 -0.00034456578 0.00093633577 -0.0013437665 -1.28039055e-05 -2.0478143e-05
0.0009363355 -0.0013437665 4.4205676e-06 -2.0478143e-05 0.0005852933 -0.0013437665 4.4205676e-06 -2.0478143e-05
0.0005852933 -0.0006114601 -0.0013588908 -0.0008014464 0.0008188946 -0.00084126584 -0.0023391626 -0.0008014464
0.00081889454 -0.000966506 -0.0023391624 -0.0017539477 0.00081889454 -0.00030946842 -0.0023391624 -0.0017539477
-0.0015030382 0.0015400075 -0.0010929084 0.0005523801 -0.0012749252 0.00059919554 -0.0010929084 0.0005523801
-0.0012923974 0.00059919554 0.00029442195 0.0005523801 1.8978502e-05 0.00059919554 0.00029442195 -0.00050760084
9.114652e-05 -0.00021424178 2.854221e-05 0.00014017684 -0.00014341765 -0.00021424195 2.854221e-05 0.00013964766
-0.00014341771 -0.0010162946 2.8542114e-05 0.0001396477 -0.00014341771 -0.0010162946 0.00059800886 0.0046694395
0.0043102815 0.0018841036 -1.4735317e-05 0.00022703799 0.0043102815 0.0018841036 0.00017693493 0.00022703799
5.8250174e-05 0.0018841036 1.0532872e-05 0.00022703799 5.8250174e-05 0.0005063524 -0.0030346587 0.0010965583
-0.0007029931 0.00058046426 -0.00022352095 0.0010965583 -0.0007029931 0.00057771563 -0.00022352095 -0.0006755976
-0.000702993 0.00032908513 -0.00022352103 -0.0006755976 0.00027323607 -0.00012879296 0.00049188244 -0.0011812557
-8.273611e-05 -3.738232e-05 0.00049188244 -0.0011812557 -6.988267e-05 -3.738232e-05 0.000101818194 -0.0011812557
-6.988267e-05 -3.738232e-05 0.000101818194 -0.00024539657 -0.0006736961 -0.00049611507 0.00032886586 0.0006831583
-8.235617e-05 -0.00049611507 0.00032886586 0.00071707874 -8.235617e-05 -0.00046243207 0.00032886586 -0.00020899827
-8.235601e-05 -0.00046243196 0.00020549755 -0.00014640565 -0.0018071593 0.0006588951 0.0001595553 7.6761346e-05
-0.0018071593 0.0006588951 0.0001595248 7.6761346e-05 -2.1373606e-05 0.0006588951 -0.00013156276 7.6761346e-05
-2.1373606e-05 0.00016548381 8.899792e-05 -0.00050124904 -5.9054e-05 -0.00038283234 -5.955386e-05 -0.00050124887
-5.9054e-05 -0.00037848222 -5.955386e-05 0.0008563721 -5.9054e-05 -0.00037848222 -5.955386e-05 0.0008563721
-0.00018623672 0.0035203607 0.0010854584 0.00046291167 0.00064385094 -0.00043379355 0.0010854584 0.00046291167
0.00069404906 -0.00043379355 0.00050491677 0.00046291167 0.00032184544 -0.00043379355 0.00050491677 -0.0004089681
-0.0019267718 0.003154893 -0.002023457 0.0012588322 -0.00018924147 0.003154893 -0.002023457 0.0012784916
-0.00018924147 -1.1388789e-05 -0.002023457 0.00053929165 -0.00018924147 -1.1388789e-05 -0.001128233 -0.001265844
00000000: fb99 6939 4baa a8b8 3d5d 9bb8 b2eb 3dba
00000010: fbcc 34ba 4baa a8b8 3d5d 9bb8 41b7 40ba
00000020: fbcc 34ba 34ce 02bb 3d5d 9bb8 4256 3e3a
00000030: fbcc 34ba 34ce 02bb 293e 12bb 1918 8939
00000040: 2814 ff39 aaeb 02b9 3f8c c239 3860 e8b9
00000050: 2814 ff39 aaeb 02b9 5bf3 c139 3860 e8b9
00000060: 0646 003a aaeb 02b9 ac5f f5b8 3860 e8b9
00000070: 0646 003a f9c8 d439 abf5 a9b9 822b 74b9
00000080: 3dea 0dba 1120 2839 2aa5 9a39 882b 74b9
00000090: 3dea 0dba 358e 2639 2aa5 9a39 79ca 2bb8
000000a0: 3dea 0dba 358e 2639 2aa5 9a39 79ca 2bb8
000000b0: 76b1 073a 6564 013b dd14 2e3b a72d 4a3a
000000c0: 17f0 beb9 055f 6b39 dd14 2e3b a72d 4a3a
000000d0: c9eb 80b9 055f 6b39 2f51 4eba a72d 4a3a
000000e0: adc2 89b9 055f 6b39 2f51 4eba 8466 26ba
000000f0: 5dd4 96ba 7e71 afb9 8704 9e39 a8b2 f0ba
00000100: 55a5 1a3a 8371 afb9 8604 9e39 fb7f efba
00000110: 55a5 1a3a e593 8b39 8604 9e39 efd1 f738
00000120: 55a5 1a3a e593 8b39 f65d 15ba d6a6 b4b9
00000130: 6e74 753a 5221 b0ba 5bd0 56b7 7ac8 abb7
00000140: 6974 753a 5221 b0ba 6354 9436 7ac8 abb7
00000150: 5e6e 193a 5221 b0ba 6354 9436 7ac8 abb7
00000160: 5e6e 193a 654a 20ba cf1c b2ba 2818 52ba
00000170: 16ab 563a 6588 5cba a34c 19bb 2818 52ba
00000180: 15ab 563a 1f5d 7dba a24c 19bb b8e4 e5ba
00000190: 15ab 563a 2640 a2b9 a24c 19bb b8e4 e5ba
000001a0: 9801 c5ba 14da c93a ec3f 8fba 9acd 103a
000001b0: 641b a7ba 5513 1d3a ec3f 8fba 9acd 103a
000001c0: a965 a9ba 5513 1d3a a55c 9a39 9acd 103a
000001d0: 0634 9f37 5513 1d3a a55c 9a39 8410 05ba
000001e0: ea25 bf38 17a6 60b9 ee6d ef37 6ffc 1239
000001f0: 6262 16b9 23a6 60b9 ee6d ef37 626e 1239
00000200: 6662 16b9 3035 85ba b96d ef37 656e 1239
00000210: 6662 16b9 3035 85ba b2c3 1c3a 1902 993b
00000220: 433d 8d3b 07f4 f63a b437 77b7 0c11 6e39
00000230: 433d 8d3b 07f4 f63a 9c87 3939 0c11 6e39
00000240: a651 7438 07f4 f63a 57b6 3037 0c11 6e39
00000250: a651 7438 bcbc 043a 20e1 46bb 64ba 8f3a
00000260: 1149 38ba 4c2a 183a f360 6ab9 64ba 8f3a
00000270: 1149 38ba d771 173a f360 6ab9 961a 31ba
00000280: 1049 38ba 0f89 ac39 f860 6ab9 961a 31ba
00000290: 2041 8f39 990c 07b9 acf1 003a 5dd4 9aba
000002a0: 9c82 adb8 f6ca 1cb8 acf1 003a 5dd4 9aba
000002b0: f98d 92b8 f6ca 1cb8 3a87 d538 5dd4 9aba
000002c0: f98d 92b8 f6ca 1cb8 3a87 d538 92a8 80b9
000002d0: fb9a 30ba b80d 02ba a16b ac39 fa15 333a
000002e0: a2b6 acb8 b80d 02ba a16b ac39 57fa 3b3a
000002f0: a2b6 acb8 9572 f2b9 a16b ac39 8c26 5bb9
00000300: 8cb6 acb8 9172 f2b9 d47a 5739 7884 19b9
00000310: 34de ecba b4b9 2c3a 4d4e 2739 effa a038
00000320: 34de ecba b4b9 2c3a 1d46 2739 effa a038
00000330: 784b b3b7 b4b9 2c3a 1cf4 09b9 effa a038
00000340: 784b b3b7 b985 2d39 65a4 ba38 4166 03ba
00000350: c0b0 77b8 e3b6 c8b9 78c9 79b8 3e66 03ba
00000360: c0b0 77b8 066f c6b9 78c9 79b8 297e 603a
00000370: c0b0 77b8 066f c6b9 78c9 79b8 297e 603a
00000380: 8a48 43b9 dab5 663b f145 8e3a f4b2 f239
00000390: 1bc8 283a c96e e3b9 f145 8e3a f4b2 f239
000003a0: d8f0 353a c96e e3b9 645c 043a f4b2 f239
000003b0: 5dbd a839 c96e e3b9 645c 043a c56a d6b9
000003c0: bc8b fcba 52c2 4e3b fa9b 04bb 66ff a43a
000003d0: 1f6f 46b9 52c2 4e3b fa9b 04bb 0f93 a73a
000003e0: 1f6f 46b9 7a12 3fb7 fa9b 04bb 405f 0d3a
000003f0: 1f6f 46b9 7a12 3fb7 38e1 93ba adea a5ba

exp_avg_sq f4 [16, 9, 1, 5]
1.1079191e-05 1.672877e-05 8.957578e-06 6.075392e-06 1.2726539e-05 1.672877e-05 8.957578e-06 6.074085e-06
1.2726539e-05 2.6529331e-05 8.957578e-06 3.558897e-06 1.2726539e-05 2.6529331e-05 0.00012010868 2.9712974e-06
5.857031e-06 2.2378392e-06 7.525535e-06 3.4266761e-06 5.857031e-06 2.2378392e-06 7.5254375e-06 3.4266761e-06
7.3102306e-06 2.2378392e-06 3.124615e-06 3.4266761e-06 7.3102306e-06 2.7152273e-05 2.4471026e-06 2.8745496e-06
1.8176252e-06 2.3785196e-06 3.163613e-06 2.8745492e-06 1.8176252e-06 2.378461e-06 3.163613e-06 6.237611e-06
1.8176252e-06 2.378461e-06 3.163613e-06 6.237611e-06 2.6445354e-05 8.7885724e-05 9.185942e-05 5.0514576e-05
1.0898457e-05 2.4782191e-06 9.185942e-05 5.0514576e-05 1.0942168e-05 2.4782191e-06 1.2183419e-05 5.0514576e-05
4.9216364e-06 2.4782191e-06 1.2183419e-05 5.6320743e-05 2.369004e-05 1.9253781e-05 6.4388046e-06 1.1020924e-05
3.789879e-06 1.9253781e-05 6.438805e-06 1.1009756e-05 3.789879e-06 3.896024e-06 6.438805e-06 3.0614528e-06
3.789879e-06 3.896024e-06 7.577729e-06 1.460064e-05 1.276201e-05 6.2767444e-06 2.9172504e-06 2.37686e-06
1.276201e-05 6.2767444e-06 2.9162234e-06 2.37686e-06 3.4798686e-06 6.2767444e-06 2.9162234e-06 2.37686e-06
3.4798686e-06 7.2449993e-06 2.1908474e-05 6.3364223e-06 2.4514895e-06 7.0326523e-06 2.0453877e-05 6.3364223e-06
2.4514895e-06 6.825801e-06 2.0453876e-05 5.290486e-05 2.4514895e-06 3.4790166e-06 2.0453876e-05 5.290486e-05
0.0001406176 6.63279e-06 5.266258e-06 2.6946652e-06 6.346028e-06 4.7184594e-06 5.266258e-06 2.6946652e-06
6.354633e-06 4.7184594e-06 1.00072675e-05 2.6946652e-06 2.2270262e-06 4.7184594e-06 1.00072675e-05 1.6102027e-05
4.288152e-06 3.1253617e-06 1.9918837e-06 1.8894865e-06 4.578049e-06 3.1253614e-06 1.9918837e-06 1.892551e-06
4.5780484e-06 8.901689e-06 1.9918832e-06 1.892551e-06 4.5780484e-06 8.901689e-06 1.5752566e-05 9.8120676e-05
6.5787426e-05 2.2473527e-05 2.2388751e-06 1.3245395e-06 6.5787426e-05 2.2473527e-05 2.2755582e-06 1.3245395e-06
3.3335786e-05 2.2473527e-05 1.307729e-06 1.3245395e-06 3.3335786e-05 8.550481e-05 2.058211e-05 1.5649943e-05
4.7388694e-06 3.2365901e-06 1.4454995e-06 1.5649943e-05 4.7388694e-06 3.239437e-06 1.4454995e-06 5.283647e-06
4.7388694e-06 1.0721e-06 1.4454995e-06 5.2836476e-06 9.458781e-06 1.32151545e-05 9.239831e-06 3.2715197e-06
9.3595804e-07 9.967863e-07 9.23983e-06 3.2715197e-06 9.349931e-07 9.967863e-07 5.3373215e-06 3.2715197e-06
9.349931e-07 9.967863e-07 5.3373215e-06 1.0032957e-05 2.2320484e-05 3.594858e-05 1.1750694e-05 8.3745e-06
2.8898826e-06 3.594858e-05 1.1750694e-05 8.315493e-06 2.8898826e-06 9.29791e-06 1.1750694e-05 4.8520915e-06
2.8898824e-06 9.297908e-06 1.8175138e-05 3.2192108e-06 8.362963e-06 3.4480179e-06 7.801933e-06 2.639277e-06
8.362963e-06 3.4480179e-06 7.802227e-06 2.639277e-06 3.6868516e-06 3.4480179e-06 3.229698e-06 2.639277e-06
3.6868516e-06 2.9040796e-06 2.7513163e-06 3.3718845e-06 2.6685532e-06 2.944688e-06 2.2257566e-06 3.3718836e-06
2.6685532e-06 2.945861e-06 2.2257566e-06 3.402766e-06 2.6685532e-06 2.945861e-06 2.2257566e-06 3.402766e-06
2.48517e-06 0.00021780819 0.00010884282 8.214879e-05 4.9139435e-05 2.2665292e-06 0.00010884282 8.214879e-05
4.9959886e-05 2.2665292e-06 2.4692172e-06 8.214879e-05 4.9308368e-05 2.2665292e-06 2.4692172e-06 3.914894e-05
4.466477e-05 2.1101854e-05 8.61596e-06 1.1163201e-05 3.0102058e-06 2.1101854e-05 8.61596e-06 1.119786e-05
3.0102058e-06 2.4380624e-06 8.61596e-06 6.7307064e-06 3.0102058e-06 2.4380624e-06 7.141183e-06 2.1988402e-05
00000000: c3e0 3937 c354 8c37 8148 1637 38db cb36
00000010: 1284 5537 c354 8c37 8148 1637 fecf cb36
00000020: 1284 5537 4e8b de37 8148 1637 63d5 6e36
00000030: 1284 5537 4e8b de37 dbe2 fb38 8066 4736
00000040: 8387 c436 c92d 1636 da83 fc36 d9f5 6536
00000050: 8387 c436 c92d 1636 0483 fc36 d9f5 6536
00000060: 674a f536 c92d 1636 7ab0 5136 d9f5 6536
00000070: 674a f536 10c5 e337 e738 2436 63e8 4036
00000080: 20f5 f335 a89e 1f36 754e 5436 61e8 4036
00000090: 20f5 f335 a69d 1f36 754e 5436 ac4c d136
000000a0: 20f5 f335 a69d 1f36 754e 5436 ac4c d136
000000b0: f7d6 dd37 4a4f b838 a7a4 c038 9ddf 5338
000000c0: 84d8 3637 7b4f 2636 a7a4 c038 9ddf 5338
000000d0: 4194 3737 7b4f 2636 6367 4c37 9ddf 5338
000000e0: 8924 a536 7b4f 2636 6367 4c37 f039 6c38
000000f0: f9b9 c637 2e83 a137 e90c d836 82e6 3837
00000100: a055 7e36 2e83 a137 ea0c d836 8bb6 3837
00000110: a055 7e36 97ba 8236 ea0c d836 5c73 4d36
00000120: a055 7e36 97ba 8236 3244 fe36 45f5 7437
00000130: 6a1c 5637 d39c d236 fbc5 4336 2582 1f36
00000140: 6a1c 5637 d39c d236 56b4 4336 2582 1f36
00000150: b087 6936 d39c d236 56b4 4336 2582 1f36
00000160: b087 6936 121a f336 17c8 b737 749d d436
00000170: 4584 2436 06fa eb36 5e94 ab37 749d d436
00000180: 4584 2436 2f09 e536 5d94 ab37 29e6 5d38
00000190: 4584 2436 0d79 6936 5d94 ab37 29e6 5d38
000001a0: c072 1339 3b8f de36 d0b4 b036 ffd5 3436
000001b0: f7ef d436 4253 9e36 d0b4 b036 ffd5 3436
000001c0: e239 d536 4253 9e36 e3e4 2737 ffd5 3436
000001d0: 0574 1536 4253 9e36 e3e4 2737 d712 8737
000001e0: f2e2 8f36 4ebd 5136 4dac 0536 439a fd35
000001f0: 249d 9936 4dbd 5136 4dac 0536 8f03 fe35
00000200: 239d 9936 7758 1537 4bac 0536 8f03 fe35
00000210: 239d 9936 7758 1537 6124 8437 23c6 cd38
00000220: 5bf7 8938 8885 bc37 953f 1636 d5c6 b135
00000230: 5bf7 8938 8885 bc37 cbb5 1836 d5c6 b135
00000240: 07d2 0b38 8885 bc37 3a85 af35 d5c6 b135
00000250: 07d2 0b38 0c51 b338 bfa7 ac37 ff47 8337
00000260: 9402 9f36 3234 5936 fc02 c235 ff47 8337
00000270: 9402 9f36 1b65 5936 fc02 c235 2f4a b136
00000280: 9402 9f36 13e5 8f35 fc02 c235 304a b136
00000290: 28b1 1e37 a8b6 5d37 c604 1b37 488c 5b36
000002a0: 8c3e 7b35 51c9 8535 c504 1b37 488c 5b36
000002b0: 3dfc 7a35 51c9 8535 3e17 b336 488c 5b36
000002c0: 3dfc 7a35 51c9 8535 3e17 b336 3953 2837
000002d0: e03c bb37 7ec7 1638 d924 4537 3480 0c37
000002e0: ceef 4136 7ec7 1638 d924 4537 c582 0b37
000002f0: ceef 4136 38fe 1b37 d924 4537 26cf a236
00000300: cdef 4136 36fe 1b37 d076 9837 9f09 5836
00000310: a74e 0c37 7f64 6736 0ce5 0237 6f1e 3136
00000320: a74e 0c37 7f64 6736 4fe6 0237 6f1e 3136
00000330: a16b 7736 7f64 6736 cabd 5836 6f1e 3136
00000340: a16b 7736 b5e3 4236 41a3 3836 8948 6236
00000350: 6515 3336 5b9d 4536 355e 1536 8548 6236
00000360: 6515 3336 82b1 4536 355e 1536 135b 6436
00000370: 6515 3336 82b1 4536 355e 1536 135b 6436
00000380: e5c6 2636 7163 6439 8b42 e438 4c47 ac38
00000390: 111b 4e38 ad1a 1836 8b42 e438 4c47 ac38
000003a0: 058c 5138 ad1a 1836 d4b4 2536 4c47 ac38
000003b0: 75d0 4e38 ad1a 1836 d4b4 2536 db33 2438
000003c0: 6e56 3b38 e303 b137 448d 1037 9549 3b37
000003d0: f102 4a36 e303 b137 448d 1037 71de 3b37
000003e0: f102 4a36 989d 2336 448d 1037 54d8 e136
000003f0: f102 4a36 989d 2336 4b9e ef36 bc73 b837

exp_avg f4 [16]
1.9368449e-10 1.0713455e-09 -6.7705135e-09 4.209076e-09 3.901782e-10 2.9580376e-09 2.1492869e-10 -1.2622149e-10
5.350527e-10 -7.163796e-11 -8.0211573e-11 -6.819063e-10 -4.5632567e-10 1.6808445e-10 2.7951058e-10 3.345282e-10
00000000: 56f5 542f 9e3e 9330 11a2 e8b1 6d9f 9031
00000010: b380 d62f 5946 4b31 0c51 6c2f 31c8 0aaf
00000020: fd12 1330 9688 9dae 1a63 b0ae e470 3bb0
00000030: 21de faaf 91cf 382f 9ea9 992f a9e8 b72f

exp_avg_sq f4 [16]
5.155337e-18 5.2139748e-17 6.3520864e-16 2.4216436e-16 2.3247916e-17 3.6229992e-16 1.1366399e-17 8.426359e-17
1.884005e-17 2.7978262e-19 3.5621504e-19 4.6341305e-18 2.308359e-17 2.8587845e-17 8.894163e-19 2.2852982e-18
00000000: c832 be22 c073 7024 2016 3726 2799 8b25
00000010: 976c d623 08da d025 4dac 5123 724c c224
00000020: cfc4 ad23 8e27 a520 b245 d220 20f8 aa22
00000030: 96e8 d423 92d6 0324 3341 8321 10a0 2822

exp_avg f4 [16]
-0.0019409893 -0.023248125 0.026046652 -0.023933938 -0.005720346 0.0061437627 -0.009414606 -0.05547909
0.026386766 -0.0008801863 0.0042454824 0.004907453 -0.037562303 -0.0047700754 0.0039571268 0.006855026
00000000: cb68 feba da72 bebc ca5f d53c 1b11 c4bc
00000010: bd71 bbbb 9e51 c93b b83f 1abc 0b3e 63bd
00000020: 0f29 d83c 4dbc 66ba b01d 8b3b b3ce a03b
00000030: eeda 19bd 4b4e 9cbb c9aa 813b 20a0 e03b

exp_avg_sq f4 [16]
0.00032208877 0.012310919 0.004529123 0.00480438 0.0017461418 0.0038733643 0.0021079893 0.248655
0.012456715 0.00053039304 0.0019171529 0.0008359021 0.017055755 0.0010891533 0.0028996891 0.0008591984
00000000: 06de a839 bdb3 493c 0a69 943b 0f6e 9d3b
00000010: ccde e43a 45d8 7d3b 3126 0a3b 6b9f 7e3e
00000020: 4017 4c3c 130a 0b3a fa48 fb3a 7120 5b3a
00000030: 83b8 8b3c ecc1 8e3a b608 3e3b d43b 613a

exp_avg f4 [16]
-0.0018788949 0.0052509266 0.056939896 -0.06184998 0.007361802 -0.006282698 -0.0014884741 -0.16283792
0.01820916 0.00030924418 0.00052821054 0.0082800165 -0.0629506 0.03117188 0.012789605 0.009662285
00000000: 4045 f6ba f70f ac3b cf39 693d 6856 7dbd
00000010: 453b f13b 17df cdbb e718 c3ba fcbe 26be
00000020: 602b 953c 0d22 a239 9c77 0a3a e8a8 073c
00000030: 3fec 80bd 2c5c ff3c 7e8b 513c 904e 1e3c

exp_avg_sq f4 [16]
0.000276639 0.010488439 0.02225579 0.028184012 0.0032388782 0.01508194 4.153092e-05 0.6673776
0.0108449105 2.4239657e-06 2.4289384e-06 0.00066616345 0.04963905 0.0043526306 0.0055214316 0.0013546756
00000000: dc09 9139 b4d7 2b3c c651 b63c 28e2 e63c
00000010: 5c43 543b 3e1a 773c 7c31 2e38 42d9 2a3f
00000020: daae 313c 6aab 2236 d800 2336 79a1 2e3a
00000030: 5152 4b3d 83a0 8e3b 20ed b43b 5f8f b13a

exp_avg f4 [16, 8, 1, 5]
-0.00015029726 0.00054672593 0.00072792964 0.0013268362 0.0016972186 0.0003174541 0.0029839643 0.00063030806
0.014091178 0.015651133 0.0006749084 0.00058057514 -0.0015860616 0.004267104 0.0040707192 5.728268e-05
0.0001426925 0.00033803802 0.0012158593 0.002320216 0.00016447916 0.0004912471 0.00080452306 0.00043716148
0.0009585601 0.0006029719 -0.00025764067 0.0009911219 0.004187103 0.0052154697 2.6351738e-05 0.00080006645
0.0010876432 0.000923181 0.001370606 -0.00014511004 -1.6186257e-05 -0.00016416659 -5.755258e-06 -0.00053725514
-0.00041034239 0.0009799616 0.0010662975 0.0014897482 0.001673401 -0.0036297296 0.0027947065 0.00042789252
-0.0013020984 -0.00029153764 -0.0062205745 -0.004079196 -0.0017688748 -0.0025037932 -0.0023186496 -0.0017422303
-0.0005356306 -0.0002348495 -0.0009007679 0.00010682888 0.00057120644 0.0008309724 0.0009864406 0.00085083354
0.001338408 -0.003971856 -0.0011611659 -0.0010625066 -0.002186235 -0.001367746 0.00022874174 0.0010767716
0.0010330962 0.0014956408 0.0015032091 -6.56864e-05 0.00025293665 -0.0002541517 0.00012891683 -0.00027073026
0.00043134694 0.00033138064 4.2253254e-05 0.00092135736 0.0008307397 0.005807494 0.00762485 0.0011422297
-0.0024905272 -0.0013754257 -0.000497929 5.3876163e-05 -0.0011114001 -0.001528087 -0.0014880913 -6.844959e-05
0.00066993135 0.0003268187 -0.00072451634 2.4272846e-05 0.0005394177 0.00020278068 0.00032630187 0.00012568892
0.00048384824 0.0007892055 0.0023775997 0.00050018413 -0.0016241418 0.00025594578 0.0004911038 0.00022079183
0.00026248445 0.0008046287 0.0010876106 -0.00016087924 0.00011210616 -2.6541536e-05 0.00016798078 -0.00031363184
-0.002087288 -0.0012352673 -0.0006201027 0.00010582761 0.0022731184 -0.017534235 -0.014131603 -0.015721958
-0.01271996 -0.008301637 -0.01604301 -0.014414703 -0.015829097 -0.016447874 -0.010267873 -0.0058355737
-0.0059825694 -0.006248736 -0.0041511375 -0.0016536991 -0.001991925 -0.0012805118 -0.0011858597 -0.0008844545
0.0013467442 -0.016582599 -0.014119766 -0.014573998 -0.009958397 -0.005150219 -0.0017351345 -0.000793829
-0.0006050046 0.0006671563 0.0016723685 -0.0005737113 0.00019078642 -3.3389686e-05 -7.4736214e-05 -0.0007708944
-0.0013457555 -0.001841677 0.00022297117 -0.002022995 -0.0013195949 -0.031946074 -0.023646744 -0.011092874
-0.010534363 -0.009310461 -0.014879623 -0.013089344 -0.007348323 -0.0064094877 -0.006646096 -0.005447949
-0.005710298 -0.0017604535 -0.003447804 -0.0020985857 -0.0009972677 -0.0020763671 -0.001608508 -0.0022267993
-0.0009595558 -0.015777102 -0.008197571 -0.007116856 -0.00755514 -0.0041514505 -0.00070183707 -0.0014016571
0.0005376612 -0.0016383516 -0.0016553034 -0.00017924907 0.00054407446 -0.0003049371 0.0006357447 0.00020517502
-0.0012163265 -2.1098647e-06 -0.0004069507 -4.2524385e-05 -0.0009264093 0.00068119064 0.00139574 0.0009041527
-0.0007445578 -0.0022156115 -0.002225694 0.00032209762 -0.0010056214 -0.00045754205 0.0015402634 9.1246526e-05
-0.0007019609 0.00013816738 0.00094102643 -2.1403235e-05 -0.00018183654 -0.00018077022 -0.00035369094 -0.00037181424
-0.00045066324 0.0008539868 0.0006596315 0.0010998185 0.0013193522 0.00089447986 -0.00076468854 1.8709245e-05
-0.0001524922 -2.765548e-05 -0.00076867716 0.00020663455 0.00026395623 2.8935165e-05 0.000104438586 0.00016792027
0.00032516537 0.00036661714 -0.000504921 -0.0008507011 -0.0005540367 0.0026173075 0.0019775806 -0.0011091159
0.016391022 0.017730763 0.0030896273 0.0019512651 -0.0007306108 0.00577585 0.0073674275 0.0015325384
00000000: 1d99 1db9 2852 0f3a 88d2 3e3a 3ce9 ad3a
00000010: 3575 de3a f86f a639 9d8e 433b 423b 253a
00000020: afde 663c ce36 803c 56ec 303a bd31 183a
00000030: 65e3 cfba 10d3 8b3b ab63 853b cf42 7038
00000040: ba9f 1539 b23a b139 785d 9f3a c40e 183b
00000050: 0a78 2c39 09c7 003a a1e6 523a d232 e539
00000060: e147 7b3a c210 1e3a f213 87b9 88e8 813a
00000070: f733 893b 88e6 aa3b ed0d dd37 8dbb 513a
00000080: 408f 8e3a a101 723a e8a5 b33a ae28 18b9
00000090: b9c7 87b7 2224 2cb9 4a1d c1b6 95d6 0cba
000000a0: 3923 d7b9 0e72 803a 02c3 8b3a a843 c33a
000000b0: 0556 db3a c2e0 6dbb 6527 373b c356 e039
000000c0: 2cab aaba 85d9 98b9 f6d5 cbbb c7aa 85bb
000000d0: 97d9 e7ba ae16 24bb 7cf4 17bb 8c5b e4ba
000000e0: 9069 0cba ef41 76b9 8321 6cba 5109 e038
000000f0: 04bd 153a 9dd5 593a 744b 813a 790a 5f3a
00000100: 856d af3a 5826 82bb 4332 98ba ce43 8bba
00000110: f046 0fbb f145 b3ba 65da 6f39 7622 8d3a
00000120: f568 873a 6109 c43a 5407 c53a 1ec1 89b8
00000130: 959c 8439 aa3f 85b9 d92d 0739 cdf0 8db9
00000140: 6826 e239 28bd ad39 1639 3138 3f87 713a
00000150: ffc5 593a ca4c be3b e1d9 f93b deb6 953a
00000160: 1d38 23bb a147 b4ba 7387 02ba 17f9 6138
00000170: 66ac 91ba 174a c8ba 0f0c c3ba 988c 8fb8
00000180: 559e 2f3a dd58 ab39 78ed 3dba 8a9d cb37
00000190: b667 0d3a 86a1 5439 7f13 ab39 5dcb 0339
000001a0: 03ad fd39 afe2 4e3a 81d1 1b3b ca1e 033a
000001b0: 28e1 d4ba 7630 8639 6bbd 003a 5b84 6739
000001c0: 119e 8939 b8ed 523a 288e 8e3a b1b1 28b9
000001d0: 891a eb38 84a5 deb7 ff23 3039 f46e a4b9
000001e0: e2ca 08bb b1e8 a1ba 638e 22ba c4ef dd38
000001f0: 99f8 143b f5a3 8fbc 3d88 67bc 56cb 80bc
00000200: 6167 50bc 9703 08bc a16c 83bc a52b 6cbc
00000210: 06ac 81bc b1bd 86bc 953a 28bc 5738 bfbb
00000220: 6e09 c4bb 32c2 ccbb 4406 88bb efc0 d8ba
00000230: f58a 02bb d9d6 a7ba d96e 9bba bdda 67ba
00000240: 3d85 b03a 3bd8 87bc 9756 67bc c7c7 6ebc
00000250: 8b28 23bc 2bc3 a8bb 746d e3ba f618 50ba
00000260: 2c99 1eba 1ae4 2e3a 6033 db3a 1d65 16ba
00000270: d70d 4839 e70b 0cb8 b3bb 9cb8 d915 4aba
00000280: 1064 b0ba 6d64 f1ba 5ecd 6939 3994 04bb
00000290: 42f6 acba e3d9 02bd d1b6 c1bc e3be 35bc
000002a0: 5298 2cbc e78a 18bc aac9 73bc b074 56bc
000002b0: 33ca f0bb ae06 d2bb 7ec7 d9bb b584 b2bb
000002c0: 741d bbbb 04bf e6ba 8df4 61bb 6d88 09bb
000002d0: c0b6 82ba a913 08bb 93d4 d2ba 7eef 11bb
000002e0: b38a 7bba fb3e 81bc 1b4f 06bc 8434 e9bb
000002f0: 1c91 f7bb e408 88bb 7dfb 37ba cfb7 b7ba
00000300: d5f1 0c3a f5bd d6ba c4f6 d8ba cef4 3bb9
00000310: 38a0 0e3a f7df 9fb9 1ba8 263a 4024 5739
00000320: 256d 9fba 3397 0db6 005c d5b9 365c 32b8
00000330: 47da 72ba ee91 323a 43f1 b63a a904 6d3a
00000340: 6e2e 43ba cb33 11bb f3dc 11bb 36df a839
00000350: 0ecf 83ba 41e2 efb9 aae2 c93a 9b5b bf38
00000360: cc03 38ba 06e1 1039 37af 763a 198b b3b7
00000370: 60ab 3eb9 238d 3db9 986f b9b9 10f0 c2b9
00000380: ff46 ecb9 16de 5f3a 1feb 2c3a c927 903a
00000390: 1dee ac3a 877b 6a3a 6175 48ba ccf1 9c37
000003a0: 50e6 1fb9 b1fd e7b7 0d81 49ba 0aac 5839
000003b0: 9b63 8a39 cbb9 f237 0a06 db38 c113 3039
000003c0: f57a aa39 8536 c039 ad5c 04ba 9601 5fba
000003d0: c63c 11ba 2287 2b3b 4c9a 013b c15f 91ba
000003e0: 7746 863c 1b40 913c 587b 4a3b 98c1 ff3a
000003f0: 7686 3fba 5743 bd3b 766a f13b 75df c83a

exp_avg_sq f4 [16, 8, 1, 5]
2.5342584e-05 2.0049265e-05 2.0461355e-05 2.1428465e-05 1.730059e-05 0.000268529 0.00013087847 3.8653834e-05
0.0026541417 0.0026963537 0.00023991466 0.00019897195 6.0087263e-05 0.0004346066 0.00044893418 4.41216e-05
2.609819e-05 4.890591e-06 6.729069e-05 7.252514e-05 1.7450966e-05 1.3575863e-05 1.3557133e-05 1.4390481e-05
1.3496391e-05 0.00022776036 6.7611436e-05 1.8169705e-05 0.0004944119 0.00050410366 2.043102e-05 1.6894577e-05
1.75453e-05 1.8688987e-05 1.4637688e-05 9.588846e-07 9.944656e-07 1.6665813e-06 1.4409737e-06 1.1623174e-06
7.275564e-05 4.716222e-05 8.96152e-05 0.00010820461 9.930914e-05 0.00068371504 0.0005445722 0.0010285465
0.001077012 0.001148721 0.00029771472 0.00028210995 0.00028603943 0.00047129465 0.00044338405 5.815003e-05
3.0080279e-05 7.743257e-05 7.60441e-05 7.8722915e-05 4.8195543e-05 3.9653594e-05 7.538934e-05 7.395236e-05
7.460431e-05 0.00028337122 0.00031167496 0.0005127788 0.00049177674 0.0005595569 6.502976e-05 4.6186844e-05
9.531988e-05 9.636138e-05 9.197578e-05 2.577973e-06 1.5273021e-06 2.7101382e-06 1.6816284e-06 3.2971059e-06
1.12722355e-05 7.94353e-06 6.946061e-06 8.586926e-06 7.752384e-06 0.0006942515 0.0007040697 2.0574593e-05
0.00025520532 0.00028382236 0.00011668242 0.00010774519 1.6545511e-05 3.5779627e-05 4.462925e-05 1.946456e-05
1.659597e-05 2.6957982e-06 7.6028264e-06 1.1449283e-05 7.636659e-06 4.880021e-06 4.1253516e-06 5.616863e-06
7.227576e-06 0.00011921113 0.000113245595 6.417526e-06 5.3648964e-05 8.187811e-05 7.889361e-06 6.063948e-06
5.743811e-06 7.3514957e-06 7.0833626e-06 1.3138919e-06 4.4072e-07 4.8085593e-07 5.398333e-07 3.0171182e-07
0.0005587043 0.0005152868 0.0003660781 0.00062584254 0.0004832547 0.006643906 0.00715221 0.005924553
0.009809417 0.009302807 0.0038473876 0.0038612047 0.0039917007 0.004407669 0.004528633 0.00070216256
0.0006699754 0.0007164517 0.0007814745 0.0007835008 0.0004083166 0.000354714 0.00030184962 0.00041677387
0.0004493914 0.004363658 0.0045543998 0.004605698 0.0051642694 0.005251167 0.00047269717 0.00045143234
0.0003178195 0.0006258396 0.00046116594 1.8008846e-05 2.125895e-05 1.199127e-05 2.0277159e-05 1.7238848e-05
0.00024485766 0.00016639465 0.0003917746 0.00023132577 0.00033145738 0.0034538482 0.003674184 0.0035549141
0.0050155297 0.005055539 0.0018290379 0.0019424825 0.002059146 0.0023438605 0.0023818684 0.0003674706
0.00036159964 0.0003773666 0.00042423015 0.00044469416 0.00014619238 0.00019276812 0.00020654505 0.00022343536
0.0002414701 0.0021912341 0.0023133855 0.0021867608 0.0027758551 0.0028300623 0.00021755196 0.00016331504
0.0003446942 0.00022805616 0.00030080715 7.882604e-06 8.7526105e-06 9.098158e-06 1.5923091e-05 5.9003783e-06
2.4026485e-05 1.3225748e-05 8.837863e-06 7.751921e-06 8.1729495e-06 0.0002247161 0.00017898087 3.0758576e-05
4.9138078e-05 2.6908456e-05 0.00018118783 0.00015412067 0.000100086516 5.9455124e-05 4.512923e-05 3.578806e-05
2.8122215e-05 1.6507682e-05 1.21173625e-05 8.239835e-06 1.3417212e-05 8.482701e-06 5.6899835e-06 5.9789804e-06
4.2302304e-06 0.00018006608 0.00013609894 6.184447e-05 5.683908e-05 4.0191895e-05 1.832961e-05 9.148983e-06
6.3129028e-06 6.1882797e-06 5.8386117e-06 7.812772e-07 8.550045e-07 6.5808354e-07 8.402297e-07 5.7076176e-07
6.772687e-06 8.973947e-06 8.797205e-06 6.8482864e-06 9.514026e-06 0.0010073987 0.0010060441 1.943157e-05
0.0045211446 0.0045060012 0.0001964748 0.00014153405 2.7396243e-06 0.00068870734 0.0007104952 2.923664e-05
00000000: c996 d437 782f a837 6da4 ab37 47c1 b337
00000010: bc20 9137 5ac9 8c39 6c3c 0939 3d20 2238
00000020: 1cf1 2d3b 4fb5 303b 9a91 7b39 20a3 5039
00000030: 3506 7c38 e9db e339 ed5e eb39 350f 3938
00000040: 70ed da37 db19 a436 6a1e 8d38 a318 9838
00000050: aa63 9237 e3c3 6337 7173 6337 a56e 7137
00000060: 8f6e 6237 f5d2 6e39 9dca 8d38 256b 9837
00000070: 6c9b 013a d325 043a 4863 ab37 d4b8 8d37
00000080: 3f2e 9337 4bc6 9c37 6494 7537 06b3 8035
00000090: 9479 8535 4caf df35 7b67 c135 ec00 9c35
000000a0: 6394 9838 0cd0 4538 cbef bb38 e8eb e238
000000b0: 3044 d038 573b 333a 9fc1 0e3a 4bd0 863a
000000c0: 872a 8d3a ae90 963a 9816 9c39 28e8 9339
000000d0: 90f7 9539 1918 f739 0076 e839 1fe6 7338
000000e0: e854 fc37 4b63 a238 de79 9f38 0b18 a538
000000f0: 9225 4a38 b951 2638 581a 9e38 df16 9b38
00000100: e274 9c38 7191 9439 4e68 a339 016c 063a
00000110: 94ea 003a 3aaf 123a 9660 8838 bfb8 4138
00000120: 79e6 c738 9f15 ca38 1fe3 c038 3d01 2d36
00000130: b3fd cc35 d2df 3536 50b4 e135 d943 5d36
00000140: e21d 3d37 3445 0537 3612 e936 9110 1037
00000150: 3c10 0237 6efe 353a 5191 383a 9a97 ac37
00000160: 14cd 8539 fecd 9439 66b3 f438 42f5 e138
00000170: 37cb 8a37 1512 1638 4b30 3b38 d347 a337
00000180: 9337 8b37 76e9 3436 c81b ff36 4c16 4037
00000190: 331f 0037 10bf a336 806c 8a36 7c78 bc36
000001a0: 6884 f236 fd00 fa38 447e ed38 2156 d736
000001b0: 2305 6138 fab5 ab38 8c5c 0437 eb78 cb36
000001c0: f6ba c036 deac f636 9fad ed36 fb58 b035
000001d0: 189c ec34 2b14 0135 10e9 1035 f5fa a134
000001e0: 0376 123a 5014 073a 2cee bf39 950f 243a
000001f0: 595d fd39 1fb5 d93b 165d ea3b c122 c23b
00000200: adb7 203c cd6a 183c 7424 7c3b 440c 7d3b
00000210: d0cc 823b 356e 903b ed64 943b 5511 383a
00000220: 4aa1 2f3a 42d0 3b3a dedb 4c3a d963 4d3a
00000230: 5413 d639 e8f8 b939 9241 9e39 7182 da39
00000240: 4b9c eb39 04fd 8e3b 133d 953b 65eb 963b
00000250: 0839 a93b fb11 ac3b 57d4 f739 39ae ec39
00000260: 03a1 a639 620f 243a a5c8 f139 b411 9737
00000270: 3f55 b237 1d2e 4937 de18 aa37 259c 9037
00000280: 3d60 8039 397a 2e39 1967 cd39 0a90 7239
00000290: 75c7 ad39 f559 623b 94ca 703b 90f9 683b
000002a0: 5059 a43b efa8 a53b 54bc ef3a e69a fe3a
000002b0: bdf2 063b 749b 193b 1f19 1c3b 12a9 c039
000002c0: 1595 bd39 4ad9 c539 356b de39 d725 e939
000002d0: 384b 1939 cc21 4a39 0494 5839 f949 6a39
000002e0: 2333 7d39 cf9a 0f3b 2b9c 173b c24f 0f3b
000002f0: 1feb 353b 9178 393b a91e 6439 8c3f 2b39
00000300: 13b8 b439 5c22 6f39 a7b5 9d39 873f 0437
00000310: 2dd8 1237 4ba4 1837 9492 8537 ddfb c536
00000320: 7c8c c937 28e4 5d37 5546 1437 3f0e 0237
00000330: 8d1e 0937 c5a1 6b39 d0ac 3b39 c502 0138
00000340: 9c19 4e38 78b9 e137 3dfd 3d39 749b 2139
00000350: 8ae5 d138 745f 7938 2449 3d38 231b 1638
00000360: ffe7 eb37 fa79 8a37 ad4b 4b37 d23d 0a37
00000370: 7d1a 6137 ec50 0e37 96ec be36 0d9f c836
00000380: 67f1 8d36 1fd0 3c39 c8b5 0e39 7fb2 8138
00000390: 7f66 6e38 b893 2838 8ac2 9937 957e 1937
000003a0: 6cd3 d336 eba4 cf36 4be9 c336 f6b8 5135
000003b0: 7683 6535 28a7 3035 258c 6135 7336 1935
000003c0: f040 e336 cf8e 1637 b597 1337 55ca e536
000003d0: 6e9e 1f37 b10a 843a 3ddd 833a fb00 a337
000003e0: 1c26 943b 14a7 933b cd04 4e39 c268 1439
000003f0: 63da 3736 5e8a 343a 8740 3a3a 3541 f537

exp_avg f4 [16]
7.1916633e-09 7.026062e-10 -2.073372e-08 -1.6098266e-08 1.7388146e-08 9.645236e-09 -1.9856445e-08 -3.084962e-08
2.8009536e-10 3.8023185e-09 -6.7785744e-10 -6.875785e-09 -6.9771002e-09 4.601739e-09 5.9814553e-09 -8.039222e-11
00000000: 8a1a f731 8421 4130 ef19 b2b2 7648 8ab2
00000010: f05c 9532 32b4 2532 c990 aab2 847f 04b3
00000020: ebfb 992f 8ca5 8231 fa53 3ab0 0b40 ecb1
00000030: 39bb efb1 531d 9e31 7085 cd31 ccc8 b0ae

exp_avg_sq f4 [16]
5.8020626e-15 4.501769e-15 3.6704614e-15 2.6595332e-14 1.1952041e-14 2.4463557e-15 1.25727675e-14 2.5833537e-15
2.611601e-15 2.9086358e-15 2.8398865e-16 2.2190692e-15 4.923212e-16 1.3114067e-15 3.905386e-16 1.4964059e-16
00000000: 950a d127 7e31 a227 083e 8427 a98c ef28
00000010: 0f4f 5728 4c47 3027 a87d 6228 7726 3a27
00000020: 892f 3c27 dc96 5127 54b5 a325 9ae6 1f27
00000030: e5e6 0d26 5efe bc26 5321 e125 1b86 2c25

exp_avg f4 [16]
-0.0064291726 -0.014653385 -0.0046224897 -6.336787e-05 0.017430443 0.004184006 0.0060229935 0.0057197125
0.01592341 0.009284876 -0.002136874 -0.008833091 -0.019175546 -0.010902953 0.002827181 -0.009560544
00000000: cfab d2bb c014 70bc 4178 97bb 5ee4 84b8
00000010: 4aca 8e3c fc19 893b 885c c53b 6d6c bb3b
00000020: d071 823c 981f 183c cc0a 0cbb abb8 10bc
00000030: 0916 9dbc 4da2 32bc 3a48 393b d4a3 1cbc

exp_avg_sq f4 [16]
0.002060365 0.0018370975 0.0004322293 0.00078499626 0.0059949066 0.00037303325 0.00093025225 0.005398248
0.0013286714 0.0005099531 0.00068499247 0.0013646132 0.0017563356 0.0039114365 0.0019350713 0.0006696393
00000000: 3007 073b c3ca f03a d69c e239 35c8 4d3a
00000010: ec70 c43b ad93 c339 2cdc 733a c9e3 b03b
00000020: d026 ae3a 60ae 053a 1191 333a d2dc b23a
00000030: d834 e63a 822b 803b 38a2 fd3a bc8a 2f3a

exp_avg f4 [16]
-0.0007248049 -0.007963392 -0.0017525518 -0.00010266483 0.004258692 0.0072995243 -0.0007929742 0.009605575
0.00090312114 0.004154867 0.0010981333 0.00043683834 -0.018092949 0.0024757576 0.00486601 -0.011880954
00000000: d500 3eba e378 02bc e1b5 e5ba c34d d7b8
00000010: 7f8c 8b3b d930 ef3b 99df 4fba b460 1d3c
00000020: 6fbf 6c3a 8d25 883b 3def 8f3a 7307 e539
00000030: aa37 94bc 5240 223b 0d73 9f3b 55a8 42bc

exp_avg_sq f4 [16]
0.0017713844 0.0008809857 0.0002787223 0.0009861513 0.0054609235 0.00045662362 0.0008365234 0.0012783032
7.373178e-05 0.00042063344 0.00023649965 7.973831e-05 0.0013519414 0.0002890854 0.0012820705 0.00050353043
00000000: cc2d e83a f3f1 663a 7921 9239 bf41 813a
00000010: 8cf1 b23b fc66 ef39 234a 5b3a bd8c a73a
00000020: 73a0 9a38 7788 dc39 e4fc 7739 2e39 a738
00000030: a033 b13a 6390 9739 260b a83a 5bff 033a

exp_avg f4 [16, 24, 1, 1]
-0.00011670532 -0.00034538054 -0.0002896492 -0.001267336 0.0001687011 -0.00082858757 -7.7805984e-05 -0.0001372467
-0.00012204907 -0.0015110414 -0.0005316878 0.0006285146 5.9809565e-05 -4.49996e-05 -0.00040558798 -0.00028243894
-0.0004349907 -0.00020661767 -0.00019466427 2.4846118e-05 -0.0002731213 0.0007310366 0.000238384 0.0008548134
0.0015257081 -0.0005470023 0.00230427 0.0029861494 0.0026654971 0.0017266347 0.0020331207 0.000635379
0.0025615715 -0.0018222657 -0.0020532135 0.0004614257 0.0006489326 -0.00015277501 0.00022845113 0.0007732546
0.001221846 5.140483e-05 0.0029905625 0.00040333526 0.0015256847 -0.0016643207 4.9055863e-05 0.0016872927
-0.0006659835 -8.9089015e-05 0.0019328265 0.0017361391 0.004501735 -0.0002993132 -0.0016971626 -2.7867898e-05
0.00048825366 -0.0011771128 0.00012909259 0.0014645716 0.0005131498 -0.0017463374 -0.00048544226 -9.5131305e-05
0.0016798297 -0.0005708464 -0.00092796626 -0.00033098116 0.0007576937 0.0012770634 -0.0020385026 -0.00036668556
-0.0013847781 0.0012349908 -0.0025503563 0.0020432181 0.00093138346 0.0016026775 0.00031509265 0.0020786976
-0.0003681237 0.0013866986 -0.00095698546 -0.0046426095 -0.0018961115 -0.0020096065 0.0007974915 -0.0016901542
-0.0008718955 -0.0024066016 -0.001257169 0.0016380162 -0.00053170783 0.0045223045 0.00020699081 0.00038861544
0.00018765898 0.00046748813 0.00031572464 0.0016430595 0.00045301666 0.0010084071 -1.0407117e-05 0.0001898809
0.00035546016 0.001233052 -0.0008971584 -0.0008238954 -0.0010874572 -0.00039470015 -0.0003382407 -0.0002948485
1.1414207e-05 9.340326e-06 7.302279e-05 5.9820268e-05 0.00054341333 0.00029788289 0.00091109716 -0.0010131431
0.0004460635 -0.00056325854 0.0010699516 0.0013843572 -0.003113323 0.00395114 0.00040294754 0.0027564783
0.004457973 -0.0062063383 0.003730325 0.002184185 0.0015872283 -0.0012379927 0.00079864386 0.0015705167
0.0041027786 -0.001134787 0.002568067 0.0024346304 0.0015744994 -0.00013833697 -0.005964214 -0.0014777228
-8.6803804e-05 0.00043933155 -0.0010856505 -0.0037949574 -0.001080606 -0.0018029308 -0.00021493834 -0.000445917
-0.0012544662 0.00054599193 -0.00017830025 0.002013534 0.0005548896 -1.1349686e-06 -0.0002289025 4.1666073e-05
-1.3563049e-05 -4.5270757e-05 -0.0006744363 0.0010075922 -0.0010085255 0.00019272634 -0.0016754424 -0.0006044194
0.00019983594 -0.0008846021 0.00043341404 0.00011321041 -0.00057397096 -0.0018998914 0.0006016453 -0.00047070795
-0.0011183431 0.0040684473 0.0013127126 -0.0017221543 0.00042568945 -0.0006949746 -0.0019038067 -0.0010227714
-0.00115999 0.0014271907 0.0009149635 -0.00056392467 -8.064462e-05 -0.0020517537 0.0018599951 0.0009608195
0.0006833046 7.136466e-05 0.00016074067 0.0005667263 0.0008447715 -4.483463e-05 0.001338334 0.00029636352
0.00018771579 0.000324914 -0.0007222088 0.00027270845 0.00011925952 0.00012791716 -0.00010175843 -6.204812e-05
-0.0003738542 -0.0002090379 0.0011193383 0.0007017683 0.00041392268 -0.0009856177 0.0002627368 0.000381311
-0.00024531787 -0.00018525525 0.0007627524 -0.0022920233 0.0017983953 -0.004136314 -0.0012027781 -0.0023133196
-0.0004274083 0.00016181527 -0.000560206 0.0011262078 0.00083694037 -0.00061164954 -0.0009951903 0.00016656071
0.0011721883 0.0010211639 -0.0018175325 -0.0003165638 -0.0013641173 -0.0010022252 -0.001604432 -0.0028437423
0.0005074648 0.00022206503 -0.0014125477 -0.0028621461 -0.004783552 -0.00043985934 1.5467771e-05 -0.001108951
-0.0006149302 0.0004273003 -0.001324038 -0.0007178467 -0.0019362016 0.00059858605 -0.0004998503 0.0018286186
00000000: b1bf f4b8 3114 b5b9 0fdc 97b9 bd1c a6ba
00000010: 5be5 3039 9235 59ba c52b a3b8 e1e9 0fb9
00000020: 98f4 ffb8 230e c6ba f760 0bba e7c2 243a
00000030: 08dc 7a38 f4bd 3cb8 19a5 d4b9 5014 94b9
00000040: 770f e4b9 82a7 58b9 cb1e 4cb9 a26c d037
00000050: b831 8fb9 09a3 3f3a b8f6 7939 8e15 603a
00000060: 45fa c73a b464 0fba 3c03 173b 46b3 433b
00000070: 9faf 2e3b 3f50 e23a 1b3e 053b 908f 263a
00000080: 0ae0 273b 17d9 eeba 358f 06bb 82eb f139
00000090: 211d 2a3a 3b32 20b9 628c 6f39 3db4 4a3a
000000a0: 5926 a03a 849b 5738 50fd 433b be76 d339
000000b0: 7cf9 c73a 5625 daba 55c1 4d38 2628 dd3a
000000c0: 6595 2eba 4dd5 bab8 e556 fd3a 298f e33a
000000d0: 4a83 933b 23ed 9cb9 5473 deba dbc5 e9b7
000000e0: 4cfc ff39 5a49 9aba 075d 0739 def6 bf3a
000000f0: e684 063a 5ce5 e4ba f582 feb9 3b81 c7b8
00000100: bb2d dc3a daa4 15ba c342 73ba 8a87 adb9
00000110: f79f 463a 2363 a73a 6698 05bb b43f c0b9
00000120: 7181 b5ba 6adf a13a e123 27bb 83e7 053b
00000130: 1628 743a ef10 d23a 0533 a539 c23a 083b
00000140: ba00 c1b9 e2c1 b53a 35de 7aba 0821 98bb
00000150: f286 f8ba 9ab3 03bb c00e 513a 2a88 ddba
00000160: eb8f 64ba 13b8 1dbb 97c7 a4ba b4b2 d63a
00000170: 4f62 0bba d72f 943b ac0b 5939 15bf cb39
00000180: 53c6 4439 3219 f539 d887 a539 ee5b d73a
00000190: de82 ed39 872c 843a 3a9a 2eb7 c41a 4739
000001a0: 0e5d ba39 5c9e a13a 482f 6bba affa 57ba
000001b0: 0289 8eba c2ef ceb9 e655 b1b9 e595 9ab9
000001c0: a57f 3f37 65b4 1c37 d023 9938 86e7 7a38
000001d0: da73 0e3a 2a2d 9c39 b2d6 6e3a 71cb 84ba
000001e0: a1dd e939 a4a7 13ba 9e3d 8c3a 5273 b53a
000001f0: e408 4cbb 9178 813b b442 d339 08a6 343b
00000200: 3014 923b 8a5e cbbb 7878 743b 8b24 0f3b
00000210: 8b0a d03a 2444 a2ba 155c 513a ccd9 cd3a
00000220: 9a70 863b 22bd 94ba 044d 283b 528e 1f3b
00000230: 6f5f ce3a 8c0e 11b9 746f c3bb 26b0 c1ba
00000240: 700a b6b8 1556 e639 634c 8eba d2b4 78bb
00000250: 1fa3 8dba 5250 ecba 1261 61b9 f7c9 e9b9
00000260: e76c a4ba e620 0f3a 1cf6 3ab9 7ff5 033b
00000270: 0376 113a 3955 98b5 8c05 70b9 9bc2 2e38
00000280: da8c 63b7 1be1 3db8 a7cc 30ba 2f11 843a
00000290: 8030 84ba 9516 4a39 859a dbba e671 1eba
000002a0: 0d8b 5139 a4e4 67ba d93b e339 606b ed38
000002b0: 8a76 16ba c705 f9ba bcb7 1d3a 5ac9 f6b9
000002c0: 5e95 92ba 9c50 853b 530f ac3a e9b9 e1ba
000002d0: 122f df39 f52e 36ba 2789 f9ba 830e 86ba
000002e0: ce0a 98ba 9310 bb3a 29da 6f3a 58d4 13ba
000002f0: c01f a9b8 b776 06bb 14cb f33a 81df 7b3a
00000300: cc1f 333a 9ca9 9538 7f8c 2839 5c90 143a
00000310: a873 5d3a d10c 3cb8 0a6b af3a 3d61 9b39
00000320: 93d5 4439 3859 aa39 9d52 3dba 4ffa 8e39
00000330: f81a fa38 8021 0639 2467 d5b8 d51f 82b8
00000340: dc01 c4b9 2f31 5bb9 c3b6 923a e0f6 373a
00000350: c303 d939 d82f 81ba f0bf 8939 b2ea c739
00000360: 029e 80b9 1441 42b9 72f3 473a c535 16bb
00000370: 22b8 eb3a eb89 87bb 89a6 9dba 109b 17bb
00000380: c515 e0b9 f5ac 2939 cada 12ba 439d 933a
00000390: 1e66 5b3a 1b57 20ba 0c71 82ba cda6 2e39
000003a0: 1da4 993a 93d8 853a 453a eeba 79f8 a5b9
000003b0: 2ecc b2ba 195d 83ba ce4b d2ba 145e 3abb
000003c0: 6307 053a 21da 6839 3c25 b9ba d892 3bbb
000003d0: 58bf 9cbb ec9c e6b9 c9c0 8137 395a 91ba
000003e0: 4433 21ba 4707 e039 588b adba e02d 3cba
000003f0: 25c8 fdba 6eea 1c3a 6308 03ba 42ae ef3a

exp_avg_sq f4 [16, 24, 1, 1]
3.8274402e-07 2.772761e-07 5.503312e-07 9.251386e-06 6.061554e-06 4.798929e-06 5.854759e-07 3.773918e-07
6.2351756e-07 1.6646103e-05 1.2034667e-05 8.998146e-06 2.6714188e-06 1.6408461e-06 1.0150225e-06 1.1600092e-06
1.4737751e-06 1.9158024e-06 7.9922825e-07 2.0354321e-07 2.9027584e-07 1.1942046e-05 5.6224794e-06 5.6121935e-06
1.4612177e-05 1.5161535e-05 2.9256405e-05 0.00010494952 0.00012621302 0.00026095763 2.8390477e-05 2.7561338e-05
9.547814e-05 6.469252e-05 0.00014061815 8.574306e-05 1.3970508e-05 3.5798123e-05 1.018936e-05 2.9765913e-05
4.5369885e-05 2.9700075e-05 4.4938948e-05 1.0942629e-05 7.737624e-05 7.1823575e-05 0.00013960442 0.00014640407
1.5414125e-05 6.0356924e-06 2.0785195e-05 0.00010137087 0.00013184756 0.000104994106 4.894857e-05 3.244751e-05
5.0370687e-05 3.2466105e-05 6.465192e-05 8.460091e-05 1.5071531e-05 2.5693955e-05 6.4825076e-06 7.2695616e-06
1.30128565e-05 2.1137485e-05 5.335863e-05 1.658793e-05 4.4030756e-05 6.208428e-05 4.54557e-05 7.0007285e-05
9.454395e-05 7.514935e-05 0.000100923986 0.00021372338 0.00024665942 0.00018310854 9.5613585e-05 0.000101170284
0.00012281386 0.00014351652 0.00019670231 0.00019806402 3.6947175e-05 6.630638e-05 2.4037967e-05 0.00019907186
0.00019898963 0.00017565415 0.0001025023 8.8728506e-05 0.00010439816 0.0008097941 0.0007656777 0.0008274247
9.263211e-07 1.4814934e-06 1.5542995e-06 2.7898897e-05 1.155528e-05 7.627286e-06 1.0299065e-06 1.5028314e-06
1.4958247e-06 6.467424e-05 3.625522e-05 1.6463488e-05 1.3017437e-05 4.5349116e-06 2.2990255e-06 5.477948e-06
6.159694e-06 5.071516e-06 7.1400285e-07 1.5123526e-06 1.9374204e-06 2.8820428e-05 3.236336e-05 3.420984e-05
7.339846e-05 3.0379497e-05 5.551003e-05 0.00025018628 0.00026896337 0.0005404721 0.0001303835 8.003118e-05
0.00017160992 0.00025783188 0.0003209716 0.0001398519 7.658007e-05 8.979734e-05 2.5710058e-05 7.278064e-05
0.00014300847 3.6157777e-05 0.00010336179 5.379412e-05 0.00012102646 0.00027053847 0.00039907292 0.00025622273
5.333111e-06 4.2588517e-06 5.365639e-06 4.5806843e-05 7.004406e-05 4.213167e-05 7.951473e-06 7.089183e-06
6.3471584e-06 6.0017024e-05 7.0117494e-05 6.905411e-05 1.0734781e-05 1.4621119e-05 8.993839e-06 9.678368e-06
6.625565e-06 9.440965e-06 6.4934625e-06 4.915929e-06 4.337736e-06 4.060511e-05 5.1268024e-05 4.9313865e-05
1.3877758e-05 2.1683763e-05 1.710016e-05 0.0001223931 7.809589e-05 9.2402086e-05 1.5343412e-05 1.816254e-05
1.7246553e-05 0.00025172453 0.00018388066 0.0001526409 2.9586197e-05 9.334455e-06 1.9318717e-05 3.7789483e-05
2.6749985e-05 2.5823585e-05 1.8144578e-05 1.93088e-05 1.6402912e-05 0.00014196408 0.00017689983 0.00016399559
1.4287103e-06 8.985487e-07 9.822205e-07 1.0543517e-05 8.9797595e-06 7.613345e-06 4.69915e-06 2.824547e-06
2.434912e-06 1.0410038e-05 9.204475e-06 5.126085e-06 2.1960334e-06 2.1671676e-06 8.1922326e-07 1.1920089e-06
1.6063271e-06 1.5682695e-06 4.2703923e-06 2.4293113e-06 1.8211418e-06 2.7487447e-05 5.8155906e-06 5.554612e-06
2.1468031e-05 4.3973673e-06 2.9057983e-05 9.539106e-05 8.8139335e-05 7.350675e-05 5.2395175e-05 3.5747238e-05
5.8566362e-05 0.00010330713 6.566337e-05 7.7748424e-05 2.1591411e-05 1.1964792e-05 7.64738e-06 1.2933743e-05
2.3534167e-05 3.567452e-05 3.986532e-05 3.6664154e-05 4.393907e-05 0.00010721785 9.171114e-05 2.6338377e-05
2.6114461e-05 2.6671818e-05 3.0894214e-05 0.00015897243 0.00012756899 9.6742486e-05 5.4611126e-05 6.2758016e-05
6.274264e-05 7.0887036e-05 0.000119593395 0.00012303334 2.9547724e-05 3.3051536e-05 1.4154712e-05 4.143018e-05
00000000: f07b cd34 89dc 9434 79ba 1335 6636 1b37
00000010: 5a64 cb36 7c06 a136 9929 1d35 569c ca34
00000020: cd5f 2735 3ca3 8b37 80e8 4937 bef6 1637
00000030: a046 3336 0b3b dc35 e83b 8835 9db1 9b35
00000040: 87ce c535 3c91 0036 8c8a 5635 888d 5a34
00000050: 35d7 9b34 b25a 4837 bba8 bc36 6050 bc36
00000060: d326 7537 4c5e 7e37 a76b f537 5818 dc38
00000070: 0d58 0439 24d1 8839 1628 ee37 8633 e737
00000080: 703b c838 88ab 8738 e672 1339 f4d0 b338
00000090: e062 6a37 f125 1638 f8f2 2a37 d0b1 f937
000000a0: 8b4b 3e38 6d24 f937 d47c 3c38 3c96 3737
000000b0: 0d45 a238 fd9f 9638 c762 1239 0b84 1939
000000c0: 954d 8137 3486 ca36 de5b ae37 1297 d438
000000d0: 8f40 0a39 4830 dc38 204e 4d38 4018 0838
000000e0: 1d45 5338 372c 0838 bc95 8738 c56b b138
000000f0: bcdb 7c37 5989 d737 5184 d936 0fed f336
00000100: cb51 5a37 6750 b137 65cd 5f38 4f26 8b37
00000110: aaad 3838 3e33 8238 b0a7 3e38 e0d0 9238
00000120: e645 c638 8099 9d38 27a7 d338 ef1a 6039
00000130: 1152 8139 d300 4039 2784 c838 622b d438
00000140: 98c7 0039 ec7c 1639 e041 4e39 68af 4f39
00000150: baf7 1a38 f70d 8b38 24a5 c937 f2bd 5039
00000160: dfa7 5039 cd2f 3839 81f6 d638 c113 ba38
00000170: 56f0 da38 5d48 543a c3b7 483a 88e7 583a
00000180: 4da8 7835 bad7 c635 539d d035 6d08 ea37
00000190: 8ddd 4137 e3ed ff36 513b 8a35 e5b4 c935
000001a0: 25c4 c835 b8a1 8738 bf10 1838 121b 8a37
000001b0: 7765 5a37 982a 9836 f548 1a36 37cf b736
000001c0: 5eaf ce36 fe2b aa36 e7a9 3f35 0afc ca35
000001d0: a104 0236 66c3 f137 e5bd 0738 897c 0f38
000001e0: 80ed 9938 79d7 fe37 71d3 6838 6f2b 8339
000001f0: a703 8d39 78ae 0d3a 8eb7 0839 6ad6 a738
00000200: 30f2 3339 9c2d 8739 1448 a839 35a5 1239
00000210: 9d99 a038 9451 bc38 eeab d737 cfa1 9838
00000220: 8bf4 1539 1ea8 1738 f0c3 d838 ffa0 6138
00000230: 96cf fd38 0fd7 8d39 a93a d139 a255 8639
00000240: 13f3 b236 42e7 8e36 7d0a b436 b920 4038
00000250: 9ee4 9238 89b6 3038 5167 0537 9edf ed36
00000260: adf9 d436 caba 7b38 0b0c 9338 25d1 9038
00000270: 8919 3437 3a4d 7537 3fe4 1637 4660 2237
00000280: 2c51 de36 a364 1e37 6be2 d936 82f3 a436
00000290: de8c 9136 684f 2a38 9f08 5738 5cd6 4e38
000002a0: 84d4 6837 87e5 b537 5072 8f37 a656 0039
000002b0: 69c7 a338 fec7 c138 bab5 8037 c25b 9837
000002c0: b1ac 9037 e5f9 8339 17d0 4039 3b0e 2039
000002d0: e02f f837 2e9b 1c37 a10e a237 2680 1e38
000002e0: 2865 e037 ba9f d837 2f35 9837 55f9 a137
000002f0: fc98 8937 31dc 1439 307e 3939 3bf6 2b39
00000300: 1dc2 bf35 cc33 7135 d7d4 8335 10e4 3037
00000310: c6a7 1637 2376 ff36 64ad 9d36 598d 3d36
00000320: 7867 2336 c6a6 2e37 eb6c 1a37 bc00 ac36
00000330: 915f 1336 a86f 1136 98e8 5b35 1dfd 9f35
00000340: fb98 d735 547d d235 644a 8f36 4007 2336
00000350: f56d f435 d894 e637 8b23 c336 c161 ba36
00000360: 3f16 b437 198d 9336 8bc1 f337 af0c c838
00000370: 72d7 b838 a327 9a38 e4c2 5b38 4eef 1538
00000380: 27a5 7538 98a6 d838 c1b4 8938 de0c a338
00000390: 341f b537 64bc 4837 3f4d 0037 01fe 5837
000003a0: 3d6b c537 39a1 1538 1035 2738 d6c7 1938
000003b0: 384b 3838 25da e038 0b55 c038 3cf1 dc37
000003c0: 6110 db37 4bbd df37 6994 0138 d6b1 2639
000003d0: 0ac4 0539 3ae2 ca38 400e 6538 f49c 8338
000003e0: b394 8338 30a9 9438 37ce fa38 8302 0139
000003f0: 41dd f737 d1a0 0a38 067a 6d37 51c5 2d38

exp_avg f4 [16]
-1.9769997e-10 2.0313273e-09 2.554381e-09 1.7097463e-09 -2.970978e-10 2.5213003e-09 -4.212615e-09 -7.055355e-09
-8.392491e-10 -4.4148134e-09 -5.736528e-09 -4.2669175e-09 -1.0061535e-09 -1.9536775e-10 3.8909476e-09 5.401177e-11
00000000: 985f 59af 7d97 0b31 2589 2f31 5afc ea30
00000010: cc54 a3af 2f43 2d31 8ebe 90b1 8f6b f2b1
00000020: e8b0 66b0 1cb1 97b1 091b c5b1 349c 92b1
00000030: e148 8ab0 22cf 56af 23b1 8531 d98b 6d2e

exp_avg_sq f4 [16]
1.8717519e-17 3.8357074e-16 3.4796468e-16 3.0268315e-16 4.170476e-18 6.958996e-16 8.2960644e-17 2.4954615e-16
2.1257442e-17 3.1745215e-16 1.6000982e-16 4.7260775e-16 1.2641431e-16 1.1447232e-16 1.5628541e-16 2.721019e-17
00000000: 7ea3 ac23 0d1d dd25 8696 c825 267c ae25
00000010: 08dd 9922 5494 4826 524b bf24 83da 8f25
00000020: b710 c423 abff b625 907a 3825 4c38 0826
00000030: ebbe 1125 44fa 0325 502f 3425 3ff8 fa23

exp_avg f4 [16]
0.00030159304 0.015402364 -0.001816912 0.0037957148 -0.0010402114 -0.01011263 -0.00051558024 -0.0037573564
1.3480323e-05 -0.003232401 0.0006006369 -0.00010760745 -0.0039810212 -0.0068115084 7.05882e-05 0.0010758288
00000000: 221f 9e39 325a 7c3c 7325 eeba 87c1 783b
00000010: b457 88ba 72af 25bc 0128 07ba fb3d 76bb
00000020: 8c29 6237 b1d6 53bb 0f74 1d3a 4fab e1b8
00000030: 3a73 82bb 1333 dfbb c008 9438 d302 8d3a

exp_avg_sq f4 [16]
1.6559763e-05 0.001403227 1.628301e-05 0.00019949472 0.00020789004 0.0012706484 7.697613e-06 5.944543e-05
1.3261558e-08 7.623429e-05 2.6306618e-05 8.286444e-06 0.0009988742 0.0017052952 2.4648027e-06 3.882836e-06
00000000: d2e9 8a37 7cec b73a 7f97 8837 752f 5139
00000010: 0ffd 5939 e38b a63a ff24 0137 0b55 7938
00000020: f3d4 6332 f9df 9f38 08ad dc37 0206 0b37
00000030: a8ec 823a 3684 df3a fd68 2536 4f49 8236

exp_avg f4 [16]
0.0005234575 0.010036986 0.0021395073 -0.0015587623 -0.00061029854 -0.00564761 0.0009736579 0.0017290773
-0.0004300003 0.0025272002 -0.00029047168 0.000324756 0.0007341278 -0.004107166 -0.00014314642 0.002111202
00000000: a338 093a 2c72 243c fa36 0c3b 624f ccba
00000010: 71fc 1fba 960f b9bb 133d 7f3a 35a2 e23a
00000020: aa71 e1b9 629f 253b 734a 98b9 0344 aa39
00000030: 7c72 403a 6895 86bb 9319 16b9 185c 0a3b

exp_avg_sq f4 [16]
4.9664734e-05 0.0005941696 2.2579812e-05 3.3613524e-05 7.1476556e-05 0.0003968093 2.7452106e-05 1.25898705e-05
1.3425972e-05 4.659233e-05 6.1618666e-06 7.5350996e-05 3.5868765e-05 0.0006252262 1.0146466e-05 1.4953224e-05
00000000: 1a4f 5038 0cc2 1b3a c769 bd37 3ffc 0c38
00000010: afe5 9538 d80a d039 f348 e637 1539 5337
00000020: 1c40 6137 226c 4338 08c2 ce36 c205 9e38
00000030: cb71 1638 38e6 233a bd3a 2a37 9cdf 7a37
